model/a1model.pth (torch, 33183 bytes, 4 tensors)

linear1.weight f4 [256, 25]
00000000: 7a4b dbbe 6d65 823f a3e2 943f 40d8 15bc
00000010: 57d3 8cbe c7d3 ff3e 02d4 d53d 32e7 d8be
00000020: 1ddd 3f3f 177e 293f ba39 3d3f 2c46 9e3e
00000030: b49b 46be f5dc ffbc 7d80 8a3e 6e48 453e
00000040: c8b0 11bf 53b1 05bf b8a9 e5bd db9c c2be
00000050: c05e ca3d abad 29be a40a 45be 8376 61be
00000060: 84eb f2be 5859 4dbf 9323 19bf 1a4c 9b3f
00000070: fb0a 88bf 9989 183f 1fc8 7f3e 10f8 313e
00000080: edbe f43e 6d4b 7ebf 6d62 eebe 1a1e b23e
00000090: aec5 093f 286f 48bf 4ca1 943e 4c03 af3e
000000a0: 3909 ba3e 78b4 32be 7c38 e1be 2fcb f6bb
000000b0: 91a3 60bd 16b3 c4bd d607 8b3e 6ae4 8abb
000000c0: 9045 d3be 8046 f5be e192 713e 41e2 8cbe
000000d0: 6d35 453f 58ee 833f 47c3 933d 2f36 403f
000000e0: 9241 9e3c 46ab 9c3d f132 ce3f 27a7 5bbf
000000f0: c84f a23e e474 6dbf 9095 94be 5a76 b73e
00000100: 1ed7 44be 927e 54be 980e a1bf 36d1 c5be
00000110: 8354 fd3d e5a4 b8be 7a9f 6abe ffc2 2ebf
00000120: 59fe 35bd 7eec 00be 5674 0cbf 3ce7 2abf
00000130: 6543 023f daff 61be 0d8a dcbf bf35 7b3f
00000140: e0c2 16c0 167d 833e cc03 1fbe b00f 513f
00000150: 2e83 11be c330 c1be 93e7 bf3d 9275 debe
00000160: 2685 0dbe 3796 1d3f 08d8 823f 1be6 ba3e
00000170: 3dcb 14bf 4bf1 53bf cf60 3bbc 60af 13bf
00000180: 9db7 f0be 997d 2abf a64e d4be 7a25 23bf
00000190: 6744 8e3f 52c9 d23e 6ce5 f7bb a7c4 d63f
000001a0: e84a 21c0 c420 bb3e b493 f13e fd55 02bf
000001b0: d024 5b3e 6339 cec0 89f0 143f 01ba ef3d
000001c0: df31 363d bf77 583e 284e db3d 69f6 e03d
000001d0: 2d95 193d 88a3 2ebe ca26 f33b 9d5a 5fbe
000001e0: 681f 3abe fb00 6dbe 2569 4bbd 37e7 11bf
000001f0: 53d1 04bf 1356 cd3f 9770 473f b27b 8cbe
00000200: 70e3 87be e45a 44bf 8219 3e3f cf10 b63e
00000210: 2780 2a3f 87ca 133e 4557 a8bd 54db b73e
00000220: 28f1 8a3e ea7e 64bf c4ef 27bf 953e 723f
00000230: 4fb7 c93d 7108 b2be 6a11 10bf f4d0 a3bd
00000240: 2c90 1f3f 03e2 c7be 8756 4bbf 0d36 eabd
00000250: 1947 aabe 14e5 e4bd 4178 bfc0 cfaf f93e
00000260: f9a2 973f 7530 02be d0df f53f e219 c0be
00000270: f05c 393f 5160 90bd 9e7c ce3e 1f42 733f
00000280: 7f52 4fbf b251 393d 4518 42bd f2b6 c73c
00000290: a510 4fbd ebbc 2b3e d32a 1bbe 7e4d a4be
000002a0: b61c d9be 0677 55be bbf4 82bf 68a8 25be
000002b0: a4c2 18be 191e 29be eb11 15be afe2 e63d
000002c0: d1d3 9ebc 6b96 753f b1f0 09c0 3a74 00c0
000002d0: e27b cabf a32e df3f 3121 2abf 9c59 613f
000002e0: 3246 e03f c5cd 8c3f c1a3 bb3e f132 23bf
000002f0: b829 a73e 4b64 2a3f ffef 17bf f0c2 5e3e
00000300: 7a93 003e 67ab 0ebf 3893 67bf 6f62 fdbd
00000310: 1bf1 52c0 10a7 ebbe 3b10 70bf ec05 32be
00000320: c086 01c0 1bbf 88be 5043 94bf 5dc0 813e
00000330: 321a b83e f726 bc3d c0d0 613d 2b27 193f
00000340: 083d 5cbf a884 f93e 7f0c 12bf 5390 4c3f
00000350: 7b7f 7bbc 7687 da3f 7c14 6dbf 0cbc 013d
00000360: 07e3 46be 4adc c43b 6bbc 8cbf 27d3 d6bd
00000370: 62c5 93bd da59 09bd 75ec 13bf 46ec d2be
00000380: 1823 833e eaf8 e4bc 022b 98be 783d a73f
00000390: 6a6e 06be 5740 9d3f 9c9a 03bf 0b6b 753c
000003a0: 2943 173f d7c2 d6be 100b 763e 2311 5cbe
000003b0: 98bb a9be ea12 af3c 218a 05be 4dfb 9a3e
000003c0: e3fa aa3d 5f05 acbf 7eed 50be 26b5 743f
000003d0: 20f2 20bf 7b56 d53d 7c54 19be c2dc 973d
000003e0: edd1 df3d 6a7a 0abf 2427 703f 08b1 6a3f
000003f0: 1ea5 bcbf 2c59 2c3e c643 c93f 9352 bb3d
-0.42831022 1.0187203 1.1631664 -0.009145796 -0.2750499 0.4996626 0.10440828 -0.42363888
0.7494677 0.6620802 0.7391621 0.30912912 -0.19395334 -0.03123329 0.27051154 0.19265911
-0.5691037 -0.522237 -0.11214012 -0.38010296 0.098813534 -0.16570155 -0.1924234 -0.22017865
-0.4744531 -0.8021445 -0.59819907 1.2132599 -1.0628351 0.5958496 0.24978684 0.17379785
0.47801915 -0.9933384 -0.46559468 0.3478859 0.5381726 -0.7829461 0.2902931 0.34182203
0.3633516 -0.17451656 -0.43988407 -0.0075315456 -0.05484349 -0.096044704 0.27154416 -0.004238655
-0.4126401 -0.4790535 0.23591186 -0.27516368 0.77034646 1.0307112 0.072149806 0.7508268
0.019318376 0.07649855 1.6109296 -0.8580193 0.31701493 -0.92756486 -0.29020357 0.35832483
-0.19222686 -0.20751408 -1.2582579 -0.38636178 0.12369635 -0.36063305 -0.22912398 -0.6826629
-0.044432018 -0.12590215 -0.54865015 -0.66759086 0.50884086 -0.22070256 -1.722963 0.98128885
-2.3556442 0.2568137 -0.15528792 0.8166456 -0.14210197 -0.37732515 0.09370341 -0.43449074
-0.13820323 0.61557335 1.0222178 0.36503682 -0.58122617 -0.8279006 -0.011436655 -0.57689476
-0.47015086 -0.66597897 -0.41466254 -0.6372906 1.1114625 0.4116922 -0.007565191 1.6778764
-2.520197 0.36548436 0.47183 -0.5091246 0.21400762 -6.444505 0.5817953 0.11705399
0.044481155 0.2113943 0.107082665 0.10984499 0.03749578 -0.1705457 0.0074203955 -0.2181191
-0.18176043 -0.23144905 -0.04966082 -0.5699343 -0.51881903 1.6041893 0.77906173 -0.27438122
-0.2654071 -0.7670119 0.7425767 0.355597 0.66601795 0.14432727 -0.0821977 0.35909522
0.27137113 -0.89256155 -0.6560023 0.9462674 0.098494165 -0.34772065 -0.5627657 -0.07998839
0.62329364 -0.3903962 -0.79428905 -0.114360906 -0.33257368 -0.11176506 -5.9834294 0.48766944
1.184661 -0.12713797 1.9208927 -0.37519747 0.72407436 -0.07049621 0.4032945 0.9502277
-0.80985254 0.045243926 -0.047386426 0.024379227 -0.050552983 0.16771285 -0.15153055 -0.32090372
-0.42404717 -0.20846185 -1.0230936 -0.16177523 -0.14918 -0.16515388 -0.14557616 0.11273705
-0.019388111 0.95932645 -2.1553156 -2.007094 -1.5819056 1.7436107 -0.66456896 0.8802736
1.7521422 1.1000296 0.36648372 -0.63749605 0.32649016 0.66559285 -0.5935058 0.2175405
0.12556258 -0.5573029 -0.90459013 -0.1237229 -3.295966 -0.46025896 -0.93774766 -0.17385072
-2.0238495 -0.26708302 -1.1583042 0.25342074 0.35957485 0.091871195 0.05513072 0.5982539
-0.86030626 0.4873402 -0.5705032 0.7990772 -0.015350218 1.7072589 -0.9260938 0.031673476
-0.19422542 0.006007706 -1.0995001 -0.10489493 -0.07215382 -0.033532955 -0.5778268 -0.41195887
0.25612712 -0.027950723 -0.29720312 1.3065634 -0.13128057 1.228526 -0.5140779 0.014979134
0.59086853 -0.41945526 0.24027658 -0.21490912 -0.33150935 0.021371324 -0.13040973 0.30269852
0.08348634 -1.3439139 -0.20403096 0.9558891 -0.62869453 0.104168855 -0.14973634 0.07415153
0.10928712 -0.5409304 0.93809724 0.9167638 -1.473789 0.16830891 1.5723808 0.09146609

linear1.bias f4 [256]
00000000: 60ee d8be f37b f73b 94d9 21be 3291 963c
00000010: 216d dcbe f969 ccbe d4ef 6ebe 9141 2ebf
00000020: 24b7 b6be 130c 82be 3b89 953d f413 febd
00000030: 667d 29bf caab 76be ae70 f2be a4fd 10be
00000040: ddb3 133e c996 0bbf f2b6 293e ef99 ca3e
00000050: 7d9f 2b3e 4edd f0bd e819 4fbe 3d7e 00be
00000060: cfed 18bf 6fbd 69bf a084 cfbd 97cb 2fbf
00000070: 4948 3bbf bb3e fabe b4db 383f 9e60 78bf
00000080: fd61 12bd e95c afbe b1ec 63bf 7592 16bf
00000090: 3618 95bd 05f5 653e b6f9 f83d e941 66bd
000000a0: e076 eebe 2f47 9dbd ff8c a53d 686d 6ebd
000000b0: a0a4 f8be 615d 18be 3588 e5be ed06 13be
000000c0: 9b87 cf3b b065 bbbe ad1f 93be a372 7dbc
000000d0: c315 e7be d1de 4dbf 3f4b 0d3d ba65 c8be
000000e0: 57b5 0bbf 1a6d a5be a0e2 c9be 3e13 f9be
000000f0: 950a c0bc 9f93 623e ae0c 40be 9d2a 263f
00000100: ca40 46bf 3dec 85be a14f 6d3e 13a6 fdbe
00000110: 2342 a33d 530a c3be 9465 25bf 0ce0 89be
00000120: ffaa 32bd 1cba 91be c23d dfbe 6e8c 8cbf
00000130: 478e f53d 7271 85bf 70d3 12bf 7e73 69be
00000140: fc3b b0be 76fc afbe 9ed0 16bf d8dc 5ebe
00000150: f681 003e 86e4 193e d3ba 2dbe 46e1 0abf
00000160: d9ef 26bf 51b9 4b3e f8ca 3a3e 43d8 2abd
00000170: 80b3 92be 1a31 d0bd 7ca9 d7bd fb48 82be
00000180: 0fd1 c1be b4bf 8abc ee41 9abe aa12 1ebf
00000190: 93ba 71bf fba3 97be 479d 8dbe dd0d c13e
000001a0: f7cb 3bbf 1374 09bf 37a6 21bf d9c9 a7be
000001b0: 8d8d d43e fe73 41bf 3956 4bbf 947c bfbe
000001c0: 43e1 9ebe 69bd 44be de0f d7bb 79a7 ecbe
000001d0: 9092 6a3e 9ff8 8d3d 8b5e f1bd c3a4 58bf
000001e0: 0a62 86bf dc3e 03bf 62f4 973e 2056 d5be
000001f0: 2354 8cbe 8091 c3be 97ab 72bc d024 dfbe
00000200: 7bce 7f3e a75d 3c3e f2ef 023f 7da4 02bf
00000210: 9ed7 82bf c970 0e3e 50ab 11bf f305 15bf
00000220: 4de1 34bf ba33 433e 69f5 1bbe 6618 cfbe
00000230: e9ce 78bf b04f 6dbd b920 eebe c576 1bbe
00000240: 6ecb 2fbd 9c6d dbbd 07bc a0bc bb74 ea3e
00000250: 859c 30be 482e 00bf 790c 083e 4812 9b3e
00000260: e01d 47be 260e e43d d245 11be d35f e83e
00000270: 693c a1bb c2a7 30bf 3fce b1bf 9278 303e
00000280: 68dd 2dbf f1b1 0abf ab21 ecbc 7b6c 293f
00000290: 64c5 ad3e 123a 18bf eaa7 db3e 0f77 d03e
000002a0: c7aa 0dbf dee4 73be cde3 aebe 4e4f b3bd
000002b0: 4497 febe 2ddc 253e 52de 33bf 048a a3be
000002c0: d9c5 c5bd 1c56 28bf 2158 37bf e98b cabe
000002d0: 6086 94be 47b1 843e 9e47 19bf 4f0b 903e
000002e0: bb27 2bbd e5c9 07bd c5ba c03f 42c1 75be
000002f0: 7d30 e0be 1e15 4fbf d89d d1be b8b8 bdbe
00000300: b472 7c3e 8e40 86bf 2ea4 47bf b2ff d3be
00000310: 41f0 393f 07d4 37be fdcc 7abe 13db e73d
00000320: ec7f 52be 4fbe 81bf 5299 0abf 4695 45be
00000330: 85f1 80be c420 9dbe 21f9 e9be eb52 1b3f
00000340: 453d 003e 9435 6cbe ff95 873e d4c4 e1be
00000350: 42e1 1fbf 716a 483e abff d33e 3e1b 83be
00000360: 6d16 803f ddd3 27be 0d06 cbbe cf8a 2fbf
00000370: 919f d2be 0370 69bf a055 5dbd 8562 0dbf
00000380: c984 9cbe 1d39 213f b0d5 77bf 3914 61bf
00000390: b03d 143f 363f 81bd e22b b73e a623 283e
000003a0: fdb4 7cbe 15d1 6bbe 45c6 313e 018d adbe
000003b0: ab66 6ebe 8fd6 46bf 8f41 38bf 9015 fabe
000003c0: 6652 48bf 851e ddbd e889 01bf fb66 05bf
000003d0: 3c48 913d 8cdc 8dbe ebbc 86be 1670 6fbe
000003e0: 1992 f5be 082b 74bf be69 51bf b54d 16bf
000003f0: aa35 32bf 6c6c 593f 5a5d c6bf 8308 3e3e
-0.42369366 0.0075526177 -0.15805656 0.018379781 -0.4305201 -0.399246 -0.23333675 -0.68068796
-0.356866 -0.25399837 0.07301565 -0.124061495 -0.6620697 -0.2408897 -0.47351593 -0.14159256
0.14424081 -0.54526955 0.16573694 0.39570567 0.16760059 -0.117609605 -0.20224726 -0.12548156
-0.5973787 -0.9130468 -0.10132718 -0.6867003 -0.73157173 -0.48875985 0.7221024 -0.97022426
-0.03573798 -0.34250572 -0.8903304 -0.58817226 -0.072800085 0.22456749 0.121570036 -0.0562152
-0.4657507 -0.07679593 0.080835335 -0.058209807 -0.485631 -0.14879371 -0.4483048 -0.1435811
0.006333304 -0.3660102 -0.28735104 -0.015469226 -0.4513379 -0.80418116 0.03449559 -0.3914011
-0.5457358 -0.323098 -0.39430714 -0.48647493 -0.023442546 0.22126625 -0.18754837 0.6490877
-0.7744261 -0.26156798 0.23174907 -0.49540767 0.07971599 -0.38093814 -0.6460812 -0.26928747
-0.043620106 -0.28462303 -0.43601805 -1.0980356 0.11990028 -1.0425246 -0.5735388 -0.22797963
-0.34420764 -0.343723 -0.58912075 -0.21763933 0.12549576 0.15028581 -0.16965799 -0.5424999
-0.6520973 0.19894911 0.18241489 -0.04171015 -0.28652573 -0.101656154 -0.105303735 -0.25446305
-0.37854812 -0.016937114 -0.30128425 -0.6174723 -0.94425315 -0.29617295 -0.27659056 0.3770589
-0.733581 -0.5369274 -0.6314425 -0.32771185 0.41514245 -0.75567615 -0.7942844 -0.37399733
-0.31031236 -0.19212879 -0.006563171 -0.46221521 0.22907472 0.06932186 -0.11785611 -0.84626406
-1.0498669 -0.5126779 0.29678637 -0.4166727 -0.2740794 -0.38196945 -0.014811418 -0.43582773
0.2498111 0.183951 0.5114738 -0.5103224 -1.0222051 0.13910212 -0.5690203 -0.582122
-0.7065628 0.19062701 -0.15230335 -0.40448302 -0.9719072 -0.057937324 -0.4650934 -0.15182026
-0.042918615 -0.10714266 -0.019620908 0.45792183 -0.17247207 -0.5007062 0.13286008 0.30287385
-0.1944499 0.11135511 -0.1418679 0.45385608 -0.0049205315 -0.6900598 -1.3891066 0.17233494
-0.67915964 -0.5417777 -0.028824648 0.66181153 0.3393966 -0.5946361 0.42901546 0.40715834
-0.5533871 -0.23817775 -0.34158173 -0.087553605 -0.49724782 0.16197272 -0.7026111 -0.31941235
-0.09656877 -0.6575639 -0.7161885 -0.39559868 -0.2900877 0.25916502 -0.59874904 0.28133628
-0.041785937 -0.033151526 1.5056998 -0.23999503 -0.43786994 -0.808916 -0.40940738 -0.37054992
0.24653131 -1.048845 -0.77984893 -0.41406018 0.72632223 -0.17951976 -0.2449226 0.11321082
-0.20556611 -1.0136203 -0.541402 -0.19295225 -0.25184265 -0.3068906 -0.45697883 0.606734
0.12523372 -0.23067313 0.26481625 -0.4409548 -0.6245309 0.19571854 0.41405997 -0.25606722
1.0006844 -0.16389413 -0.39653054 -0.6857118 -0.41137365 -0.9118654 -0.054036736 -0.55228454
-0.30570057 0.6297777 -0.96810436 -0.8792148 0.5790663 -0.06310885 0.35775667 0.16419849
-0.24678417 -0.23028977 0.1736079 -0.3389664 -0.23281352 -0.7767114 -0.71975034 -0.48844576
-0.7825073 -0.10796837 -0.50601053 -0.5211026 0.07093856 -0.27707326 -0.26316008 -0.23382601
-0.47963026 -0.9537816 -0.81801975 -0.5871232 -0.69613135 0.84931064 -1.5497239 0.18557934

linear2.weight f4 [5, 256]
00000000: ae88 b13f 1d59 85bf 3565 16be d565 a1bf
00000010: 6655 893f a1aa 953f eb2f 5c3f 09e8 6f40
00000020: 69ef 6640 fca1 3dbe 61a1 533f 69b4 e73f
00000030: c742 b0bf d423 be3f 86b9 6140 6086 50bd
00000040: ee22 15bd 334c de3e 891c d8bd 5e33 a03f
00000050: e8a8 19bf 70d2 ca3f be0a 49bd c24d 2c3f
00000060: 1bc0 36c0 9513 2b40 07c6 c73f 20e5 e03f
00000070: a99a cf3f d83e edbe 701d c9bf d03d 1cc0
00000080: 8f8b 03bf 5a7e 64bf 6bec 5a40 947b 4940
00000090: b76d 83bf e756 453f 967a b73e 0aa1 02c0
000000a0: 2a78 f1bf 90da ed3f 1a2a 823a 9527 6440
000000b0: 2cbd bb3f fddc 98bd 7a37 d73f 345a e3bd
000000c0: 45cf d93f 87c0 ed3e bd63 b1bf ca44 79bf
000000d0: bb98 383f 071d 22c0 713b b73e b3d0 29c0
000000e0: 6653 2440 e1a4 7b3f 7b89 883f 82cb 0340
000000f0: 7712 bd3f 51c3 563f f127 dc3f b1fb a83e
00000100: 30f3 64c0 a407 aac0 2f07 983f 89db d43e
00000110: a29c 8b3e 4d92 153f 5ab2 bb3f fe4f b63b
00000120: 8985 c7be 2568 b23c d104 c1bf 7acd f43f
00000130: fc3b 063f 1bd2 0abf 9b8a 5140 6969 c53f
00000140: 15e1 84be 86f2 363c 7bb6 ae3f 5bdc b13e
00000150: 37d4 b6be f7f7 dfbe 9925 ccbe 3c1f b33f
00000160: 2730 603f c8ab d7be c6dc 0bbf b563 133f
00000170: 6c6c 4840 d220 1540 1592 273f 21b3 1a40
00000180: 6e4c e4be 7178 0fbe 6d65 a4bf 04f5 a03f
00000190: e9fc 2540 84c3 c73f 8030 e73f 7842 153f
000001a0: f394 fdbf d744 ba3f 4f4a 8e3f 94e4 c43f
000001b0: df39 f63e 1dbb 5cbf 6ffc 20c0 869b 6a3e
000001c0: 7fee 7e3f fa38 babd 1bde de3e aee5 ed3f
000001d0: f2d5 91bf fbf6 9c3f 2651 c03f 58e5 7440
000001e0: 761a 7040 7ed5 4440 c485 e1bf bab0 09c0
000001f0: 5de4 1c40 debc c4bf 5da0 9a3e 0b1c 80bf
00000200: 81a3 173e 657f 2f40 17b6 853f a9b7 a33f
00000210: a635 1740 52d6 3bbf e4de 2640 854b 1f40
00000220: e604 45bf 7a3a b1be 0bd4 483c 21dd dd3f
00000230: 296f 1c40 2b3b dabe 3fcc 1940 e2dd df3e
00000240: 3541 2540 5c27 c23f b5e9 42be 058a 84bf
00000250: ed62 583f 88da b8be f0f6 0cbf 1978 7440
00000260: 82af 543f 0bd7 243f b6a3 ba3f d1df 92be
00000270: 9643 88be c2dd 1040 7a2c cbbe 72ca f7bd
00000280: a8c1 3f3f 5d2d fe3e 8242 9240 0aa8 373d
00000290: 0e37 203f a886 4dbf 6f7f 5d3e e02d 9a3f
000002a0: 4b34 ba3f 40c2 0040 7dc9 e7bc 6ea7 893e
000002b0: 5db3 0740 55f8 adbf 968e 15c0 b481 84be
000002c0: 7ca2 f03f 1182 6940 9788 713f f1c3 5340
000002d0: 0580 5040 9974 523e 930c 7c3f e13a 01bf
000002e0: 7e8a 47bf 6650 6fbf 016f bd3f 3d00 4f3f
000002f0: a731 c4c0 484b 1a40 a312 0bc0 6314 6b40
00000300: 5e89 2140 dbb0 7b40 12a4 8940 7bf9 80c0
00000310: 2cc1 fdbf c02b 72bc 9734 3ac0 7b75 2ebf
00000320: 1e4e 2c40 6802 dd3f 78c9 5fbe 68f1 d93f
00000330: f2f7 c8bc 0d6f 2b3f ae32 3abe 8c23 14be
00000340: 71ac 17bf 7a7f 963f 85fe a43f ec10 0840
00000350: 7bb2 ca3f 883b 433f a0d3 7f3f a467 b63d
00000360: 0eaf 233f 0371 4cc0 06a1 39c0 2ccc 1440
00000370: 0097 3b40 086e 0040 98a4 da3f 4414 57be
00000380: 7947 4fbf ec49 d93e f6b7 bb40 11b9 593f
00000390: a570 35be 9882 8bbe af3a debf ab21 3040
000003a0: 7ec7 733e a530 20bf 8553 703f fd9b 5c3f
000003b0: 2530 c23f a5a2 64bf ce91 3bbf 9434 a1c0
000003c0: 4a39 3340 a654 acbf 7be3 5b3f c769 fbbf
000003d0: 4b08 853e f90c a9be 3209 413e a243 063f
000003e0: ccef e43f e574 2d40 340e 393f 516c fc3f
000003f0: be14 c53f ab18 d640 f353 be40 6554 813f
1.3869836 -1.041782 -0.14687045 -1.2609202 1.0729187 1.1692697 0.86010617 3.7485373
3.6083624 -0.18518823 0.8266812 1.8101932 -1.3770379 1.4854684 3.5269485 -0.0509094
-0.036410265 0.4341751 -0.10552318 1.2515676 -0.60023355 1.584547 -0.04908251 0.6730615
-2.8554752 2.6730702 1.5607308 1.7569923 1.6219074 -0.46337008 -1.5712109 -2.4412727
-0.51384825 -0.892553 3.4206798 3.1481676 -1.0267857 0.7708573 0.35835713 -2.041079
-1.8864796 1.8582325 0.000993076 3.564916 1.4667106 -0.07464025 1.6813805 -0.11101189
1.7016379 0.4643595 -1.3858563 -0.9737059 0.7210805 -2.5330217 0.35787538 -2.653363
2.5675902 0.9829846 1.0666956 2.0592961 1.477126 0.8389178 1.7199689 0.33004525
-3.577343 -5.3134327 1.1877192 0.41573742 0.2726794 0.5842636 1.4663804 0.005563735
-0.38969067 0.021778176 -1.5079595 1.9125206 0.5243528 -0.54226846 3.2740848 1.5422794
-0.25952974 0.0111662205 1.3649439 0.3473843 -0.35708782 -0.4374387 -0.39872435 1.3993907
0.87573475 -0.42123246 -0.5463375 0.57574016 3.1316175 2.3301282 0.6545728 2.4171832
-0.4458956 -0.14010789 -1.2843453 1.2574773 2.5935614 1.5606542 1.8061676 0.5830455
-1.9811081 1.4552258 1.1116427 1.5382257 0.48091027 -0.8622301 -2.5154073 0.2291089
0.99582666 -0.09092899 0.43528828 1.8585718 -1.1393416 1.2262872 1.5024765 3.826498
3.751615 3.0755305 -1.7618947 -2.1514115 2.4514382 -1.5370138 0.30200472 -1.0008558
0.14808466 2.7421505 1.0446194 1.2790424 2.3626494 -0.733739 2.6073542 2.4889843
-0.769606 -0.34614927 0.012257586 1.7333108 2.4442847 -0.42623267 2.4030912 0.4372397
2.582105 1.5168262 -0.19034465 -1.035462 0.8452595 -0.36104226 -0.55064297 3.8198302
0.83080304 0.6439063 1.4581211 -0.28686383 -0.26614064 2.263535 -0.3968237 -0.1209916
0.7490487 0.49643984 4.5706186 0.04483799 0.62584007 -0.80283594 0.21630643 1.204525
1.4547209 2.011856 -0.02829432 0.2688555 2.1203225 -1.359141 -2.3368278 -0.25880206
1.8799586 3.6485636 0.94349045 3.3088343 3.2578137 0.20552291 0.98456687 -0.5048047
-0.779457 -0.93482053 1.4799501 0.8085974 -6.131061 2.4108448 -2.1730125 3.6731193
2.5240092 3.9326694 4.301278 -4.030454 -1.9824576 -0.014780939 -2.9094598 -0.6814801
2.692268 1.7266359 -0.21854198 1.7026796 -0.024532292 0.66966325 -0.18183395 -0.14466685
-0.592475 1.1757653 1.2890173 2.1260328 1.5835718 0.7626271 0.9993229 0.08906487
0.6393899 -3.1943977 -2.900453 2.3249617 2.9310913 2.0067158 1.708148 -0.21003824
-0.80968434 0.4243921 5.866206 0.85048014 -0.17718752 -0.27248073 -1.7361659 2.752055
0.23806569 -0.62574226 0.9387744 0.8617552 1.5170943 -0.89310676 -0.73269355 -5.037668
2.8003716 -1.3463333 0.8589398 -1.9641656 0.2598289 -0.3301771 0.18851164 0.5244695
1.788568 2.7102597 0.722873 1.9720556 1.5396955 6.690511 5.9477477 1.010388

linear2.bias f4 [5]
00000000: b465 893e b93c bb3d f319 533d 87d3 b73d
00000010: 39fe 6f3e
0.26835406 0.09142441 0.05153842 0.089758925 0.23436822
