model/a1model.pth (torch, 33183 bytes, 4 tensors)

linear1.weight f4 [256, 25]
00000000: 3648 5e3d 75f0 373c 4bd0 11be 7c60 ea3d
00000010: f59b 4abe 3a35 9d3c 84a4 003e 7817 fcbd
00000020: 5f31 8b3d 275f 6d3d 5a14 d7bd c794 833d
00000030: 1ffc 04be 1a27 f0bd c471 a3bd 933d d33d
00000040: bd19 f0bc 88f9 b9bd e142 09be e9f0 2cbe
00000050: aeb6 3fbe 5f7f 0d3e 778f bfbd 4ecc 24be
00000060: cf5d 173e 8444 7e3d c3ce 2cbe 37a5 ce3d
00000070: 8eaa 78be 0e74 58b9 4234 ba3d b0c6 c2bb
00000080: c46f 833d ecf1 0ebe a840 953d f123 30be
00000090: 3f53 9abd 08ac 16be 5f8d e5bd fbc8 fcbb
000000a0: f514 0f3e 1c3c c639 2ab1 2ebd ad41 953c
000000b0: f0c8 be3d bdac ddbc 2239 653d f7c0 983d
000000c0: c9ac 20be bf8e 89bd 6193 90bd 52be e03d
000000d0: 0437 9f3d b9f8 b63b 5964 a43d a70b 25be
000000e0: c845 d43c 9e37 18be 7c40 c73c f29b ffbd
000000f0: 203c f6bd e30f 7dbd 4a56 643d 2bad 86bd
00000100: 7812 2f3e 3326 e43d 4e25 063e f5d3 ed3d
00000110: 0532 1a3e 4e55 bdbc 68fb 14bb 1298 0cbe
00000120: 80d6 a23d fdb4 c4bc af24 95bd 302c 8e3d
00000130: 64fc 24bc 9ba4 d33d 83b5 9bbc b433 42bd
00000140: 7ba8 18be 460a c3bd db8f f03d d67e b6bc
00000150: a59e 193e 7c6b f4bd d622 353d 5e34 2d3e
00000160: d187 41be bf4f 243e 634e fb3b 435c 1abe
00000170: 210a d6bd ef8e 35be 95a7 9ebc 1deb b63d
00000180: 0bf9 29be 453e 97bd b3a6 0d3e 6c98 90bd
00000190: 44d4 153d 730f cf3c af1f 02be 5b95 38be
000001a0: 131c 083e 2d33 01bb 3149 3d3e e6de debc
000001b0: 9641 05be ee59 053e e24c e43c 22b0 fbbd
000001c0: 92a8 7f3d 4349 ae3d f0d4 253d 4e74 15be
000001d0: e6a9 00be 64b5 ba3d 2646 3f3d 1c6f 4abe
000001e0: 3f2d 00be 258b d4bd 67af e3bd 2650 813d
000001f0: 5996 24be a783 04be 403f 51be b7c6 bdbd
00000200: 6ea4 853c 4dc9 3bbe 91a5 a93d 8589 8bbc
00000210: 8abd 4e3d 733c 053e 0f56 a63d b1e6 53bc
00000220: cd06 3d3d 410e 193e 7e5b f5bd fccd b9bb
00000230: 5be0 9b3d dce5 4fbe eeee 11be 3157 8a3c
00000240: 5bce 3ebe c999 a13d 337d 78bd 9350 9d3d
00000250: 1c8c 233e c95b d03c 78f6 113d daa7 103e
00000260: 5768 0fbe e006 3d3e a2de c13d f92f 463d
00000270: e022 51be 6ac2 573d ae4d 0e3e 328f c23d
00000280: 5547 2bbe 1bcf d93d 2b88 19be 9424 b3bd
00000290: be10 bb3c ad2d 2cbe d7d7 65be 77cf 28bd
000002a0: 08fb 1bbe b68e 303c 0a4e e0bd 4088 b3ba
000002b0: b578 cc3d 266e c4bc bbcb fabd cb25 203e
000002c0: 70c9 083e f5ba 44be 1829 003e 940e 13be
000002d0: 04a3 9f3d 00d4 ea3d a248 4b3d 31f6 2cbe
000002e0: 7383 f93d 0664 44bd 9115 113e ef13 003e
000002f0: 1726 0cbe 053f f8bb ac23 453d bc02 d83d
00000300: a8db 093e 43ed 8bba 41f6 d53a 8793 063e
00000310: 52c2 50be d02e 5cbe cf87 4c3d b8c3 96bc
00000320: 1127 0cbe aadf c13d ea51 22be fbec 57be
00000330: 0d69 2dbd 2c15 113d 37b8 c2bd b142 f63d
00000340: 6efb 8bbd 6a43 21be d2e6 b3bd 6eb3 f0bc
00000350: 8d2a da3d c899 b73d cc49 3f3d af59 9fbc
00000360: 24cf fbbd 9cd3 1dbe 9eab 49bd 04d0 073e
00000370: 84a8 3ebe bc5f d0bd f0cf 6d3d 0898 1e3e
00000380: a8d5 d6bd 124b a7bd 1ce6 053e 6ca2 51be
00000390: 936f bdbd 8462 4ebe b572 61be 6af9 d03d
000003a0: a45a 34bd 9758 bbbc 45e5 c0bd 1573 13bd
000003b0: 23a0 983d cf49 db3d cc83 df3d d713 13be
000003c0: f297 f23d 4716 bc3d a747 d5bd 1bda 6cbe
000003d0: 570e 9c3d 6700 4cbe d3ac 5a3d 69a8 6abd
000003e0: ff07 91bc d4f3 44bc e4f2 8b3d f542 a7bd
000003f0: 978a af3d 0e91 093e 2f56 1c3e 5d77 993d
0.054268084 0.011226763 -0.14239614 0.11444184 -0.19786055 0.01919042 0.12562758 -0.12309164
0.06796526 0.057952072 -0.10501929 0.064248614 -0.12986802 -0.11726208 -0.079806834 0.10314479
-0.029309148 -0.090807974 -0.13404419 -0.16888775 -0.1872203 0.1381812 -0.093535356 -0.16093561
0.14781879 0.06207706 -0.16875748 0.10090106 -0.24283811 -0.00020642599 0.09091999 -0.0059440956
0.06417802 -0.13959473 0.07287723 -0.1720121 -0.07535409 -0.14714062 -0.11208605 -0.0077143884
0.13972838 0.00037810288 -0.042649426 0.018219793 0.093156695 -0.027059907 0.05596269 0.0745868
-0.15690912 -0.0671668 -0.0705936 0.10973801 0.07774165 0.0055838493 0.08026952 -0.16117726
0.02591218 -0.14864966 0.02432274 -0.12480916 -0.12023187 -0.06178273 0.055746354 -0.06575998
0.17096889 0.111400984 0.13100168 0.11612693 0.15058143 -0.023111966 -0.0022732858 -0.13729885
0.07951069 -0.024012083 -0.072823875 0.06942022 -0.01006994 0.103341304 -0.01900745 -0.04741259
-0.1490802 -0.09523444 0.11746188 -0.022277277 0.15001924 -0.119345635 0.044222675 0.16914508
-0.18899466 0.16046046 0.0076692565 -0.15074258 -0.10451151 -0.17730306 -0.019367019 0.08931563
-0.16598909 -0.07384924 0.13833122 -0.07060322 0.036579385 0.025275921 -0.12707399 -0.18025725
0.1329196 -0.001971434 0.18484952 -0.027205896 -0.130133 0.13022587 0.027868692 -0.12289454
0.06241662 0.08510067 0.040486276 -0.14595148 -0.12564811 0.09116629 0.04669776 -0.19768947
-0.1251726 -0.10378102 -0.1111744 0.06314115 -0.16072978 -0.12940846 -0.20434284 -0.092664175
0.016313758 -0.18338509 0.082835324 -0.017033348 0.050473727 0.13011341 0.08121883 -0.012933419
0.046149064 0.14946844 -0.119803414 -0.005670307 0.07611152 -0.20302528 -0.142513 0.01688728
-0.18633406 0.0789066 -0.060666274 0.07681384 0.15971416 0.025434392 0.03563544 0.1412653
-0.14004646 0.18459654 0.09466292 0.048385594 -0.2042346 0.052675642 0.1389682 0.094999686
-0.1672643 0.10635205 -0.1499335 -0.08747211 0.022835132 -0.16814299 -0.22445618 -0.04121348
-0.1523248 0.010776212 -0.10952385 -0.0013697222 0.099839605 -0.023978304 -0.1224589 0.15639417
0.13358092 -0.19211943 0.12515676 -0.1436103 0.07794765 0.11466217 0.049629815 -0.1689079
0.12183275 -0.047946952 0.14168383 0.12507604 -0.13686405 -0.007575872 0.048129722 0.105473965
0.13462698 -0.0010675568 0.0016324 0.13142215 -0.20386627 -0.21502233 0.049934205 -0.018403873
-0.13686778 0.09466489 -0.1585156 -0.21086495 -0.042336512 0.03542058 -0.095077924 0.12024439
-0.06835066 -0.15748373 -0.0878426 -0.029382434 0.10652647 0.08964878 0.046701238 -0.019451944
-0.12295368 -0.15412754 -0.049235933 0.13262945 -0.18618971 -0.1017451 0.058059633 0.15487683
-0.104899704 -0.081686154 0.13076061 -0.20472115 -0.09249797 -0.20154768 -0.22016414 0.10203822
-0.044031754 -0.022869391 -0.0941873 -0.035998423 0.07452419 0.10707437 0.1091381 -0.14363037
0.118453875 0.091839366 -0.10414057 -0.23130076 0.076199226 -0.19922028 0.053387474 -0.057289515
-0.017704008 -0.012021024 0.06833437 -0.08167068 0.08571356 0.1343424 0.15267251 0.0749347

linear1.bias f4 [256]
00000000: f1f3 2dbe fc2a 74bb 7edb 093e 28e4 28be
00000010: b0ec 14bc 173e 11be f216 5bbe d7f0 a03c
00000020: e4cf 0f3e 3034 093e 396b 413d ed15 90bd
00000030: 80b7 1f3e 2b9d a13d 66bc afbd 2e39 63bd
00000040: 3f8c 343d 488b 9c3d a870 983d 4816 aabc
00000050: a6c6 f8bc e982 e6bd 5262 633d 6e6d 673d
00000060: 9fe3 8e3d bb63 28be a7a3 283e b42f 4cbe
00000070: 6287 d7bd d5ee 663d 4ccb 943d 3319 19be
00000080: 8545 d73d 56ed 593d eb54 dfbc fbd2 653e
00000090: 84c0 b83d 2f40 96bd eaa8 c73c 6792 a23b
000000a0: 8ac6 0c3e f784 003e 5cf1 7bbd 6e2d 45bb
000000b0: af86 07bd 23da 39be 2c8d 063c f559 28bc
000000c0: f8e1 b8bd 0f04 4d3d 5386 67be 90cd 033d
000000d0: 971a 35be 95a1 c5bd 3361 f83d 025f 703d
000000e0: 39a1 c83b aa72 853d b3f8 8cbc 0487 b93d
000000f0: 7ddb e2ba 86a8 6fbc e914 f93c e48e 543d
00000100: e4be 1bbd fc3e e23d 7546 07bd 5821 493d
00000110: f3ff 11bc 2421 4cbe e42c 12be b3fd 46be
00000120: a13e bfbc 2a05 febd b8cb 6f3d 4b25 d63d
00000130: 429c bc3c c68a 3f3e 166b 0abe 57fe a93d
00000140: 143b 39be 7c85 b3bd 6914 493d 3c99 cd3d
00000150: 0a94 bc3c 5690 2e3d ddc0 a6bd 2841 cdbd
00000160: 2eba 983d e06f bc3d c620 43be 994b 0cbe
00000170: 4685 44be bd0d 003d 8408 67be d903 d23c
00000180: d840 28be 9bb3 9abd 7394 babd 88b6 e2bd
00000190: f43d a13d 0815 c9bd 680c debc 538f 4cbe
000001a0: bc61 20be bb54 31bd 1f48 9cbc 98be 273e
000001b0: 5bf9 05be 693e cb3c 4a86 2fbe 1e72 05be
000001c0: 364a 43be 07cc 8a3c 20a8 1ebe 0a19 23be
000001d0: 4d77 433c 458c 053e 2785 25be ae53 123d
000001e0: 2df9 46bd d91e 5abe b02f 923d c208 e2bd
000001f0: 1610 58bc c6e0 11bb 0203 313e b6c1 a53c
00000200: 163e be3d d81b 96bd 2c17 be3d 0ec4 60be
00000210: fb52 193e 5a97 333e 4522 1a3e c89b 1ebe
00000220: 9454 e8bd fe68 a13d 72fa c23d 1ffd d5bd
00000230: 1045 11be f3c6 b53d 8364 30be 5378 69be
00000240: 9036 133d fdcb 61be b5b9 003c 9c61 32be
00000250: 8089 113e 986d 0d3d 6048 003e 0c6b 31bd
00000260: 71bb 0f3e a6bd 263e bb3d 4d3d 1d62 21be
00000270: d895 043e cb3b d9bd fee4 28be 082c cf3d
00000280: 6233 e43d aff5 b23d 5429 64be 49c3 03be
00000290: b25d 1d3c 96b7 01bd 2cf8 45be 6e14 513d
000002a0: 9ea4 0abe 54fc ebbd 8c26 293e c9d1 da3d
000002b0: 30cb 20be fd2d 2e3e 9902 c63c 5c35 bd3d
000002c0: 3b63 af3d 06b7 613d 5ba1 c5bd 0e37 dcbd
000002d0: 4ba9 15bd 321d d8bd 8c9b 17be 5124 85bd
000002e0: c0a4 883d 3661 643b c450 a73d 9610 9e3d
000002f0: 684a e3bc 6539 43bd 1c0c e0bd e7b1 68be
00000300: 22c5 073d d6d6 e33d 620a f13d 13f4 22be
00000310: 00fd de3d d2a2 45be 4e80 f33a 5100 e73c
00000320: 0cb8 93bc e5f4 6bbe d6e6 f13d 6bf8 b13d
00000330: 8a7e d43c c6b0 75be 99ae 22be 5df6 0fbe
00000340: 2bbb 093e d148 87bd 216f eb3c 304a 57be
00000350: ce57 d13d 0eff 0fbe f147 b93d fab8 45be
00000360: e501 31be 025c 31be c83a e33b 10a5 273e
00000370: 4b3f 203e 1485 4bbe 227c b23c 2523 6bbc
00000380: 759f ca3c 6ea2 d73c 74ee 30be 1eea 0bbe
00000390: b8ac bbbd 8f77 aabb 577e 4e3d d017 053e
000003a0: 610c 143e 67a7 cb3b 3a34 e93d efe3 96bc
000003b0: de94 39be 8fd2 0e3d d6b9 ea3c 0be2 ac3d
000003c0: 1ef5 3ebe f1a7 043c 8e67 f83d e7ab e73d
000003d0: 19f7 78bc 4d0b 1c3e 8f12 cabd 4ee8 223e
000003e0: 2fba fbbd 1792 903d 39e7 8a3c e908 2c3e
000003f0: 13e4 c33d 1eee d13c 1a73 c43d fa15 0b3e
-0.16987588 -0.0037257066 0.13462636 -0.16493285 -0.009089634 -0.14183842 -0.21395472 0.019646091
0.14044148 0.13398814 0.047221396 -0.07035432 0.15597343 0.078913055 -0.08580856 -0.055474453
0.04407906 0.07643753 0.074433625 -0.020762578 -0.03036816 -0.11255438 0.055513687 0.056500845
0.06977009 -0.16444294 0.16468678 -0.19940072 -0.10523869 0.05638011 0.07265338 -0.14951019
0.10511307 0.053204857 -0.027262172 0.22443764 0.090210944 -0.07336461 0.024372537 0.0049613
0.13747612 0.12550722 -0.061509475 -0.0030086893 -0.03308743 -0.18149619 0.008212369 -0.010275354
-0.09027475 0.0500527 -0.22609834 0.03217846 -0.17685924 -0.0964996 0.12127914 0.058684357
0.006122735 0.06516011 -0.017208433 0.09058955 -0.0017307844 -0.014627581 0.030405479 0.051894084
-0.038023844 0.110471696 -0.033026177 0.049104065 -0.008911121 -0.19934517 -0.14274937 -0.19432716
-0.023345293 -0.12403329 0.05854389 0.10456332 0.023023728 0.18705282 -0.13517413 0.083004646
-0.18088943 -0.087656945 0.04909173 0.10038993 0.02301981 0.04261812 -0.081422545 -0.10022193
0.07457386 0.09201026 -0.19055471 -0.13700713 -0.19191465 0.0312631 -0.22561842 0.0256366
-0.16430986 -0.07553788 -0.09110346 -0.11069971 0.07873145 -0.098184645 -0.027105525 -0.19976549
-0.15662283 -0.043293696 -0.019077359 0.163813 -0.13083403 0.024810033 -0.17141071 -0.13031814
-0.19071278 0.016942991 -0.15493822 -0.1592752 0.011930299 0.1304179 -0.16164075 0.035724334
-0.048577476 -0.2130083 0.07138002 -0.11036827 -0.013187429 -0.002225922 0.17286304 0.02023397
0.09289186 -0.073295295 0.092817634 -0.21949789 0.14973061 0.17538205 0.15052135 -0.15489113
-0.11344257 0.07881354 0.09520425 -0.1044867 -0.14186502 0.08875837 -0.17225842 -0.22799806
0.035940707 -0.22050472 0.007856776 -0.17420048 0.14212608 0.034528345 0.12527609 -0.04331498
0.14036347 0.16283283 0.0501077 -0.15760083 0.12947786 -0.10607108 -0.16493604 0.1011582
0.11142613 0.08738267 -0.2228139 -0.12867464 0.009604858 -0.03166922 -0.19332951 0.051044874
-0.13539359 -0.11522737 0.1651861 0.106845446 -0.1570251 0.1700973 0.02417116 0.09238693
0.085638486 0.055106185 -0.09649917 -0.10752688 -0.036538403 -0.105524436 -0.1480543 -0.065010674
0.066720486 0.0034847981 0.08169702 0.07718007 -0.02774544 -0.047662158 -0.1093981 -0.22724114
0.033146985 0.11124961 0.117695585 -0.1591342 0.108881 -0.19300392 0.0018577666 0.028198393
-0.018032096 -0.23042639 0.118116066 0.0868996 0.025939245 -0.23993215 -0.15886916 -0.14058824
0.13450305 -0.066056855 0.028739514 -0.21024394 0.102218255 -0.1406214 0.09046925 -0.19308844
-0.17285879 -0.17320254 0.0069344975 0.1637156 0.15649144 -0.19874984 0.021787707 -0.014351641
0.024734238 0.02632257 -0.17278463 -0.13663527 -0.09163803 -0.005202241 0.050413456 0.12997365
0.14457847 0.0062150243 0.113869146 -0.018419234 -0.18123195 0.034868773 0.028653067 0.08441552
-0.18648192 0.008096681 0.121291265 0.11312085 -0.015195631 0.15238686 -0.09866821 0.1590893
-0.12291371 0.070591144 0.016955959 0.16800274 0.09564986 0.025626238 0.095922664 0.13582602

linear2.weight f4 [5, 256]
00000000: ea13 9f3a 4aad fa3c afe7 a9b6 d373 693c
00000010: da9b 29bd e187 72bc a5a0 263c 218c 42bc
00000020: 24b4 693c 84e6 94bc 5b3d 21bc fb6d 023d
00000030: 601c 5dbd b8a9 ffbb a5f9 05bd 7cdc 1bbc
00000040: 25f7 56bd 9159 2e3d 1c6a 27bd 4f71 233d
00000050: 0b7c 1fbd 5d12 ff3c 01be 4ebd b970 3dbc
00000060: 051f 153d 9e6e 783d 0fea 303d 31c5 c8bb
00000070: 549a 30ba 0da6 373a 1134 3abc 950a caba
00000080: 3ef0 20bd 8986 56bd 6b2a 3c3d c1e9 7a3d
00000090: 9fc8 59bc 5201 58bd 8ed8 9c39 fa5c 13bd
000000a0: 04d1 9a3c 4d90 08bc 73e2 9e3a 1870 663d
000000b0: 0bb7 91ba 934e 28bd 4afb f4bc 561b 54bb
000000c0: 0f53 413a 1feb aa3c 9f3e cd3a 20e6 053d
000000d0: 31e2 d23c 88a1 4fba f180 1f3b 0e87 093c
000000e0: 0316 513b f105 55bc e932 dd3c df27 cebc
000000f0: 6ca0 9dbb 2b98 56bc c611 3c3d 03d0 04bd
00000100: 777c f2bb cf27 1b3a c2cc 313d 92b7 c7bc
00000110: 6db0 443d 5d9b bfbc e7c8 243d 7a65 403b
00000120: 9fee 393d 42ac d93c dc6d 063d de35 053c
00000130: 0bb8 993d ca4f 0cbc d8b6 abbc 0803 5abc
00000140: 648c d43d 7c2c 113d 22e8 d23c 9037 803d
00000150: cbd2 42bc 3eea f5bc d262 a3bc 4a5f eebb
00000160: 4f15 f43c 9a5d bbbc 3c36 a43d 87cf 81bc
00000170: bc71 cf3c 7aa2 3cbd d0a6 29bd 32cf 32bd
00000180: 65fd 29bd e64f 43bc 7bac 2fbc 1c36 c0bb
00000190: 1442 55bb ae1b ac3b 6e74 48bd 45e3 51bb
000001a0: 2d4c 0fbd d9e0 59bd ca53 d2bb ead9 21bd
000001b0: 20b8 adbc d6cc 7ebc 4b7c 36bd 2112 1abd
000001c0: cf9f c6bc ad25 cfbb 3675 833d 12fa 3dbb
000001d0: d143 ac3c c617 2ebc 60d5 d83c 1811 1ebc
000001e0: 3898 fe3c 9252 0b3d 071a 253d 73f5 733d
000001f0: 4adf f9bc 4e85 4e3d ef22 393d 451c ac3a
00000200: 459d a33b dc43 5a3c 091b 37bd 33c2 d23b
00000210: 09d2 f1bc e2bb 62bc 40e3 a83c 2351 aabb
00000220: 27ae ed3b 3989 02bd 69f3 fd3c 5cfb e4bc
00000230: 84b5 02bd 3cfa a63c f2da 103d 8f0e 0cbd
00000240: 6b06 50bc 15c0 97bd c3a5 3a3d 19f9 9dbd
00000250: fba3 14bd fe4d cebc 3de0 f63c 5f00 f43c
00000260: 4be1 673d 0155 dd3c c416 fbbc 36ed c6bc
00000270: b4cc e13a d924 e23c b0d8 d13b 9a9f 80bb
00000280: b44c ddbc ef7a 1d3d a19e 33bc 6c99 c7b9
00000290: 1096 9abc a90d ec3b b8fb 26bd 0287 053d
000002a0: 0e2e 9a3c 9984 efbc 59a3 713d 0987 123d
000002b0: d53a 413c d440 5a3c 300a f5bb ae5a 533c
000002c0: a3d0 08bd 42fb b5bc 9bb3 223c f47d eaba
000002d0: b701 09bd 0362 02bd 21c4 94bc 5c0b 3d3d
000002e0: 6887 113b 4c23 ef3c a5c4 343d 042d 0bbd
000002f0: e851 603b 5292 d8bc 7fd7 143d fb59 f03c
00000300: 6f41 853b 8de1 8dbb 5684 4fbd 97d3 49bc
00000310: 360f 113d 1541 ebbc 583f 9e3c 4f1b a03a
00000320: ddbf 583d 5f18 703c 974b 293d 0f5c 19bc
00000330: bb5c 103c e69f a33a 93e9 333d 3c7a 253d
00000340: 7876 823d 5636 0c3d 2d41 6cbd 9cdc 66bc
00000350: d0f5 603d 9a99 e73c 4ddc b43b 44f8 6b3c
00000360: 612e 043c 2ed8 b13b bd09 f73c 97c8 af3c
00000370: 9222 9cbc fc54 dbbc 017f 04bd 4f2b bfbc
00000380: e23c ffbc 363f 01bc 4623 523d 7400 ea3c
00000390: ecff 46bc a93e eabb 4e1c 1cbd d511 1d3d
000003a0: 402f c2bc fec9 1c3b 52a2 a83b 3074 8f3b
000003b0: 307b b0bc 6a8b bdbc 8854 093d 6177 53bc
000003c0: 134b 313d a1b4 2c3d ef76 a13c 6ae0 953c
000003d0: e861 b23a 9fe6 96bc 5c1a 403d 22fa 523d
000003e0: 5cdf 0dbd 826d d5bc 7cab 95bc bc00 e8bc
000003f0: 844d 50bd 29a7 773d 8764 763c ffdc 16bd
0.0012136672 0.030600209 -5.063564e-06 0.014248806 -0.041408397 -0.014802904 0.010170137 -0.01187423
0.01426414 -0.018176325 -0.009841288 0.031843167 -0.05398214 -0.0078022145 -0.032708783 -0.009513017
-0.05248179 0.042565886 -0.04087268 0.03990298 -0.038936656 0.031136686 -0.05047417 -0.01156252
0.036406536 0.060652368 0.043191966 -0.0061270227 -0.0006736864 0.00070056395 -0.011364953 -0.0015414531
-0.039291613 -0.052374396 0.04593889 0.06125808 -0.013292461 -0.052735634 0.00029915984 -0.03597734
0.018898495 -0.008335185 0.001212193 0.056259245 -0.0011117173 -0.04109056 -0.02990498 -0.0032364926
0.00073747424 0.020864068 0.0015658921 0.032690167 0.025742622 -0.00079204934 0.002433833 0.008394016
0.003190399 -0.013001905 0.027001815 -0.025165496 -0.0048103835 -0.013097803 0.045915388 -0.032424938
-0.0074000913 0.00059187127 0.043408163 -0.024379525 0.048019815 -0.023389513 0.040230658 0.002935736
0.045393582 0.026571397 0.032819614 0.008130519 0.075058065 -0.008563945 -0.02096121 -0.013306387
0.1037834 0.035442814 0.025745455 0.06260598 -0.011891077 -0.030018922 -0.019944582 -0.007274543
0.029795317 -0.022871781 0.08018157 -0.015846027 0.025322787 -0.046053387 -0.04141885 -0.043654628
-0.04150142 -0.011920905 -0.010722275 -0.0058658253 -0.0032540606 0.005252323 -0.04893916 -0.0032026332
-0.034984756 -0.053192947 -0.00641868 -0.03951446 -0.021205962 -0.015551766 -0.04455213 -0.037614945
-0.024246125 -0.00632163 0.064188406 -0.0028988165 0.021028431 -0.010625785 0.026468933 -0.00964763
0.031078443 0.034014292 0.040308025 0.05956025 -0.03050198 0.050420098 0.04519933 0.0013130984
0.004993113 0.013321843 -0.044703517 0.0064318418 -0.029519098 -0.01383874 0.020616174 -0.0051976605
0.0072534266 -0.031869147 0.030999856 -0.027951889 -0.031911388 0.020382993 0.035365053 -0.03419357
-0.012696843 -0.074096836 0.04556824 -0.07713527 -0.036289196 -0.025183674 0.030136222 0.029785333
0.05661134 0.027018072 -0.030650504 -0.024283033 0.0017227144 0.027605461 0.006404005 -0.003925276
-0.027014114 0.038447317 -0.010963113 -0.00038070546 -0.018870384 0.007203777 -0.0407674 0.032599457
0.018820789 -0.029238032 0.05899367 0.03577331 0.011793812 0.01332112 -0.007478021 0.012900038
-0.033402096 -0.022214536 0.009930517 -0.001789032 -0.0334489 -0.031831753 -0.018159928 0.04615341
0.0022205953 0.029191636 0.044132847 -0.033978477 0.0034228507 -0.026436958 0.036338326 0.029339781
0.004066638 -0.0043298663 -0.050663315 -0.012318513 0.035414897 -0.028717557 0.019317314 0.001221517
0.05291735 0.014654248 0.041331854 -0.009360327 0.008811171 0.0012483567 0.043923926 0.040399775
0.06370252 0.034231506 -0.057679344 -0.014090683 0.054921925 0.028271485 0.005519426 0.014402453
0.008067698 0.005427382 0.03015601 0.021457953 -0.019059453 -0.026773922 -0.032347683 -0.02333608
-0.03115696 -0.007888606 0.05130317 0.02856467 -0.0121459775 -0.007148583 -0.03811293 0.038347084
-0.023704171 0.0023924108 0.005146303 0.0043778643 -0.021543115 -0.023137767 0.03352788 -0.01290688
0.043284487 0.04216445 0.019710032 0.018295486 0.0013609501 -0.018420516 0.04690014 0.051508076
-0.03463684 -0.026053194 -0.018270247 -0.028320663 -0.050855175 0.06046215 0.015038616 -0.036831852

linear2.bias f4 [5]
00000000: e8d7 463c 8fbb b6bc a01e 053c 6cde 1f3d
00000010: fef7 533d
0.012136437 -0.022306232 0.008124977 0.039030477 0.051750176
