model/a1model.pth (torch, 33183 bytes, 4 tensors)

linear1.weight f4 [256, 25]
000000 7a 57 2f bf 89 47 65 3f ac 57 59 3f a7 0b 8d be
       -0.68492854 0.8956228 0.848994 -0.27547953
000010 0d 21 12 bf ca 48 af 3e 8d b4 9d 3e 4f 89 1a bf
       -0.5708168 0.3423522 0.30801812 -0.60365766
000020 e2 50 b1 3e fb a0 3a 3f 53 06 14 3f bc c5 88 3e
       0.3463202 0.72901887 0.5782215 0.2671336
000030 23 76 ad be ae 95 0d be 00 b9 bf 3e 76 bd e9 3d
       -0.33879194 -0.1382663 0.3744583 0.1141309
000040 1a af 5b be 51 10 22 bf e4 b5 ef be f0 e5 8b be
       -0.21453515 -0.63306147 -0.4681846 -0.27323866
000050 77 a2 33 3e a9 0e 16 bd 80 62 9b be 9b 6a 10 bf
       0.17542444 -0.036635075 -0.30348587 -0.5641267
000060 17 a5 cb be fe 99 23 bf f7 4b 6d 3b 28 21 97 3f
       -0.3977439 -0.6390685 0.0036208609 1.1806993
000070 27 67 f1 bf 61 32 7b 3f 07 0f 4e bd e8 c2 da 3e
       -1.8859605 0.9812375 -0.0503073 0.42726827
000080 9a a9 02 3f c0 24 4d bf 3e 92 1c bd 25 e8 ee 3c
       0.5104004 -0.801342 -0.038225405 0.02916343
000090 e2 5f e7 3e 70 24 2f be d2 02 17 3f 1d 7c 0a bd
       0.4519034 -0.17103744 0.5898868 -0.03380977
0000a0 a9 2b c0 3d e2 51 0c be 9b 81 43 be ab c0 eb 3d
       0.093833275 -0.13703111 -0.1909241 0.11511358
0000b0 01 e8 02 3e 09 08 e0 be 76 25 17 3f 4c cb b7 bd
       0.12783815 -0.4375613 0.59041536 -0.08974323
0000c0 1c 73 27 3d 2b 35 6f be 6b a4 38 3f d8 9f 30 be
       0.04088126 -0.23360126 0.7212588 -0.17248476
0000d0 11 64 a9 3e d4 8c e1 3e c5 1c 31 3e 95 fb 42 3f
       0.33084157 0.44052756 0.17296131 0.76165134
0000e0 05 2c 07 bd 57 d3 bc bd 8a 32 a5 3f 0b 0e a5 bf
       -0.033000965 -0.092199974 1.2906048 -1.289491
0000f0 d2 fe 14 3f 7b 5c 01 bf 1e 55 a2 be fe a1 fe 3e
       0.58201325 -0.5053174 -0.31705564 0.49732965
000100 43 4e 46 3d 67 c1 93 bc 9b 4e 10 bf 41 9f 1a bf
       0.04841448 -0.018036557 -0.5636994 -0.6039925
000110 e3 42 96 3c 2b 8f 5e be 23 2f c2 be 1d 05 78 3d
       0.018342441 -0.21734302 -0.37926587 0.06055175
000120 09 af aa bd 26 a1 22 3e dd f7 04 bf 29 53 f2 be
       -0.083341666 0.15881786 -0.5194071 -0.4732907
000130 f4 4b a2 3e 61 34 fa 3d 79 11 02 c0 73 2f 90 3f
       0.31698573 0.12217022 -2.0323164 1.126448
000140 ac 03 1d c0 05 1f 47 3e 2f 8a c8 bd 42 24 32 3f
       -2.453349 0.19445427 -0.097919814 0.69586575
000150 41 ac 1f 3d 36 f3 ef be f8 fd 90 bd d5 81 2a bf
       0.038982634 -0.46865243 -0.07079691 -0.6660436
000160 fc e8 fd bd 29 ff 62 3f b9 86 1a 3f c4 f1 fe 3e
       -0.12397954 0.88670594 0.6036182 0.49793828
000170 17 08 0c 3e ea 7e a3 bf 78 b5 b3 bd 61 29 b5 be
       0.13674961 -1.2773106 -0.08774847 -0.35383132
000180 fd 6d 2e be 41 44 d5 be ab c7 b9 be 8c 2c 2f bf
       -0.17034145 -0.41653636 -0.36285147 -0.6842735
000190 81 a9 b4 3e 71 72 1d 3f a6 5c 3a 3e d2 19 eb 3f
       0.3528557 0.6150275 0.18199405 1.8367255
0001a0 e8 4a 21 c0 75 9a a3 3d ce 99 e9 3e a3 42 02 bf
       -2.520197 0.07988445 0.45625156 -0.5088293
0001b0 c5 58 9e 3e 09 a2 c1 c0 68 10 93 3e f8 96 1a 3e
       0.309271 -6.0510297 0.28723454 0.15096653
0001c0 87 ce 0b 3d c0 b0 ed 3b 3c 63 c6 3e d7 77 73 3e
       0.034132507 0.0072537363 0.38747585 0.23776184
0001d0 c1 2a fa bd 67 83 9c be b0 28 ff bd 8c bc d3 bd
       -0.12215186 -0.30569002 -0.124589324 -0.10338697
0001e0 50 94 7f 3e cf 50 84 be 4a b5 24 be 47 11 10 bf
       0.2495892 -0.25842902 -0.16084781 -0.56276363
0001f0 8d 3d 53 be db 6b a1 3f c0 f1 62 3f a0 60 a5 be
       -0.20628949 1.261104 0.8865013 -0.32300282
000200 38 b6 1d bd 3b 44 90 be 47 68 88 3e ea 1b 83 3e
       -0.038503855 -0.28177056 0.26642057 0.25607234
000210 10 9b c8 be 2c ab b3 be e0 7a 13 bf 52 a1 4a 3e
       -0.39180803 -0.3509153 -0.5760937 0.19788101
000220 9f e9 4e 3e e6 a9 5c bf 89 e8 d9 be 5b fe 7c 3e
       0.20206307 -0.86196744 -0.42560223 0.24706404
000230 58 be 74 be 21 d1 b1 be e0 26 55 bf 8f fa f7 be
       -0.23900735 -0.34729865 -0.83262444 -0.4843335
000240 ea 85 e7 3e 94 de 8d be f7 8d 84 bf 99 5b 08 bf
       0.45219356 -0.27708876 -1.0355824 -0.53264767
000250 c1 10 b7 be 48 49 79 be c3 45 85 c0 76 0a 1a 3f
       -0.3575497 -0.24344361 -4.164766 0.6017221
000260 e2 7d a7 3f 32 68 31 3e 91 a7 04 40 27 84 a9 bc
       1.3085291 0.17324904 2.0727274 -0.020692898
000270 f9 67 3d 3f dd 8c 12 3e 49 a4 04 3f 02 92 a0 3f
       0.73986775 0.14311548 0.5181318 1.2544558
000280 d0 ad 7d bf e9 cf 0e 3e 20 f5 6a 3e 7a ca af 3e
       -0.9909334 0.13946499 0.2294507 0.34334165
000290 80 f2 18 3d 82 b6 15 3f e5 c4 64 3c 70 f4 3a be
       0.03734064 0.5848161 0.013962959 -0.18257308
0002a0 f0 fa 01 be af 80 bb 3d b3 dc 68 bf b4 94 14 3e
       -0.12693381 0.09155404 -0.9096176 0.1450985
0002b0 a7 d1 39 bd 53 09 91 bd 29 5f a6 3d e3 4d 05 be
       -0.045365956 -0.070818566 0.08123619 -0.13017993
0002c0 41 d6 7c bf 85 f1 1d 3f 7f 41 eb bf da 50 3b c0
       -0.98764426 0.61696655 -1.8379363 -2.9268098
0002d0 91 53 ec bf 3e 77 fd 3f 55 ec 4f bf bb a5 5b 3f
       -1.8463002 1.9802015 -0.8121999 0.8579976
0002e0 07 2c 9b 3f 65 f3 9b 3f 75 ad 13 3f 8c f6 14 bf
       1.2122811 1.2183653 0.5768655 -0.581887
0002f0 2f 77 9f 3e 27 9a 2c 3f 61 bd 63 bc ef 1f dc 3e
       0.31145617 0.6742272 -0.013900132 0.42993113
000300 67 d7 c7 3e 62 76 26 bf 78 e6 0b bf 11 ae 46 bb
       0.39031526 -0.6502439 -0.5464854 -0.0030316154
000310 58 8e 42 c0 8b 0e 72 be a3 e8 88 bf 5e 3f 7f 3e
       -3.039938 -0.2363836 -1.0695995 0.24926516
000320 e8 5c 15 3e 41 b4 85 be 8a 9a 4b c0 06 fb 3c 3f
       0.14586222 -0.26114085 -3.1813073 0.7382053
000330 49 78 ae be e6 8a c3 bd aa 7e 9d be d5 d1 be 3e
       -0.34076145 -0.09547977 -0.307607 0.37269464
000340 32 c5 29 bf 00 7c e2 3e 4c 40 0c be e2 39 36 3e
       -0.6631652 0.4423523 -0.13696402 0.17795518
000350 8c 1b 33 3c 02 35 ca 3f 1b a7 49 bf da 40 63 3e
       0.010931861 1.5797427 -0.7877061 0.22192708
000360 be 09 90 be 6f a5 97 bd fa 7d 9b bf d4 74 bc 3e
       -0.28132433 -0.07404601 -1.214782 0.36807883
000370 74 5f 70 3b 4d 6b 0a 3e e8 e7 e6 be 37 7b 94 be
       0.0036677988 0.13517494 -0.45098805 -0.29000255
000380 e4 15 42 3e 83 f2 68 bd 47 8b 6d bf eb 4b 80 3f
       0.18953663 -0.056871902 -0.92790645 1.0023168
000390 2e 80 e0 be 7b cd 1a 3f 29 21 c8 3d 74 77 76 3e
       -0.43847793 0.6046979 0.0977195 0.24069005
0003a0 4e 4b 06 3f cd a3 e7 be 4f 5e 2f be c6 99 1e bd
       0.52458656 -0.45242158 -0.1712582 -0.03872087
0003b0 b5 52 b3 bc 73 7f fd be 2e 7f 62 bd 27 48 f9 3e
       -0.021890024 -0.495113 -0.05529707 0.4868786
0003c0 d3 37 1c 3f 02 c2 8b bf cf a7 15 bd c4 80 84 3f
       0.6102268 -1.0918581 -0.036536988 1.0351796
0003d0 28 a1 2d bf 4a d0 e0 3e 8d a7 d9 be 29 8e 06 be
       -0.6782403 0.43908912 -0.42510644 -0.13140167
0003e0 2d d4 93 3d 39 c7 4a bf 8f 35 a4 3f b1 0a 5a 3f
       0.07218204 -0.7921024 1.2828845 0.85172564
0003f0 05 0d af bf 8b c0 d5 3d 7f b6 a7 3f c0 19 58 3e
       -1.3675848 0.10437115 1.3102568 0.21103573

linear1.bias f4 [256]
000000 6f 72 a1 be 0a 9c 88 3d ea 04 55 be d3 fd b6 3e
       -0.31532618 0.06670387 -0.20802656 0.35740528
000010 42 d2 e7 be 88 b2 d3 be bf 87 72 bd aa 91 2c be
       -0.452776 -0.41347146 -0.05921149 -0.16852441
000020 b7 e6 8b be b2 85 40 be bf d6 84 3d 24 be 0d bd
       -0.2732446 -0.18801 0.06486272 -0.03460516
000030 e8 c4 27 bf 7d ef fd bd 21 75 6c be a4 fd 10 be
       -0.6553483 -0.123991944 -0.23091556 -0.14159256
000040 d7 f9 32 3e 97 03 0e bf 1f 09 94 3e 18 47 29 3f
       0.17478119 -0.5547423 0.2891321 0.66124105
000050 4b f7 0a bd ab 7e 3b 3d e8 19 4f be 63 5a f6 bd
       -0.033927243 0.045775097 -0.20224726 -0.12028959
000060 dc 35 b9 be 59 16 1f bf 87 a5 28 be f8 46 c2 be
       -0.36173904 -0.62143475 -0.16469394 -0.3794477
000070 a5 96 c5 be 34 36 4a be 33 47 2b 3f 21 80 20 bf
       -0.38591495 -0.1974724 0.66905516 -0.6269551
000080 06 98 d3 bd 08 92 0b 3d 80 c0 11 bf 63 fa e2 bd
       -0.103317305 0.034074813 -0.56934357 -0.11082914
000090 fc 83 84 be 86 c7 07 3e 2f c4 f0 3d f5 bf 68 be
       -0.25881946 0.13259706 0.11756169 -0.22729476
0000a0 50 28 95 be 8e a6 c6 bc b1 e9 ad 3e 02 97 a5 3e
       -0.29132318 -0.024249341 0.33967355 0.32341772
0000b0 b3 c3 b2 be a5 21 a8 3d fe 06 a2 be 83 b0 ac bd
       -0.34914932 0.08209542 -0.3164596 -0.084321044
0000c0 8a d9 18 3e 23 23 d1 be 81 a4 8a be 06 8c 25 bd
       0.14926735 -0.4084712 -0.27078632 -0.04041674
0000d0 f7 db e3 be 86 c6 f9 be 2f c2 49 bd 73 bd 8a be
       -0.44503757 -0.48784274 -0.049257454 -0.27097663
0000e0 b3 e5 1d bf cc 8e 2f be b8 5c 96 bd c7 2c 0a bf
       -0.6167862 -0.17144316 -0.073419034 -0.53974575
0000f0 54 ba 02 3e ac 56 ab 3d 07 f3 2a 3e 21 d4 04 3f
       0.12766391 0.08366141 0.1669427 0.51886183
000100 ad 0f 04 bf 1d 4b 52 be 28 07 55 3e 5c 8a f7 be
       -0.5158642 -0.20536466 0.20803511 -0.48347747
000110 18 45 d3 3d 79 e9 3c be 3e 67 17 bf df 8b 73 be
       0.10315913 -0.18448438 -0.5914191 -0.23783825
000120 3f 5c 92 bd 1c ba 91 be 9d b2 6c be 22 64 2a bf
       -0.07146501 -0.28462303 -0.2311501 -0.6655904
000130 9d e9 68 3d a6 bc 7d bf 97 06 99 be 99 1d 2d be
       0.056863416 -0.9911598 -0.2988784 -0.16905822
000140 30 f9 b1 bd 3e 3b c6 be 2a f1 d1 be 55 8f 14 be
       -0.08690107 -0.38717073 -0.41004306 -0.14507802
000150 d3 46 96 3e 8c 55 3f 3e 11 e7 18 be e0 c2 81 be
       0.2935091 0.18684977 -0.14931895 -0.2534399
000160 36 de ba be e5 10 b2 3e 8d 69 f9 3e 0a 43 13 3e
       -0.36497658 0.34778515 0.4871334 0.14381042
000170 1a af 9a bc 7f ea 1b bf 5c 97 0e be 1b bf c3 3e
       -0.018882323 -0.6090469 -0.13924927 0.3823174
000180 49 26 dc be 7c 23 33 be ba 19 b9 bd 0c 42 03 bf
       -0.4299796 -0.17494005 -0.0903811 -0.51272655
000190 49 a2 d0 be db d9 96 3d f2 dd 5c be 61 35 cf 3e
       -0.40748814 0.073657714 -0.2156904 0.40470412
0001a0 4f 8d d6 be 39 be bf be f6 8a 04 bf a2 44 c3 be
       -0.41904685 -0.37449816 -0.5177454 -0.381383
0001b0 2a 13 b9 3e b5 08 13 bf 95 f3 02 bf 6e cd 66 bd
       0.36147434 -0.5743516 -0.51152927 -0.056348257
0001c0 2a 9b 0b bf 69 bd 44 be 4f 0a 83 3e c8 c0 0e bf
       -0.54533637 -0.19212879 0.25593802 -0.5576291
0001d0 f7 ec 8c 3e f8 40 04 3e e1 43 a1 bb da b7 43 bf
       0.2752454 0.12915409 -0.004921422 -0.7645241
0001e0 f6 ca 5e bf 23 31 fa bd 7e d5 53 3e e0 4c 7b be
       -0.87028444 -0.12216403 0.2068691 -0.24541044
0001f0 3a a2 e1 bd 5a f9 d1 be d5 5d d9 3d 55 d9 05 bf
       -0.110172704 -0.41010553 0.106136 -0.5228475
000200 ff 7c 7a 3e cf 67 72 3f 47 c5 06 3f f8 b5 80 be
       0.24461745 0.9468965 0.5264477 -0.2513883
000210 4e b1 42 bf 04 42 e1 3c a5 a9 dd be 79 74 d2 be
       -0.76051795 0.027497299 -0.4329349 -0.41104487
000220 d0 9c 99 be 89 9c 6f 3e 69 f5 1b be 8a 50 c5 be
       -0.3000245 0.23399557 -0.15230335 -0.3853801
000230 51 54 91 bf c7 58 27 3c 85 75 46 3e ab f7 60 be
       -1.1353856 0.010214037 0.19380768 -0.21969478
000240 db 8f 4f bd 59 ee 1e bd 3e dd 7a bc 31 44 29 3f
       -0.0506743 -0.038801525 -0.015311537 0.66119677
000250 29 8c 5f be bf 71 7d be 6d 27 9a 3e af 6f fb 3e
       -0.2183081 -0.24750422 0.30108204 0.49108645
000260 6b df ec 3c e7 bc 29 bd b1 ce 00 3d 6a 08 da 3e
       0.028915128 -0.041439917 0.031447116 0.42584544
000270 93 08 2b 3e 25 f1 a0 be fa d4 83 bf 5e 6b 47 3e
       0.1670249 -0.3143398 -1.029937 0.19474551
000280 3f 3c 20 bf 45 16 fb be 83 d8 13 3e 81 40 c8 3e
       -0.6259193 -0.49040428 0.14438061 0.39111713
000290 d4 31 42 3f 09 50 8b be aa f5 fb 3e 1a 05 dd 3e
       0.7585728 -0.272095 0.49210864 0.43167955
0002a0 75 36 c2 be 3a 64 68 be 1b 2d e5 bd 48 44 c8 3d
       -0.37932172 -0.22694483 -0.11190244 0.097786486
0002b0 83 6e 34 be 29 11 3f 3e 4a 85 00 bf 67 2d 98 be
       -0.17620282 0.1865889 -0.5020338 -0.2972214
0002c0 4e 93 ff bb ce 78 79 be 4e 63 06 bf 70 96 09 bf
       -0.0077995425 -0.2436249 -0.52495277 -0.53745174
0002d0 af 89 d5 bd b7 4a dc 3d de fe 24 bf 70 d9 cb 3e
       -0.10426652 0.10756438 -0.64451396 0.3981433
0002e0 30 4a 31 be a2 51 1c 3e 34 15 cd 3f 8d c8 04 be
       -0.17313457 0.15265515 1.6022096 -0.12967129
0002f0 7c 47 ce be b6 0a c0 be 91 1a d1 be c6 c3 1d be
       -0.40288913 -0.37508172 -0.4084058 -0.15406713
000300 aa 63 4a 3e dd 72 2f bf 6a 30 cc be 6d 65 04 be
       0.19764581 -0.6853464 -0.39880687 -0.12929316
000310 cb 4c ac 3e 07 d4 37 be f2 13 3f be 18 82 39 3e
       0.33652338 -0.17951976 -0.18659952 0.18116033
000320 76 09 ab be 08 fe 05 bf 06 ff f9 be 67 f8 c4 bd
       -0.33405656 -0.52340746 -0.4882738 -0.096176915
000330 85 f1 80 be 91 ee 8c be ec c1 d1 be 6d 13 0d 3f
       -0.25184265 -0.27525762 -0.40968263 0.55107766
000340 eb e7 f1 3d 37 4a 8e be 6e a7 01 3c 04 4a 92 be
       0.11811813 -0.27790996 0.0079134535 -0.28572094
000350 1e 96 6c be 0b 4e 41 3e 70 dc b6 3e 3e 1b 83 be
       -0.2310414 0.18877427 0.35715055 -0.25606722
000360 3d 1a 86 3f cc 71 26 be 71 8e ba be 33 bf 15 bf
       1.0476757 -0.16254348 -0.364368 -0.5849487
000370 cd 2b ee be a1 b2 2c bf 23 38 ba bd 46 d6 c9 be
       -0.46517792 -0.67460066 -0.090927385 -0.3942129
000380 eb 72 89 be 69 02 c2 3e b3 77 06 bf 74 dd 41 bf
       -0.26845488 0.37892464 -0.52526397 -0.75728536
000390 e7 86 c3 3e e7 7d a6 3d bc 1f e9 3e aa d1 98 3e
       0.3818886 0.08129483 0.45532024 0.2984746
0003a0 3e 0a 03 be 49 ab 69 be 23 55 4f 3e 35 75 a1 be
       -0.12796876 -0.22819246 0.20247321 -0.31534734
0003b0 84 b8 02 be 76 fd 9e be fa 1f 78 be b4 7e 07 bf
       -0.127657 -0.3105275 -0.24230948 -0.5292771
0003c0 97 90 0a bf 68 05 16 be 2e 21 bf be 65 8a c9 be
       -0.54126877 -0.146505 -0.37330002 -0.393634
0003d0 00 c9 2b 3e 8c dc 8d be d9 25 31 be 30 b5 62 be
       0.16775894 -0.27707326 -0.17299594 -0.2213943
0003e0 6b 97 97 be 65 81 25 bf 65 6a 12 bf d5 5e d5 be
       -0.2960771 -0.64650565 -0.57193595 -0.41673914
0003f0 8f 6c bf be 18 86 97 3f 95 22 93 bf 23 60 0e bd
       -0.3738751 1.1837797 -1.1494929 -0.034759652

linear2.weight f4 [5, 256]
000000 b1 cd 29 3f 71 94 69 be 87 95 13 3e 16 45 a7 bf
       0.66329485 -0.22810532 0.14412509 -1.3067958
000010 f7 b1 49 3f 95 86 3f 3f 9b 06 83 3f c2 59 f3 3f
       0.7878718 0.7481473 1.0236391 1.9011767
000020 c8 fe d5 3f 8a a3 f0 3d 98 ad 7a 3f aa 2b dc 3f
       1.6718378 0.117499426 0.97921133 1.7200825
000030 5e 94 a5 bf 61 83 1c 40 0e a0 6b 40 60 86 50 bd
       -1.2935903 2.4455187 3.681644 -0.0509094
000040 95 1a 0c 3e 35 1a 73 3e 64 32 22 bf c1 7d 2a 40
       0.13682015 0.23740466 -0.6335814 2.6639254
000050 d8 19 e5 be 64 62 93 3f be 0a 49 bd 0e 2a be 3e
       -0.4474628 1.1514401 -0.04908251 0.3714146
000060 41 76 d6 bf 37 92 19 40 2e 9e be 3f 0c b0 6f 3f
       -1.6754838 2.3995492 1.4892023 0.93628
000070 bc 75 45 3e b5 73 3d be 89 99 d1 bf e4 ea a1 bf
       0.19283193 -0.1850117 -1.637498 -1.2649808
000080 48 ad 4c bf fe 48 11 3f 3c 76 11 40 b8 83 da 3f
       -0.79951906 0.56752 2.2728415 1.7071447
000090 82 8e 44 bf ba ba 5a 3f 6a f2 ab 3f fa 50 d7 bf
       -0.7677995 0.8544117 1.3433354 -1.6821587
0000a0 0e 44 d3 bf 97 58 c7 3f 1e 0b 3e 3f 13 3d ff 3f
       -1.6505144 1.557391 0.74235713 1.9940513
0000b0 38 7c b7 3f 30 c6 dc be 41 da 02 40 39 33 cb be
       1.4334784 -0.43119955 2.0445712 -0.39687517
0000c0 3d d5 09 40 22 13 34 3f a2 e9 c9 bf 4c 1c 99 bf
       2.15364 0.70341694 -1.5774424 -1.196176
0000d0 62 79 0a 3f 72 12 0c c0 0c 87 9d 3e 13 14 4a c0
       0.54091465 -2.1886258 0.30767095 -3.1574752
0000e0 6b 20 da 3f 90 5c 24 3f e8 d1 ea 3f fd 15 15 bf
       1.7041143 0.6420374 1.8345308 -0.58236676
0000f0 7b 9e f3 3f 24 10 9e 3e 80 05 e5 3f 29 1b 67 3e
       1.9032739 0.3087169 1.7892303 0.22568955
000100 08 90 ea bf 54 4e 91 c0 b4 c0 a1 3f 0a a7 32 3d
       -1.8325205 -4.5408115 1.2636933 0.043616332
000110 10 dd ff 3d 37 41 01 3f dc f9 57 3f 45 42 f5 bb
       0.12493336 0.50490135 0.8436563 -0.0074847066
000120 ce e9 90 3e 25 68 b2 3c 83 61 dd bf c0 09 26 40
       0.2830338 0.021778176 -1.7295383 2.594345
000130 1b 74 87 3f 1b d2 0a bf e4 c4 55 40 1f cf 9d 3f
       1.0582308 -0.54226846 3.3401423 1.2328833
000140 45 0b cb be 12 1a 13 3d 6c e4 2d 3f 73 7e 08 3f
       -0.39657035 0.035913534 0.6792667 0.53317946
000150 26 1d 18 c0 24 88 88 bf 80 34 d2 be a1 92 61 3f
       -2.376779 -1.0666547 -0.4105568 0.8811436
000160 18 87 e5 3f be 63 12 bf 51 69 f4 bd cf de 2c 3f
       1.7931852 -0.57183444 -0.1193415 0.6752748
000170 63 67 24 40 97 ab bf 3e af 91 e8 3e e2 32 5b 40
       2.5688102 0.374356 0.45423648 3.4249806
000180 81 b6 27 bf 86 5a 19 be 51 53 60 bf be 3d 3c 3f
       -0.65512854 -0.14975938 -0.8762713 0.7353171
000190 02 e3 30 40 93 67 9a 3f 38 f0 e8 3f ac 07 52 be
       2.7638555 1.2062858 1.8198309 -0.20510739
0001a0 47 15 af be 00 66 f8 3f 04 e6 06 3e 41 3f cd 3f
       -0.3419592 1.9406128 0.13173681 1.6034929
0001b0 c8 1c 04 3f 2e bd 2a bf 79 5a 3b c0 c2 19 b5 3f
       0.51606417 -0.66694915 -2.927397 1.4148486
0001c0 ed f0 a0 bf fa 38 ba bd 60 19 a4 3e c6 08 0f 40
       -1.2573525 -0.09092899 0.3205061 2.2349105
0001d0 e3 bc 25 bf ce 84 46 3f 8f 30 99 3f 36 a4 1d 40
       -0.64741343 0.77546394 1.1967944 2.4631476
0001e0 35 bf 77 40 9e 59 20 40 bd 66 0d c0 a5 56 10 c0
       3.8710454 2.5054698 -2.2093956 -2.2552884
0001f0 f9 4c 34 40 5e 56 08 c0 d6 f6 43 3b 95 7d c4 bf
       2.817198 -2.1302714 0.0029901764 -1.5350825
000200 28 eb ad bd 0b 7b 25 40 ea a3 a9 3e b3 5c cb 3f
       -0.08492118 2.585635 0.3313287 1.5887665
000210 10 76 82 3f fd 2d 6c bf 47 fa 4d 3f e0 14 5d 40
       1.019228 -0.9225767 0.8046002 3.454399
000220 f9 e3 44 bf e2 a9 e2 be 0b d4 48 3c 8f f5 87 3f
       -0.7691036 -0.44270235 0.012257586 1.0621814
000230 a3 b6 31 40 94 b5 06 c0 00 74 16 40 77 23 7d 3f
       2.7767723 -2.1048326 2.35083 0.9888224
000240 8c ac 9e bf 2a 26 d6 3f 00 6a 5f 3e b4 a5 83 bf
       -1.2396407 1.6730397 0.2181778 -1.0284944
000250 ff ac 80 3f b3 6f 67 3d db 00 b0 be b9 ef 34 40
       1.0052794 0.05650301 -0.34375653 2.8271315
000260 8b af de 3e 84 5e 30 3f 0b e7 13 40 64 59 13 be
       0.43493304 0.6889422 2.3109767 -0.14389569
000270 75 fe 30 be 4f ca 85 3f ad 97 29 bf 6d f6 60 be
       -0.17284568 1.0452365 -0.66247064 -0.21969004
000280 4c c4 37 3d 25 53 cd 3e a6 3b 4a 40 6b f3 9a be
       0.044864938 0.40102497 3.1598907 -0.30263838
000290 ab 43 fb be f3 bf e4 bf 34 c4 dd be d6 b1 1d 3f
       -0.49075064 -1.7871078 -0.43313754 0.6159948
0002a0 f4 0f 05 40 2b 46 e3 3f 19 64 06 bd 9e cb 6e 3d
       2.0790987 1.7755789 -0.032810304 0.058299653
0002b0 c9 fc e0 3f 6b 04 85 bf 9c c4 80 c0 87 8c 4b be
       1.7577144 -1.0391973 -4.024 -0.19877826
0002c0 cf 43 66 3f 59 fb 3c 40 18 c8 72 3f b4 1a ef 3f
       0.8994722 2.952841 0.9483657 1.8680024
0002d0 33 28 2c 40 8f 6a a6 3e 74 48 83 3f b8 ec 07 bf
       2.6899536 0.32503173 1.0256486 -0.5309558
0002e0 42 a0 95 bf 61 a6 3c bf de 75 d0 3f d6 02 43 3f
       -1.1689532 -0.73691374 1.628597 0.761762
0002f0 a5 83 d0 c0 21 09 43 40 1f 3e bb bf db e5 30 40
       -6.51607 3.0474322 -1.4628333 2.7640293
000300 97 a8 c1 3f 35 f0 58 40 bf fe 87 40 1b dd 39 c0
       1.5129575 3.389661 4.249847 -2.9041202
000310 e5 74 f7 bf c0 2b 72 bc 72 48 36 c0 38 d5 a6 be
       -1.9332548 -0.014780939 -2.8481717 -0.32584548
000320 47 65 0d 40 f0 7b ef 3f c2 73 dd be 54 fd 14 40
       2.2093065 1.8709698 -0.4325238 2.327962
000330 f2 f7 c8 bc 0d 6f 2b 3f 9e 3d 98 be 28 02 35 be
       -0.024532292 0.66966325 -0.2973451 -0.17676604
000340 64 41 8d be b6 55 f7 be 25 2b 1b 3f 1e 65 6a 3f
       -0.27588952 -0.4830758 0.6061271 0.9156054
000350 b7 1d 5c 3f 62 0a 6a 3f 7f e2 e6 3e a4 67 b6 3d
       0.8598284 0.9142209 0.45094678 0.08906487
000360 49 a7 72 3f be ff 8d c0 fb ba 3c c0 1c d8 76 3f
       0.94786507 -4.4374685 -2.9489124 0.96423507
000370 d4 23 09 40 39 51 b0 3f 64 f0 e4 3f c9 8e 20 bf
       2.1428118 1.3774787 1.7885861 -0.6271787
000380 35 0c 40 be 4a 54 b9 3e 77 e7 b3 40 a9 05 71 3f
       -0.18754657 0.3619712 5.622005 0.9414926
000390 56 b6 4b bd 91 6d fb bc 82 19 90 bf d5 2e 33 40
       -0.049734436 -0.030691894 -1.1257784 2.7997334
0003a0 aa 33 82 3e e7 ad 2c bf 9f e9 f5 3f d9 45 7a 3f
       0.25430042 -0.67452854 1.921192 0.9776283
0003b0 79 c3 cd 3f b6 aa 2b bf 7e 7b ae bf e6 88 6a c0
       1.6075279 -0.6705736 -1.3631437 -3.6646056
0003c0 d8 df b9 3f fa 72 2c bf 40 58 fa 3e 92 64 01 bf
       1.4521437 -0.6736294 0.48895454 -0.50544083
0003d0 be a8 18 3e f9 0c a9 be c5 7e 1c 3e 2a 74 78 3f
       0.1490812 -0.3301771 0.15282734 0.9705225
0003e0 f5 48 de 3d 2d f0 36 40 c7 80 92 3f 36 f4 2d 40
       0.10853759 2.8584092 1.144555 2.7180305
0003f0 48 f9 61 3f 01 17 91 40 6e 92 dc 40 f7 20 67 3f
       0.88271 4.534058 6.8928747 0.90284675

linear2.bias f4 [5]
000000 39 54 01 3e 82 a4 b4 bc 29 a9 92 bd cd c0 2e 3e
       0.12629785 -0.0220511 -0.07161171 0.17065735
000010 96 67 14 3e
       0.1449264
