model/a1model.pth (torch, 33183 bytes, 4 tensors)

linear1.weight f4 [256, 25]
00000000: 6abf 87bf d9e0 6a3f 1e4f 4c3f 3401 55be
00000010: 17f8 cfbe 0857 dbbe 939a f23e ed4c 3cbf
00000020: a534 9e3e 710e eb3e 4dd2 9f3e 4aa4 8c3e
00000030: 53bd b1be 4d68 0cbd 987c c93e b9fd 4c3e
00000040: 90f0 0bbe cc15 0fbf db57 f1be bd34 70be
00000050: c16f 143e 6c65 533d 4e3d 80be 5a13 f9be
00000060: 2bf8 a4be 05e8 05bf 09b2 98bd 205c 9a3f
00000070: 7f7c cfbf 96a3 2d3f c4ec 14be 0da4 9d3e
00000080: 034a b53e 675c 5abf 8771 b3bd 0200 87bc
00000090: ae75 0f3f e564 04bd a4b3 1b3f 7b4d bdbd
000000a0: 6fc5 bf3d 3b7d 5bbd 05c5 38be 69c0 6b3e
000000b0: 499b 4a3c 5811 81be 374f ed3e 662a 6b3b
000000c0: 8cd8 8fbc 13b3 96be af6c 1f3f 890f 12be
000000d0: cf9c 873e 27b5 e53e c923 973c 557f 353f
000000e0: ed09 83bd 203a abbd 61fb 9f3f 4cc5 b4bf
000000f0: 24a9 2d3f 10ba cebe 9b09 d0be eb47 0f3f
00000100: 2797 b93d 9e62 ad3c d8f2 07bf 493b 1bbf
00000110: 224e d43c d272 06be d5fc 87be dcad ca3d
00000120: 3ea7 cb3c c05f 4e3e 4585 ecbe 0d61 fcbe
00000130: 2c81 7e3e a9d8 9a3e 5c21 d9bf 43c5 a73f
00000140: 54ae 24c0 85c3 c23b e8f2 c1bd 23a4 233f
00000150: 18f7 c23d 1096 44bf bb8a d4bd 51bb 31bf
00000160: 5d0d a8bd cf72 703f 4f2c 1b3f 9698 183f
00000170: 949c b53e b30f 98bf 270a 30bd 7d26 223e
00000180: cc59 d0bd 2e32 afbe 889a 5ebe 5cd3 1dbf
00000190: e67b 393e dbee 193f beea 8f3e 0b0f e73f
000001a0: e84a 21c0 5626 45be 3ef0 d13e d7c4 00bf
000001b0: cf30 ca3e f8a2 b8c0 5ec3 c33d c061 c03c
000001c0: 851c 8dbe bad7 213e cfd9 9b3e 5cc5 503e
000001d0: 6896 35be 26c5 3cbd e2b6 55bd 65a3 a3bd
000001e0: a84a 1a3e e3f0 f7bd 4cde aebd 369c e5be
000001f0: 56ca 03be 1b48 a93f bc15 583f b73e 4b3d
00000200: 61a8 8f3d a759 5dbe 942b c43e 6b1d 193e
00000210: 0495 5abe d719 36bd 8e68 fdbe 1bf6 933e
00000220: 1fe9 3ebe 2acd 1bbf b914 44be d684 583e
00000230: d259 b7bd ea2d 19bf b9de 1dbf 8127 86be
00000240: 6b9e 923e c943 52be 5beb 4fbf 201b efbe
00000250: e694 d1be bf04 e4bc e3fd 8dc0 d1f0 ba3e
00000260: 0fa6 ae3f b633 b9bd 18d0 e23f b76a 34be
00000270: 7ecf 143f ad84 a03c 9401 793e 9080 713f
00000280: 32f4 a6bf d5b7 23be a726 453c 6ebd 5a3e
00000290: b3a8 81be e306 e73e 59fb 34be cb35 a5be
000002a0: 4379 acbe 04a6 55be f9da aabf 9c64 56bc
000002b0: b6bf 6dbe 0b1b 99be 015d 13be b6f0 9fbe
000002c0: c381 a1bf 3e83 1e3f 3f0d 10c0 36e1 63c0
000002d0: 2e70 16c0 03b8 b43f 0d3f 90be c1b1 3b3f
000002e0: 72a9 9b3f 3f52 483e 8a7f d13e 795f 93be
000002f0: 3f60 b83e abfc a13e 421a 84bf bc55 433e
00000300: 6001 2e3f 8ef1 19bf 974f 42bf 372d dbbd
00000310: c989 51c0 f805 97bd 71b4 86bf a0dc a93e
00000320: c2da 413e 530c 24bf 0117 f7bf e9ad 373f
00000330: 2b3a 813c 0c96 7d3e 7f9e b5be d7c5 dd3e
00000340: a63a 2fbf a6ce 473e 58aa 8fbe 4c45 813e
00000350: 25bb 1e3a 3b54 c93f 412b 66bf 28b7 c73e
00000360: b4e5 efbe 510f 9ebd 1cd8 9abf 149d bb3e
00000370: 28a9 c3be 3305 293e 9530 a4be 8b6a 83be
00000380: e4d2 863e 77db 9ebd 4357 64bf 1bef 7e3f
00000390: 515f b0be f371 213f 788a 6bbd 692d 073f
000003a0: f2bd 233f 7d36 a2be d053 1abe 64bf c3bc
000003b0: 01f9 bf3d 5f3d febe 1970 d83c 1338 203f
000003c0: 0b74 153f 0a60 74bf 7359 3b3d 4395 a33f
000003d0: 04b6 04bf 7385 e33e 9592 d8be 31b1 6cbd
000003e0: 98b7 8e3e d1cb 23bf e7cf 963f 1e82 393f
000003f0: 37e5 cbbf c8a1 3b3d 2902 a03f e92e 3e3e
-1.060529 0.9174934 0.79808223 -0.2080124 -0.40618965 -0.42839837 0.47383556 -0.7355488
0.3089954 0.45909455 0.31215134 0.27469093 -0.34714755 -0.034279156 0.3935287 0.20018663
-0.13665986 -0.55892634 -0.4713734 -0.23457618 0.14495756 0.051610395 -0.25046772 -0.48647577
-0.32220587 -0.5230716 -0.074558325 1.2059364 -1.6209868 0.6782774 -0.14543444 0.30789223
0.3540803 -0.85297245 -0.08761888 -0.016479496 0.5603894 -0.032322783 0.60820985 -0.09243294
0.09363829 -0.053586226 -0.18043907 0.23022617 0.012366124 -0.25208545 0.463495 0.0035883426
-0.017559312 -0.29433498 0.62275213 -0.14263739 0.26486823 0.4486477 0.01844968 0.7089742
-0.063983776 -0.08360696 1.249859 -1.412271 0.67836213 -0.4037633 -0.40632328 0.55969113
0.09062033 0.021165188 -0.53104925 -0.60637337 0.025916163 -0.13129738 -0.26560083 0.09896442
0.02486002 0.20153713 -0.46195427 -0.49292794 0.24853963 0.30243424 -1.6963305 1.3107074
-2.5731401 0.005943718 -0.09470159 0.6392233 0.09519786 -0.7679148 -0.10378023 -0.6942645
-0.08205674 0.93925184 0.60614485 0.5960783 0.35471022 -1.1879791 -0.042978432 0.15834995
-0.101733774 -0.34217972 -0.21738636 -0.61650634 0.1811367 0.6013009 0.28108782 1.8051466
-2.520197 -0.19252905 0.41003603 -0.50300354 0.39490363 -5.7698936 0.09558748 0.02348411
-0.2756082 0.1580495 0.30439612 0.20387787 -0.17733157 -0.046086453 -0.052176364 -0.079901494
0.15067542 -0.12106492 -0.085384935 -0.44845742 -0.12870154 1.322513 0.84408164 0.049620356
0.070145376 -0.21616231 0.38314497 0.14952628 -0.21345907 -0.044458237 -0.4949383 0.288987
-0.18643616 -0.6085993 -0.1914853 0.21144423 -0.08952679 -0.59835684 -0.6166797 -0.26202014
0.28636488 -0.2053367 -0.812185 -0.46700382 -0.40933913 -0.027834294 -4.437242 0.36511853
1.3644427 -0.09043066 1.7719755 -0.17618833 0.5812911 0.019594515 0.24317008 0.94336796
-1.3043272 -0.15988095 0.012033141 0.21361324 -0.2532402 0.45122442 -0.17674007 -0.32267603
-0.33686265 -0.20864111 -1.3348075 -0.013085511 -0.23217663 -0.29903445 -0.14390947 -0.31238335
-1.2617725 0.6191901 -2.2508085 -3.5606208 -2.350597 1.4118656 -0.28173104 0.73318106
1.2161086 0.19562624 0.40917617 -0.28783777 0.3601093 0.31638083 -1.0320513 0.19075674
0.6797085 -0.6013421 -0.75902694 -0.107019834 -3.2740347 -0.07374185 -1.0523816 0.33176136
0.18931106 -0.64081305 -1.9303895 0.7174974 0.015774807 0.2476427 -0.35472485 0.43315002
-0.68448865 0.19512424 -0.2805965 0.25248182 0.00060551084 1.572883 -0.8990975 0.39006925
-0.46854937 -0.07717765 -1.2097201 0.3664328 -0.38214993 0.1650589 -0.32068315 -0.25667223
0.26332772 -0.07756703 -0.8919565 0.99583596 -0.3444772 0.630645 -0.0575051 0.52803665
0.6396171 -0.31682196 -0.15071034 -0.023894973 0.093736656 -0.49656197 0.02642064 0.6258556
0.5838019 -0.95459044 0.045739602 1.2779926 -0.51840234 0.4443775 -0.42299333 -0.05778617
0.27874446 -0.63982874 1.1782197 0.7246417 -1.5929326 0.045808583 1.2500659 0.18572582

linear1.bias f4 [256]
00000000: 0bcf 8abe 8a97 883d d8c1 1fbe a253 023f
00000010: 2343 babe d3f3 91be 3a40 97be eb10 f03d
00000020: 5769 44be 7735 0abc 1599 843c 4b7b 6f3d
00000030: 2189 e1be 2f35 4abe 14ef 06bd a4fd 10be
00000040: 63cd cb3d 6823 1abf 5ba7 9f3e 353e 253f
00000050: 8b1c 8e3d 434e c43d e819 4fbe 80bd e3bd
00000060: 5a79 f5be bbf3 19bf bfc8 96be 2a86 8abe
00000070: af6c 5fbe 2e74 87be 3e37 403f cd71 54be
00000080: 89c5 e83c fb9d f53b e86d 00bf 9267 823d
00000090: 91be 24be 9362 03bc b70c 543d 550a efbd
000000a0: 3ce0 b6be 690b d93d 556c a63e 87fd 853e
000000b0: b2ce afbe 880d 1a3e a4d4 8bbe bee6 883d
000000c0: 8f6b 323e 28a1 c4be 8828 86be d4b8 d7bd
000000d0: 2385 98be 7080 90be fb9e 19bd da52 37be
000000e0: 8427 b5be 9f5f 10bd acbf 12be bf31 10bf
000000f0: 12f0 813e 86c8 1b3e 6c71 4c3d d3a9 e13e
00000100: 3b8d 00bf f892 96bd d815 5c3e 4f37 f1be
00000110: 808d 143e a6ba cebd 541e e5be df8b 73be
00000120: 6be3 74be 1cba 91be 72df a9be aeb9 14bf
00000130: cf9b dd3c abb4 7dbf 28a6 15be f76c 97ba
00000140: 9fbd f2bb 108d e9be fad1 d4be 3f42 79be
00000150: 8b52 e93e 14f1 3a3e 451d 5bbe aa1c 6fbe
00000160: c0ef 92bd b813 e03e b083 ad3e 6bab d93d
00000170: 9d56 a93d 0050 e8be cc79 13be 2c06 de3e
00000180: 2987 22be 0274 533d cc18 b0bd b332 c0be
00000190: 6dcd fabe 6be5 af3e cc85 7fbe 6084 f33e
000001a0: 8f1d ccbe b3ba 13be 5342 00bf ece2 c1be
000001b0: e2e4 013f 30cd cbbe 3c39 d0be c0c0 4b3c
000001c0: 6aec 0dbf 69bd 44be cc87 bb3e 69ef f0be
000001d0: e928 803e 5927 b73d 3196 e8bc 76a1 0fbf
000001e0: 9ddc 06bf 679a adbd fac3 6a3e 3bff 34be
000001f0: 9b04 88be 9815 8cbe f982 c53d 80d0 d2be
00000200: d436 ae3e 6577 863f c617 043f 7e92 88be
00000210: ca2b 0dbf 5c43 583d 1b20 20be ce28 b8be
00000220: df0f 69be 60d0 2b3e 69f5 1bbe 29e4 bcbe
00000230: 5154 91bf aff3 b43d 4c56 703e 29ce 94be
00000240: ecf7 053e b242 af3c 7ef8 703d 8db0 373f
00000250: 994e 00bd 52cc d9bd c0ac c43e 2746 d53e
00000260: 69a4 933d 8fd2 08bc 8f3b 28bc 0df3 0d3f
00000270: 91ea f73d ce1a 41be d165 2dbf 2af7 3e3e
00000280: 842f d7be 339e c6be bba6 d23d bb90 a23e
00000290: 02f1 3f3f 5d1a a6bd af47 023f 647f 003f
000002a0: 1844 b1bb c27c 3abd 58ed 86bd 1458 993d
000002b0: adec bdbd 3f06 323e a92d a2be 9bd9 96be
000002c0: 9016 43bd d479 04be 2cec a5be 3812 02bf
000002d0: 0a23 bebe 2172 323e 2532 1dbf b324 b63e
000002e0: f8f2 46be 2d42 013e ad79 d13f 39f6 6abd
000002f0: 5968 d7be 120d 49be 6bbd f2be 5238 a5bd
00000300: 6863 763e 733f 31bf c25f 44be 862d 1e3e
00000310: 94b5 753e 07d4 37be 8ecb 88be 3282 973e
00000320: 4f21 21be 4eba 03bf a381 0ebf ccd1 0cbe
00000330: 85f1 80be 228c 8fbe a803 17bf 212d 193f
00000340: 3492 9f3e 1d3d b7bc 6035 c13d 31d0 3ebe
00000350: 782a 8bbe 70c2 3e3d 18ea cd3e 3e1b 83be
00000360: 0d49 703f 42bc 92be eba6 aabe 2109 09bf
00000370: e2e2 d8be b3be 02bf c062 623e 2dd4 aabe
00000380: b01b 65be 4b0a dc3e 56f4 a3be af1b 40bf
00000390: bb3d b33e f10b c13d 72d6 9e3e 5a43 d03e
000003a0: 03cb 2dbe eff6 40bd bae6 5f3e 77ab 75be
000003b0: 6e70 253a b1ae 5fbe c2d3 01be eed3 a8be
000003c0: 830e efbe 5346 55bd 171e 9bbe 53ec e1be
000003d0: f727 353e 8cdc 8dbe 2e8a 1cbe a2e1 34be
000003e0: b553 53be 1251 6dbe 8c22 0abf 1f6c edbd
000003f0: 4672 a4bd 01b8 a23f 4aba 7dbf a200 59bd
-0.27111086 0.06669529 -0.1560129 0.50908864 -0.36379346 -0.28506336 -0.29541188 0.11721977
-0.19180809 -0.008435599 0.016186276 0.05846719 -0.44049934 -0.1974685 -0.032942846 -0.14159256
0.09951284 -0.60210276 0.3118237 0.64548045 0.06939038 0.0958524 -0.20224726 -0.11120129
-0.47944146 -0.6013753 -0.29450032 -0.27055484 -0.21818803 -0.26455826 0.7508429 -0.20746537
0.028414505 0.0074956394 -0.50167704 0.06367411 -0.1608832 -0.008019107 0.05176994 -0.116718926
-0.35717952 0.105978794 0.32504526 0.2616999 -0.34337384 0.15044224 -0.2731067 0.066846356
0.17423843 -0.38404202 -0.26202798 -0.105333 -0.29789075 -0.2822299 -0.03750513 -0.17902699
-0.3538171 -0.03524744 -0.1433093 -0.56325907 0.25378472 0.15213212 0.049912855 0.44074878
-0.502155 -0.07352251 0.21492708 -0.4711251 0.14507103 -0.10094194 -0.447497 -0.23783825
-0.23914878 -0.28462303 -0.33178288 -0.58095825 0.027051834 -0.991038 -0.14614165 -0.001155286
-0.0074078585 -0.45615435 -0.4156645 -0.24341677 0.45570788 0.18256027 -0.21397884 -0.23350778
-0.07174635 0.43765044 0.33889532 0.106283985 0.08268473 -0.45373535 -0.1440193 0.43364084
-0.15871872 0.051624306 -0.0859848 -0.3753868 -0.48984852 0.3435472 -0.24953383 0.47561932
-0.398663 -0.14426689 -0.501012 -0.3786844 0.5073987 -0.39804983 -0.40668666 0.012436092
-0.55438864 -0.19212879 0.36627042 -0.47057655 0.25031212 0.08943052 -0.02839193 -0.56105745
-0.5268038 -0.084767155 0.22926322 -0.17675488 -0.26566014 -0.27360225 0.09644122 -0.41174698
0.34026206 1.0505186 0.51598775 -0.26674265 -0.5514494 0.052798614 -0.15637247 -0.35968632
-0.2275996 0.16778708 -0.15230335 -0.36892822 -1.1353856 0.088355415 0.2347042 -0.29063538
0.13082856 0.021394107 0.05883073 0.7175377 -0.031324957 -0.10634674 0.38413048 0.41655084
0.07209093 -0.008350982 -0.010268106 0.5544899 0.12105287 -0.18857881 -0.67733485 0.18648973
-0.4202844 -0.3879257 0.102857076 0.31751046 0.74977124 -0.08110497 0.5089063 0.5019438
-0.0054097287 -0.045529135 -0.065882385 0.07487503 -0.09273658 0.17385195 -0.3167546 -0.29462895
-0.04762894 -0.12937099 -0.32406747 -0.5080905 -0.37136108 0.17426349 -0.6140464 0.35574874
-0.19428623 0.126229 1.6365258 -0.057363722 -0.42071798 -0.19633892 -0.4741014 -0.08067383
0.24061358 -0.6923744 -0.19177154 0.15447053 0.23995048 -0.17951976 -0.267178 0.2959152
-0.15735362 -0.51456153 -0.5566656 -0.13751906 -0.25184265 -0.280366 -0.58989954 0.59834486
0.31166232 -0.022368008 0.094340086 -0.18634106 -0.2718084 0.04657215 0.40217662 -0.25606722
0.93861467 -0.28659254 -0.33330473 -0.53529555 -0.42360598 -0.51072234 0.22107983 -0.33365002
-0.22373843 0.42976603 -0.3202235 -0.7504224 0.35008034 0.09426106 0.31022984 0.40676385
-0.16971974 -0.047110494 0.21865359 -0.2399119 0.0006311004 -0.21843983 -0.12678435 -0.3297419
-0.4669076 -0.05206902 -0.30296394 -0.44125614 0.17691027 -0.27707326 -0.15287086 -0.17664197
-0.206374 -0.23175457 -0.53958964 -0.11592888 -0.080296084 1.2712404 -0.9911238 -0.05297912

linear2.weight f4 [5, 256]
00000000: ab22 8a3e 3ac9 7e3d eb3b 2a3e db79 8ebf
00000010: c7d1 1e3f 18cf 253f 5af1 953f e74c dd3f
00000020: a292 2b40 7c0f bf3e 2798 a73f c43a f23f
00000030: b4f0 d4bf e23d 0f40 d4fa 7940 6086 50bd
00000040: 5578 fa3d 0a93 503c b684 71bf dbc5 2140
00000050: 861c 21bf 4deb 573f be0a 49bd a83a b03e
00000060: 1333 e5bf a5e0 dd3f 5885 f83f 7e2d 303f
00000070: 8144 613e 257e 83be 49bf c6bf 7a09 453f
00000080: 0dbe 41bf f83e 473f 3fb3 c43f 1a8c fd3f
00000090: 1521 8cbf 3b12 623f 13ae 813f 78fe 8abf
000000a0: 4ee4 e7bf d2a3 b63f 7a6c 553f 5167 0f40
000000b0: 35ee 7d3f ebee a6be 69b7 fc3f 9324 0abf
000000c0: 8c17 0640 e7d6 3d3f 5bb6 c8bf e291 aebf
000000d0: a2d4 4f3f 0ec3 093e 18c5 003e b102 4ac0
000000e0: 5dd7 ef3f d2eb 303f 5123 533f fd15 15bf
000000f0: a9b6 0640 bf9a de3e c2ab d53f c12f 8f3d
00000100: 62b3 0dc0 3229 91c0 2eef a23f 54f3 34bf
00000110: 0f14 ebbb 117b 0e3f bda5 833f 4542 f5bb
00000120: d25f 323e 2568 b23c c8ea 94bf 34ac 3140
00000130: 7626 823f 1bd2 0abf 049a 5c40 6344 473f
00000140: d01c 35bf c03a 57bd 7949 3c3f 6c93 153f
00000150: 7670 54c0 45df 94bf e048 03bf 93e3 703f
00000160: 6502 ff3f 7cfc 1fbf 3903 20be 1759 353f
00000170: 5a26 2040 a710 af3e 03ab 003f 7712 3b40
00000180: 10ee 3fbf 8069 96be 2eae 8cbf fa05 073f
00000190: 23bc 3940 d841 913f 0f14 a73f 1c1c cdbe
000001a0: bd9e 053e 0cfc d03f 6104 35be cf07 c33f
000001b0: e2c2 4b3f ac89 6ebf bf84 09c0 36b4 d33f
000001c0: 757e 9dbf fa38 babd 54c2 f33e 61da 2440
000001d0: a894 02bf e6c9 513f 224d 963f 43fb 1940
000001e0: eecf 8340 1a1e 1d40 f6eb 0dc0 eb20 1bc0
000001f0: 8434 3b40 e09d a7bf 6e25 c63d 5fe1 b1bf
00000200: 4c9b 4dbe e267 1c40 d6b4 3dbe 3bba 713f
00000210: 7722 753f 272b 5cbf c522 643f 6226 6540
00000220: d0cc 2ebf f295 30bf 0bd4 483c a312 8c3f
00000230: a3b6 3140 10b0 fabf bc13 1840 b49f 383f
00000240: 10b0 e53e f5bd ba3f 0fc1 753e 555d 1abf
00000250: 2b7f c83f 8d1c b73d a914 dfbe a7b9 3240
00000260: e343 e33e 2dd1 6c3f 064e 0a40 fdb1 14be
00000270: d928 12be 0260 983f 6616 7ebf 8b9f d3be
00000280: b00d 723d ccd7 e73e 7ed7 3e40 28f2 9cbe
00000290: 2293 31bf c765 acbf aba5 e5be b515 f83e
000002a0: 8fb0 c23f e90e ed3f 243a afbe 6376 0e3d
000002b0: ba47 d13f 218f a3bf a8bc 78c0 20f0 7fbe
000002c0: 94c3 823f 4583 2540 6e68 dd3f 2a6c 583f
000002d0: cb45 3640 16e9 f43e b806 3e3f 8f79 0bbf
000002e0: 2018 c6bf 3764 79bf 4b86 b83f 9a42 943e
000002f0: 3d21 d6c0 25f1 fe3f 8771 a1bf 3654 3740
00000300: 311b c33f 0f86 8240 dd94 0340 5458 0ec0
00000310: e595 f3bf c02b 72bc a806 4cc0 6f78 fabe
00000320: 983e d93f 68e2 e83f 11c8 e43d b1a9 0540
00000330: f2f7 c8bc 0d6f 2b3f 2d15 7cbe be58 b9be
00000340: 58e4 62be fc61 973e 0549 1b3f b540 2f3f
00000350: cfd0 623f 978c d63e fa82 163f a467 b63d
00000360: 9207 033f bee9 93c0 3a1b 3ec0 647d a23f
00000370: 05cf 1040 a6f2 b03f fa3a c03f 42fc 7bbe
00000380: 2506 88be 68b6 9bbd 492a 9640 009c 583f
00000390: 8c95 763d 4db0 1abe dd69 69bf f75c ff3f
000003a0: 59fc a83b 8864 c2be dbd1 0340 4069 513f
000003b0: 865d d23f 3873 003e 077d b5be 28ae 5ac0
000003c0: eb6e 9e3f eab2 5bbf 7040 f23e cf71 33bf
000003d0: 328a 313d f90c a9be c57e 1c3e 099f 473f
000003e0: 4f9a 0f3e 90de 3640 c531 9a3f 9442 3940
000003f0: aa42 6d3f c0f4 8f40 ce63 dd40 645d 5c3f
0.26979575 0.062203623 0.1662442 -1.1130937 0.62038845 0.64769125 1.171428 1.7289094
2.6808248 0.373165 1.3093308 1.8924184 -1.6635957 2.238152 3.9059343 -0.0509094
0.12229983 0.012730369 -0.94343126 2.5277011 -0.6293415 0.84343415 -0.04908251 0.3441975
-1.7906212 1.7334181 1.9415693 0.68819416 0.21998788 -0.25682178 -1.5527126 0.76967585
-0.7568062 0.7783046 1.5367202 1.9808381 -1.0947596 0.8830907 1.0131248 -1.0858908
-1.8116548 1.4268744 0.8336865 2.240681 0.991916 -0.32604155 1.9743472 -0.5396206
2.0951872 0.7415604 -1.568065 -1.363827 0.81183827 0.13453314 0.12575185 -3.1564143
1.8737599 0.69109833 0.82475764 -0.58236676 2.1048987 0.43477437 1.6693041 0.0699153
-2.2140737 -4.5362787 1.2729242 -0.7068379 -0.007174022 0.55656534 1.0284954 -0.0074847066
0.17419365 0.021778176 -1.163415 2.7761354 1.0167987 -0.54226846 3.4469004 0.77838725
-0.7074709 -0.052546263 0.7354961 0.5842807 -3.319364 -1.1630636 -0.51283073 0.9409725
1.9922606 -0.62494636 -0.1562623 0.70839065 2.5023408 0.34192392 0.50260943 2.923002
-0.7497263 -0.29377365 -1.0990655 0.52743495 2.902108 1.1348219 1.3052996 -0.40060508
0.13048835 1.6326919 -0.17677452 1.5236758 0.7959424 -0.9317882 -2.1487272 1.6539371
-1.2304217 -0.09092899 0.47609198 2.5758288 -0.5100808 0.819487 1.1742289 2.4059608
4.119132 2.4549623 -2.217527 -2.4238842 2.9250803 -1.3095055 0.09675108 -1.3896903
-0.20078772 2.4438405 -0.18526015 0.9442479 0.95755714 -0.86003345 0.89115554 3.5804677
-0.6828127 -0.689788 0.012257586 1.0943187 2.7767723 -1.958498 2.3762045 0.7211869
0.44860888 1.458922 0.23999427 -0.60298663 1.5663809 0.089409925 -0.4357045 2.7925813
0.4438773 0.92506677 2.1610122 -0.14521022 -0.14273395 1.1904299 -0.9925293 -0.4133266
0.059095085 0.45281827 2.9819026 -0.306535 -0.6936513 -1.346856 -0.44852957 0.4845406
1.5210131 1.8520175 -0.34224045 0.03478087 1.6350014 -1.2778054 -3.8865147 -0.24993944
1.0215936 2.586137 1.7297494 0.84540045 2.8480098 0.4783408 0.74229 -0.5448236
-1.5476112 -0.9741854 1.4415983 0.28957063 -6.6915574 1.9917341 -1.2612771 2.8645148
1.5242673 4.0788646 2.055961 -2.2241411 -1.9030119 -0.014780939 -3.1879063 -0.4892001
1.6972227 1.8194094 0.11170972 2.0884821 -0.024532292 0.66966325 -0.24617453 -0.36200517
-0.22157419 0.29566944 0.60658294 0.6845811 0.88599867 0.41904137 0.58793604 0.08906487
0.51183426 -4.622283 -2.9704118 1.2694516 2.2626355 1.382405 1.5017998 -0.24607947
-0.26567188 -0.076031506 4.692662 0.8461304 0.060201213 -0.15106316 -0.9117716 1.9950246
0.0051570353 -0.37967324 2.0596836 0.81801224 1.6434791 0.12543952 -0.3544695 -3.4168797
1.23776 -0.85819876 0.47314787 -0.70095533 0.043344684 -0.3301771 0.15282734 0.77977043
0.14023708 2.8573341 1.2046438 2.8946886 0.92679846 4.4986267 6.918433 0.8608

linear2.bias f4 [5]
00000000: ef72 3f3d 594e 13bd c579 8ebd b280 103e
00000010: 29af 1c3e
0.04674047 -0.03596339 -0.069568194 0.14111593 0.15301193
