model/a1model-deep.pth (torch, 6487 bytes, 6 tensors)

linear1.weight f4 [25, 25]
000000 13 dd 7d be 67 77 d0 3d 98 85 2b bf 15 7e a1 be
       -0.24791364 0.10179024 -0.6700072 -0.31541505
000010 e7 ab 03 bf 7f a1 6e be 57 43 01 3e 87 63 0c be
       -0.5143418 -0.23303793 0.12623344 -0.13709842
000020 69 11 c6 bd 37 59 02 3d fb b1 b0 3c 12 f5 9b bd
       -0.096712895 0.031823363 0.021569243 -0.07615103
000030 16 e4 9f 3d a7 98 3e 3e 5e a8 79 be 56 69 12 be
       0.07807176 0.1861292 -0.24380633 -0.14297995
000040 4b a3 64 3e 08 f2 ae 3d ce 88 00 3e 54 ee 35 bd
       0.22327916 0.085422575 0.12552187 -0.04441674
000050 92 04 9e 3e 8d ac b7 3e a6 0b 82 3e 5e 63 94 3d
       0.30862862 0.35873833 0.25399512 0.07245515
000060 97 b7 91 3e da 58 49 bd ba 1f 6a bd 66 b9 07 3f
       0.2846038 -0.049157 -0.057159163 0.5301727
000070 90 04 4c 3e 12 84 4c 3e 05 39 a9 3d ab 6f 21 3e
       0.19923615 0.19972256 0.08262829 0.15765254
000080 82 9a 80 bd c7 ea 83 3e dd de ef 3d b2 75 02 3e
       -0.0627947 0.25765058 0.1171243 0.1274021
000090 ff c6 fa bd 02 c6 04 3e 2a ad ff 3d 7f 1b a4 3d
       -0.12244987 0.12966159 0.124842 0.08013057
0000a0 88 b3 bb 3d 02 e7 ae bc 23 c5 15 3e 53 fe 9b 3e
       0.09165102 -0.021350387 0.14625983 0.3046747
0000b0 62 4b 2f bd e7 0d 1e 3e 81 83 3d be 6a ec 42 3d
       -0.0427965 0.15434991 -0.18507196 0.047588743
0000c0 90 94 80 3d 21 c3 8a 3d 4e 3f 70 be 93 a7 a1 be
       0.06278336 0.06775499 -0.23461649 -0.3157316
0000d0 fe 92 23 be 03 e9 b3 be 9b e7 ac be 49 0c 8e bc
       -0.15974042 -0.3513871 -0.3377045 -0.017339842
0000e0 c9 1e 1b bf 3e b0 aa be 6a ff a6 be 38 ba ed be
       -0.6059385 -0.33337587 -0.3261674 -0.46431136
0000f0 f0 7a 8e 3e ae 60 69 be 9c 54 3f be c6 5e 60 3e
       0.2782817 -0.22790787 -0.1868462 0.21911153
000100 29 14 b1 be b9 a8 6d 3e 11 5a 48 3e 11 1f 07 3d
       -0.34585693 0.23208894 0.19565608 0.03298861
000110 61 ec 3d 3e d8 31 31 3c 2c 23 9e 3e fa c6 2a 3f
       0.18547203 0.010815106 0.3088621 0.66709864
000120 3c 82 61 3e 9b 4f e5 3e e9 66 54 bd 2c a8 ca 3e
       0.22022337 0.44787297 -0.051855955 0.3958143
000130 6f 36 a3 bc 71 95 ec 3e 4d 0e fa 3d 74 5e c8 3e
       -0.019923417 0.46207765 0.12209759 0.39134562
000140 72 c9 62 3e d1 06 f1 bd b6 df 72 3e 67 76 31 3e
       0.22147158 -0.11768878 0.23718151 0.17330323
000150 4c d3 2c 3e 11 29 54 3c 53 39 88 bd 4b 77 3a 3e
       0.16877478 0.012949244 -0.06651559 0.18209569
000160 96 9d ff 3d 85 8b 2a 3e ea 05 2d 3e cc 1e 0b 3d
       0.12481229 0.16654785 0.16896787 0.033964917
000170 f3 9f 86 3d 87 d9 02 3e b1 f3 a4 3d cc c1 59 bd
       0.06573477 0.12778293 0.08054293 -0.053163335
000180 53 c9 e1 bd 14 79 8f 3c b7 7e b4 bd 76 d6 62 be
       -0.11024728 0.01751379 -0.088132314 -0.22152123
000190 89 c4 34 bd 44 77 aa 3d b5 ab cd bc d5 1d ce bd
       -0.044132743 0.08323529 -0.02510629 -0.10064284
0001a0 3a ec af be db 79 1b be 24 3d c0 bd 24 70 50 be
       -0.34359914 -0.15183203 -0.09386662 -0.20355278
0001b0 60 b6 fe 3d 8d 1a 02 3e c9 d6 d8 bd b6 00 e4 3d
       0.12437129 0.12705441 -0.10587842 0.11132948
0001c0 5b 50 98 3d 52 51 c8 3d f9 c4 73 3e 19 2f a5 3b
       0.074372016 0.097811356 0.23805608 0.005041015
0001d0 d8 5e a7 bd 77 cb 3f be d9 bc d8 bc c3 64 09 3e
       -0.08172387 -0.1872996 -0.026457237 0.13417344
0001e0 3a 7b 68 3e b7 d2 63 bd 69 50 53 be 0d 6d 4d be
       0.22703257 -0.055620875 -0.20636143 -0.20061131
0001f0 24 b5 35 3e b3 4f 15 be f5 9d 1b 3e cd ac ee be
       0.17744881 -0.14581184 0.15196975 -0.46616212
000200 13 f4 6c be 78 a4 6b be a4 a4 a2 3d 84 ae cd 3d
       -0.23139982 -0.23011959 0.07941559 0.10043052
000210 ab c8 31 be 1d 1c aa bd 10 f0 0c be 3d 54 16 be
       -0.17361705 -0.083061434 -0.13763452 -0.14680572
000220 7d e7 09 bd e6 1e 73 bd 49 76 a0 3d ea d5 08 3e
       -0.03366803 -0.05935564 0.07835061 0.13362852
000230 a8 24 83 bc 58 b3 84 3e 74 1b c9 bd c1 bd 58 3d
       -0.01600869 0.25918078 -0.098196894 0.05291534
000240 27 1d 38 3e cb b0 a7 3d 53 68 e5 3e 7f ec c3 3e
       0.1797987 0.081880175 0.44806156 0.3826637
000250 ba 7f 72 3c 06 dc 44 3d 22 62 b2 be dc 8f 6a be
       0.01480096 0.048061393 -0.34840494 -0.2290644
000260 be 2a 2c bf 43 cb 96 be 81 d8 0b bf 11 f6 9b be
       -0.6725272 -0.2945195 -0.54627234 -0.3046117
000270 54 ee c4 bc da 97 dd be 88 7a 98 be 6a f8 21 3c
       -0.024039425 -0.43279916 -0.29780984 0.009885887
000280 f8 81 e5 3d 16 26 a1 bd 0a 37 cc bc af 06 90 3d
       0.1120643 -0.078685924 -0.024928588 0.07032525
000290 63 e2 02 be ef 5e 11 3e 39 20 a2 3e 80 c3 29 39
       -0.12781672 0.1419637 0.3166521 0.00016189925
0002a0 3d bf ed 3d 79 04 72 3e 4d a1 3b 3e bb d8 82 3e
       0.116087414 0.23634519 0.1832325 0.25555977
0002b0 bc 68 90 3e ee f6 a7 3e 2d 56 80 3e 64 69 0d be
       0.28204906 0.3280558 0.25065747 -0.13809735
0002c0 7d d1 75 3e 32 fc e2 be 0f 40 e4 be a2 36 2d bf
       0.24005695 -0.44333035 -0.44580123 -0.6766149
0002d0 59 21 f3 bd 33 04 1c 3e 25 f0 b6 3d 5f 8e d8 ba
       -0.11871595 0.15235977 0.08932523 -0.0016521922
0002e0 61 9a a3 be 2a a3 88 bc 0a 8a 13 3d d7 c0 99 bc
       -0.3195372 -0.016679365 0.036020316 -0.018768711
0002f0 ad d8 6d bd 64 13 33 bd cd 01 1a 3e b9 16 a8 3d
       -0.058067966 -0.043719664 0.1503975 0.08207459
000300 31 80 eb 3d 59 45 4c 3e dc 76 a4 3e b5 c6 47 3e
       0.1149906 0.19948329 0.32121933 0.19509394
000310 26 f7 15 3d b0 c0 28 3e 62 91 b6 3e 12 f3 cb 3c
       0.036612652 0.16479754 0.35657793 0.024896178
000320 7e 00 9f 3e 30 35 ce bc 7b da d7 3e e8 ac 0b 3e
       0.31055063 -0.025171846 0.42158875 0.13640177
000330 79 37 fc 3e 60 c3 86 3d ab 62 e9 bb 07 84 b1 3e
       0.49261072 0.065802336 -0.007122358 0.3467104
000340 d8 bf 3c 3e 10 b3 22 3d 46 15 04 3d 07 c8 22 3d
       0.18432558 0.03972155 0.03224685 0.039741542
000350 47 08 68 3e 88 37 e2 3d 35 de 1f 3e 05 40 7e 3e
       0.22659408 0.11045748 0.15612109 0.24829109
000360 71 96 a8 3d 19 72 e3 3d 11 fa 5e 3e 98 9c 5d 3d
       0.082318194 0.11105747 0.2177508 0.054104418
000370 70 fe 5b 3e 43 82 08 3e 58 0b d7 3d 85 71 b7 3d
       0.21483779 0.13330941 0.105002105 0.08957199
000380 9c 72 d2 bd ca 62 82 be f8 5a d3 bd b9 b8 22 bf
       -0.10275766 -0.25465995 -0.10320085 -0.63563114
000390 38 6e 53 be 7b 43 ee be a4 74 24 be 61 13 e2 bc
       -0.20647514 -0.4653586 -0.1606012 -0.027597131
0003a0 de 75 1d be 13 45 5b be ad df 9b be ee 07 5d 3d
       -0.15376994 -0.21413068 -0.3044409 0.05396264
0003b0 60 3c 71 3d 69 44 c1 3d f9 fb 6c 3e 93 2b 76 be
       0.05889547 0.09436876 0.23142995 -0.2404006
0003c0 ec de dc bc 61 76 3e 3e cc 3f 10 3e bb 6e 07 bd
       -0.026961766 0.18599845 0.14086837 -0.033064585
0003d0 a8 66 89 3d a7 9d c2 3e e7 44 68 3e 17 cd c0 3e
       0.06709033 0.38010904 0.22682534 0.3765647
0003e0 b5 f2 80 3e 73 7d 44 bd 1d d0 b9 3e 3d 25 ca be
       0.2518517 -0.0479712 0.3629159 -0.39481536
0003f0 a9 35 a6 3e 26 28 1b 3e f1 7b ab 3e ec 0a 3f 3e
       0.32462814 0.15152034 0.33492997 0.1865651

linear1.bias f4 [25]
000000 b7 9f 81 3e 47 7e 07 bd 59 4b db 3e 1a 3c 36 3e
       0.25317165 -0.03307941 0.42830923 0.17796364
000010 22 a0 81 3e 75 32 90 3e 36 96 73 3e f5 58 77 3e
       0.25317484 0.28163496 0.2378777 0.24155028
000020 5b ee 33 bd 7f 9c 9d 3e f1 ef e2 3d 0a 7e 2e 3d
       -0.043928485 0.3078346 0.110809214 0.04260067
000030 e0 6c 35 3f 67 88 2a bd 82 60 9f 3e 8f 6b 1c bb
       0.70869255 -0.04163399 0.31128317 -0.002386782
000040 65 d4 c1 bc 64 db 51 3e 81 64 56 3f e2 db 16 3e
       -0.023660848 0.20493847 0.83747107 0.14732316
000050 cb c4 67 bc ce 33 b6 bc 4c 52 d1 bd b7 a4 17 be
       -0.01414604 -0.0222415 -0.10220775 -0.14808927
000060 f6 69 95 3e
       0.29182404

linear2.weight f4 [15, 25]
000000 5a 71 e6 be f5 cb 85 3e 7f 78 77 3d 86 36 6c 3e
       -0.45008355 0.2613217 0.06041765 0.23067674
000010 be ac 51 3d e5 ef b8 be 29 e8 0c bf 22 5c 16 3d
       0.05119013 -0.36120525 -0.5504175 0.03670896
000020 8c bf 45 3e 40 ed e1 be 9c 5f 29 3e be 28 e8 3e
       0.1931135 -0.4412632 0.16540378 0.45343584
000030 58 5c 48 be 84 a2 93 3e c4 72 e4 bd 61 b0 64 bb
       -0.19566476 0.28834927 -0.11154702 -0.003489517
000040 90 6b a4 be a4 cc 54 3d 5d c6 3e 3e ad 2b 5e be
       -0.32113314 0.051952973 0.18630357 -0.21696348
000050 1c ed 35 3e 1a 33 65 3d 97 6a f4 bd 20 94 29 bd
       0.17766231 0.055956937 -0.11934393 -0.04140103
000060 44 f1 0f be 06 8a 7e be 91 cf 7a 3e 5a dd d4 3c
       -0.1405688 -0.2485734 0.24493243 0.025984455
000070 ef a5 9c 3e 20 38 9b 3c 94 1c a9 be e6 42 d0 be
       0.30595347 0.01894766 -0.33029616 -0.4067604
000080 7c 8b a9 be ee 60 b8 3e 0e 85 e9 be 76 6b 91 3e
       -0.3311423 0.3601145 -0.45609325 0.284023
000090 00 b9 5f 3e ea 55 14 bc 9d 12 2e 3e 79 31 fe bd
       0.21847916 -0.009053687 0.16999288 -0.1241178
0000a0 d5 db 94 3d 2e 45 6b bd ea ee a6 3e dc 40 69 be
       0.07268492 -0.05743902 0.32604152 -0.22778648
0000b0 79 44 8b be b4 55 dc 3d e5 aa 17 3e d9 8f 76 ba
       -0.27200678 0.10758534 0.14811285 -0.000940559
0000c0 6c 6f a8 3e 10 4c d2 be 6d 64 e5 be 66 a5 c6 3e
       0.32897508 -0.41073656 -0.4480318 0.38798064
0000d0 50 bb 96 bd bb 48 52 3e c9 8a 01 3e ba cf c2 be
       -0.07359946 0.20535557 0.12650599 -0.38049108
0000e0 f3 72 0f be 3d ea ca be 3e 85 62 3e 19 ef b2 be
       -0.14008693 -0.39631835 0.2212114 -0.34948042
0000f0 15 16 e6 3d 52 4e 34 bd 59 68 8a be bd 72 c9 3e
       0.112346806 -0.044020005 -0.27032736 0.3934535
000100 a6 b3 b0 be 32 cf ca 3e 1e 9f 4d 3d b1 a5 46 3e
       -0.3451206 0.39611202 0.050200574 0.19399144
000110 94 51 c8 bd b4 1f 46 bd 5c b5 29 3e d1 99 0c 3e
       -0.09781185 -0.04837008 0.1657309 0.13730551
000120 82 5f f7 3c 42 46 53 3e 9a a7 ae be c1 e6 09 bd
       0.030196909 0.2063227 -0.34112245 -0.03366733
000130 e8 75 ee 3d 46 46 7b 3d a0 bb 3d bd 7a fe 83 be
       0.116435826 0.061346315 -0.04632151 -0.25780088
000140 8a 5c 1b 3e e5 08 8f bd 80 54 8a be 0c 16 0b 3b
       0.1517202 -0.06984118 -0.27017593 0.0021222858
000150 4a 8b 96 be 7d e2 b5 bd c7 1b ca bd ed 99 08 be
       -0.29403144 -0.0888109 -0.09868579 -0.13339968
000160 2d cb 9b bd 66 e0 41 be ff e3 6f 3d 8d 0a 1f 3e
       -0.07607112 -0.18933257 0.058567043 0.15531369
000170 1a 9a 08 3e 30 61 22 be 70 f7 7b 3e 28 85 8b ba
       0.13340035 -0.15857387 0.24606109 -0.0010644542
000180 8a fa f8 3b 09 7a b9 bc c7 38 f0 bc 4c bd 84 bb
       0.007598226 -0.022641199 -0.029323949 -0.0040508863
000190 b6 a8 50 3f a2 82 a6 3d 1b c7 54 3f 69 a8 81 bd
       0.8150743 0.08130385 0.8311631 -0.0633095
0001a0 02 52 2a 3e 98 46 ca 3e 28 5a 87 3f 6c f5 9f 3e
       0.16632846 0.39506984 1.0574389 0.3124193
0001b0 7b f4 95 bd 1d c6 8e 3f 49 87 48 be ad 40 fe 3c
       -0.073220216 1.1154209 -0.19582857 0.0310367
0001c0 8a 03 ab 3f d3 84 8d be 27 f2 76 3f 7c 55 a8 be
       1.3360455 -0.276404 0.96463245 -0.3287772
0001d0 e6 9e 02 bf 8b ef 11 3e 1e 82 7c 3f 40 9d e9 3e
       -0.5102371 0.14251535 0.98636043 0.45627785
0001e0 bc 7b 04 bd 78 a9 7d be bc 0f 04 3e 01 1f 7d 3d
       -0.032344565 -0.24771678 0.12896627 0.061797146
0001f0 14 e8 17 3f 3d 35 09 3e 9c 4c 21 bd fb 20 44 3e
       0.593385 0.13399215 -0.0393797 0.19153206
000200 95 ef 94 ba c1 3c 24 3e db ab 80 be 93 43 22 bb
       -0.0011362905 0.16038801 -0.25131115 -0.0024759516
000210 32 81 0b be 1d 9b 41 bd 46 65 91 bd 1c 73 d2 3d
       -0.13623503 -0.04726707 -0.070993945 0.102758616
000220 da fe 15 bc dd d3 71 bd 26 71 48 be fd 4f 32 3d
       -0.009155 -0.05903994 -0.19574413 0.043533314
000230 c7 c9 0f 3e 53 23 9f bd 72 94 35 be 62 78 36 be
       0.14041816 -0.077704094 -0.17732409 -0.1781936
000240 ea c3 44 3d 9c 03 27 be 4b c1 9b 3d 66 cc f8 bd
       0.0480384 -0.1630997 0.07605227 -0.12148361
000250 df a7 2c bc bd b5 55 be e3 00 3c be f8 84 04 3e
       -0.01053807 -0.20870109 -0.18359713 0.12941349
000260 e4 4b 8a 3e be fa b1 3d f4 40 a7 bd 45 3d b1 3c
       0.27011025 0.086904034 -0.08166686 0.02163566
000270 d6 a1 50 3e 68 7a 91 ba d9 21 45 3e e7 d1 de bd
       0.20374236 -0.0011099102 0.19251193 -0.108798794
000280 b4 8d 38 3e cf 08 b9 3d 39 ba 0c 3e 9f f3 d5 3d
       0.18022805 0.09034883 0.13742913 0.10446858
000290 62 0f fb bc bb 9f 8b bd 3e b1 2a be d3 e4 39 3d
       -0.030646984 -0.068175755 -0.16669175 0.04538424
0002a0 49 54 b2 3e 03 34 88 bd 3d 96 10 be 2c b7 0f 3e
       0.3482993 -0.066505454 -0.14119811 0.14034718
0002b0 da ba c4 3d 79 23 46 3e b6 d0 98 be 87 dd 11 3f
       0.096059516 0.19349469 -0.29846734 0.5697865
0002c0 5f 44 cc 3e bc 6c 1e 3f ce fd c8 3d ba c9 62 3e
       0.39895913 0.61884665 0.098140344 0.22147265
0002d0 41 cb 91 3e 38 70 4d 3f d0 91 04 3f a1 3f cd bd
       0.28475383 0.8024936 0.5178499 -0.10021902
0002e0 bf 07 2e 3f fb c3 91 3d 2a 96 30 be 66 18 f5 3e
       0.6798057 0.071174584 -0.17244783 0.47870177
0002f0 f8 42 8d be 95 0f ca 3e 65 e4 c0 be 5f 41 d6 bd
       -0.27590156 0.39465013 -0.3767425 -0.10461687
000300 f8 a2 b9 bd 67 89 52 3f 91 81 3e 3f ab 29 6d 3c
       -0.09064287 0.8224091 0.7441645 0.014475266
000310 73 26 c2 3d 0d 89 43 bd 18 05 ca bd b6 b6 aa 3e
       0.0947999 -0.047738124 -0.09864253 0.33342522
000320 72 11 c3 3d 1e 68 4b be df 0e 84 3d e6 0b 18 be
       0.09524812 -0.19863936 0.06448149 -0.14848289
000330 f7 29 2b be 6b 89 33 be 02 59 1c 3e b3 aa 04 be
       -0.16715227 -0.1753289 0.15268329 -0.12955742
000340 e9 e2 f0 bd b9 2a 17 be 77 b1 1a 3e e0 50 76 bd
       -0.1176203 -0.14762391 0.1510676 -0.060135722
000350 58 f3 0a be e6 b0 1c be e0 53 91 bc 01 b4 02 be
       -0.13569391 -0.15301856 -0.01774019 -0.12763979
000360 26 4b 3a 3e c7 aa fb 3d 7d 8b 15 be 77 2f ab 3d
       0.1819273 0.122884326 -0.14603992 0.083586626
000370 dc 04 5a bd 3b ca 94 bd a5 9d 3c 3e 79 39 50 be
       -0.05322729 -0.07265135 0.18419512 -0.20334424
000380 b6 cf 19 be 5e 17 f8 3e ad cd 93 3e 7a 69 1f 3f
       -0.15020642 0.48455328 0.28867856 0.6227032
000390 c2 0c 9c be 9c cb b2 3e 96 ff d9 3e 65 19 43 3f
       -0.30478483 0.34920967 0.4257781 0.76210624
0003a0 dd ca 1a 3f 13 7b ef bd cb d7 38 3f 87 35 ef 3c
       0.60465795 -0.116933964 0.72204274 0.029200329
0003b0 8e e5 3b 3c b8 47 8b 3e 39 5b 30 3c 9c b0 37 3f
       0.011468304 0.27203155 0.010763937 0.7175386
0003c0 9c 8f 5b be b0 87 e8 bd 89 dd 8b bd 1b ae b2 3e
       -0.21441501 -0.11354005 -0.06829364 0.34898457
0003d0 4b 87 2f 3f ad 9c 68 bd 09 fb b4 bb ee d4 4e be
       0.68565816 -0.056790043 -0.00552309 -0.20198414
0003e0 79 e5 bc bd 09 94 35 3f f3 82 1c bd 56 55 e1 3d
       -0.09223456 0.7092901 -0.03821082 0.11002605
0003f0 76 a6 4e bb 6a 86 bb 3d 94 36 68 bd 07 fa 8e be
       -0.0031532324 0.09156497 -0.056692675 -0.2792513

linear2.bias f4 [15]
000000 b3 90 33 bd f1 54 13 be f6 50 ee 3d 45 be 44 3b
       -0.043839168 -0.14387871 0.11636536 0.0030020636
000010 73 c2 ba 3e 59 49 17 bd da 18 71 3e 22 af ae 3e
       0.36476478 -0.036935184 0.23544636 0.3411799
000020 d9 7a 07 be 0c cd 29 3e 72 d9 c1 bb ed 8b 96 3d
       -0.13230456 0.16582125 -0.005915814 0.073509075
000030 15 bf 2b 3e f9 e5 37 be 18 ea 92 3e
       0.16772111 -0.17958821 0.28694224

linear3.weight f4 [5, 15]
000000 9b 90 59 bd d6 e1 4a be 8e 5d 19 3d 53 ee 58 be
       -0.053116422 -0.19812712 0.037442736 -0.21184663
000010 37 5d b0 3e 7b 50 f8 3d 2d 77 29 be 3e 6e d7 3e
       0.34446117 0.121247254 -0.16549368 0.42076296
000020 ae 83 51 3d 5d 4d 17 3f 53 fe 86 be 92 4c 98 3d
       0.05115097 0.5910242 -0.2636591 0.0743648
000030 2c 33 a6 bd 44 8f 7d 3e 21 1d 08 3f 3e 09 ef 3d
       -0.08115229 0.24761683 0.5316945 0.11671685
000040 e2 68 b5 3e 9c 28 68 3e 87 3f 69 3b c4 ce 1d 3f
       0.35431582 0.22671741 0.0035590844 0.61643624
000050 da 3e 91 3d b8 8c b7 3e 26 39 89 3e 85 68 01 be
       0.07092066 0.35849547 0.26801413 -0.12637527
000060 f7 1e 13 3e ed 49 12 bd 8e bf 92 3d 69 af 07 be
       0.14367281 -0.035715032 0.071654424 -0.13250507
000070 29 1c 8f 3b 92 00 92 3d 3f b8 06 bf 45 21 c0 be
       0.0043673706 0.07129015 -0.5262489 -0.37525383
000080 b3 8c 98 be 64 64 e0 3d c1 06 a9 3e 37 ba 04 3e
       -0.29794845 0.10956648 0.33012965 0.1296166
000090 4c 46 1c ba 88 78 11 3f 9d 29 5d be 79 a0 0d 3f
       -0.0005961403 0.5682454 -0.21597905 0.55322987
0000a0 b9 49 09 bf 11 db 78 be 71 1f 68 be 8b b6 44 be
       -0.53628117 -0.24302317 -0.22668244 -0.1921026
0000b0 5d 41 8b 3e 5c f7 80 bd cf b1 a7 bc 5c 8e 6a be
       0.27198306 -0.0629718 -0.020470528 -0.22905868
0000c0 93 95 b1 be bd 70 3a 3f ff d9 3b bd 91 c6 08 3e
       -0.3468443 0.72828275 -0.045862194 0.13356997
0000d0 65 df 40 3e d0 03 7b be 0c a9 a3 3e 72 5c d9 be
       0.18835218 -0.24513173 0.3196491 -0.42453343
0000e0 c3 3d a7 3b 45 81 8c 3b 59 c0 d9 3d 4c 8c c1 3e
       0.005103798 0.004287871 0.106323905 0.3780235
0000f0 fa 07 b1 bd 7e c8 07 bf 73 ed 16 bf ca 77 99 be
       -0.086440995 -0.530403 -0.5895607 -0.29974204
000100 1d c4 49 3e 5f b3 3e be 59 d6 a2 be 7f b4 2a 3f
       0.19703718 -0.18623112 -0.3180416 0.66681665
000110 e9 8e 65 be 7f ac 3d 3f d8 4a b9 be f7 40 21 bf
       -0.22417797 0.74091333 -0.36189914 -0.62989753
000120 1d f4 bf be 0e cb 83 3d 04 a1 63 3e
       -0.3749093 0.06435214 0.22229391

linear3.bias f4 [5]
000000 f9 ff db 3e 62 bc a9 3e 5f 26 61 3e 4f c1 c3 3e
       0.4296873 0.33151537 0.21987294 0.3823342
000010 e8 76 d2 3d
       0.10276586
