model/a1model-deep.pth (torch, 7767 bytes, 6 tensors)

linear1.weight f4 [25, 25]
000000 e0 73 28 3d 14 82 06 3e 73 8a 39 be 44 ed 60 be
       0.041126132 0.13135558 -0.1811922 -0.2196551
000010 fb 92 3f 3e ab 71 d1 bd a9 e6 3a 3e 9c c7 26 3d
       0.18708412 -0.102267586 0.18252052 0.040717706
000020 50 dd c6 bd 52 c4 fc bd fb 70 50 3e b8 bd 07 3e
       -0.09710181 -0.12342133 0.20355599 0.13255966
000030 68 4a 15 3e f6 24 38 be f0 b9 25 be 6d e9 b1 3d
       0.14579165 -0.1798285 -0.16184211 0.086871006
000040 b8 2b fb 3d 76 20 7c 3e 70 cb 11 be 1a 42 88 3d
       0.12264198 0.24621758 -0.14237761 0.06653233
000050 28 5e 47 3e e7 bd a2 3e 4d d5 03 bd a3 e6 8e bd
       0.19469512 0.3178551 -0.03218584 -0.06977584
000060 5c 8c a2 bd 6b 89 78 3d 3e df b9 3d 4e 20 61 bd
       -0.07936928 0.060677927 0.09075783 -0.05496245
000070 da 95 b6 3d 3b 84 b3 bd d0 9f 60 bd 8b e5 2e be
       0.08915301 -0.08765455 -0.05483991 -0.17079751
000080 b0 75 11 3e fc ed 31 3d 3e 6f db bd 9d 38 a1 bd
       0.1420505 0.04343985 -0.10714577 -0.07872126
000090 78 21 43 be 2c 58 99 bc f3 39 01 3e 9d bd 82 bb
       -0.19055736 -0.018718801 0.12619762 -0.003989889
0000a0 a1 c5 3f 3e e7 ef bd bd a5 67 8d bc 2d ae fc 3c
       0.18727733 -0.09274273 -0.017261336 0.030844772
0000b0 99 6f 41 be df b8 a8 3c 15 c0 d3 bd de 17 4b be
       -0.18890227 0.020595966 -0.10339371 -0.19833323
0000c0 6a 4e 84 be 79 ea cc 3a 6c a2 ab 3d a0 c4 e9 3c
       -0.25841075 0.0015633843 0.08380589 0.02853614
0000d0 35 3e f4 3d 8d fb c9 3e 3c b2 0f 3e 82 88 ab 3e
       0.119259275 0.3944973 0.14032835 0.33502585
0000e0 26 5c b2 39 b4 ae b4 3e ba 93 40 3e 2d 0f 30 bd
       0.00034019462 0.35289538 0.18806353 -0.042983223
0000f0 d3 05 9d 3e d9 39 b5 3d ef 72 30 3e 4b 36 93 3d
       0.30668506 0.08848924 0.17231344 0.0718809
000100 f8 d4 bc bd e0 af b8 3d db 8e a4 bd d8 52 9e bd
       -0.09220308 0.090179205 -0.0803506 -0.07730645
000110 fc 65 86 bd 17 21 e1 3d a6 8d e8 bd 3c 6b 56 3e
       -0.06562421 0.109926395 -0.11355142 0.20939344
000120 3a dc 15 be c2 85 7c 3d fb 2a f9 bb 1b a9 9b 3e
       -0.14634791 0.061651 -0.0076040006 0.30402455
000130 fb a2 10 3e 54 e7 b1 3e d0 20 83 3e 92 05 c1 bd
       0.14124672 0.34746802 0.2561097 -0.094248906
000140 d8 08 1d 3e 94 0e 42 bd 8f 4e 0a 3d 6d 74 a1 3e
       0.15335405 -0.047377184 0.033766326 0.31534138
000150 5a 9a 7d 3c 19 73 44 3b 48 36 0b 3e 89 43 ae 3e
       0.015478695 0.002997583 0.13594925 0.340359
000160 4c 51 3f bd 90 c8 b7 3b f9 1e 0a bc fe 52 b1 3d
       -0.04670839 0.0056086257 -0.008430236 0.08658408
000170 e9 3a 74 3e 45 56 a0 3d f7 a8 4a 3e 85 f7 89 bd
       0.23850597 0.078289546 0.19791017 -0.06736664
000180 c7 5f 03 3e 86 7d e3 bd 8e 4b 26 3c 5b fd 48 3e
       0.12829505 -0.11107926 0.01014985 0.19627897
000190 dc 6e ba 3e 61 05 75 3e 31 a6 ab 3e e0 0d 8f 3e
       0.36412704 0.23927833 0.3352523 0.27940273
0001a0 13 6b 5d bd 1a 58 75 3e 9c 33 1a bd 15 a0 a6 3e
       -0.054057192 0.2395939 -0.037646875 0.32544008
0001b0 a5 f9 63 3e 3d 3b 82 bd 74 2e 18 3e 03 85 f2 bd
       0.222632 -0.06358955 0.1486147 -0.11841776
0001c0 fa ce 4a 3e 7b b9 ad 3c 16 34 61 bd 91 9b 6b 3e
       0.19805518 0.021206608 -0.054981314 0.23008563
0001d0 7a 0d ad 3d e6 4e 31 bd dc 93 17 3e d4 21 6d 3e
       0.08449836 -0.043288134 0.14802498 0.23157436
0001e0 db c5 51 3e 3e 5d b7 3d 6c 69 62 3e cd 59 6e 3c
       0.20485632 0.089533314 0.22110528 0.014547777
0001f0 9a 57 e3 bd c5 5f af bc 68 23 c6 bd 0d fe ea bd
       -0.11100693 -0.021407971 -0.09674722 -0.114742376
000200 f5 eb 37 bd ca f6 06 3e 05 f2 ad bd d7 6d 1f 3d
       -0.04490276 0.1318008 -0.08493427 0.03892311
000210 4e 74 90 3c be a2 38 be e0 54 10 3e 13 4b 33 bd
       0.017633583 -0.18030831 0.14094877 -0.04377277
000220 75 28 91 bd dc 5f 8c be 7d c0 b8 bd 47 24 0d bc
       -0.07087795 -0.27416885 -0.09021089 -0.008614606
000230 63 fe 09 be e7 f3 95 3d 19 3a 01 bd 9c ce b0 3d
       -0.13475947 0.07321911 -0.031549547 0.086331576
000240 54 39 00 3d bc 37 21 3e e2 3b be bc f7 b7 59 bd
       0.031304672 0.15743917 -0.023221914 -0.05315396
000250 26 19 a2 3e 4d 32 75 3e 01 ce 22 be 61 93 d9 bd
       0.31659812 0.2394497 -0.15898897 -0.106238134
000260 af a5 61 be dc 4a 6f bd 03 8c b6 bb 4f 94 b0 3d
       -0.2203586 -0.058421 -0.00557089 0.086220376
000270 5a cb fe 3d 90 4f 2c be 79 07 c0 bc b8 c8 c5 3d
       0.1244113 -0.16827226 -0.023441063 0.09657425
000280 f9 9e 65 be a5 99 e7 3d cc e1 19 be a1 73 d9 3c
       -0.22423925 0.11308602 -0.15027541 0.026544394
000290 e1 cb 22 bc bf bc 40 3e 0e 60 42 3d dc af 8f 3d
       -0.009936304 0.18822001 0.047454886 0.070159644
0002a0 71 ed f5 bd 01 bc 56 3d 40 8e 41 bd 12 77 2a 3e
       -0.12008179 0.05242539 -0.0472548 0.16646984
0002b0 0f 0e 75 3d 23 5c 2d 3e 78 65 58 3e bd 50 ab be
       0.05982786 0.16929679 0.21132457 -0.33460036
0002c0 cc b4 9f be 3f 5c 95 bd 71 f9 6e be e7 30 0b 3e
       -0.31192625 -0.07292985 -0.23337342 0.13592874
0002d0 36 c1 10 be 22 d3 db bd e8 1b 2f be 8f 97 20 be
       -0.14136204 -0.1073363 -0.17100489 -0.15682815
0002e0 06 4e c6 bd 31 25 b2 bd 75 58 f0 bd 15 6d 61 bd
       -0.096828505 -0.086985 -0.11735622 -0.05503567
0002f0 16 19 f7 3d 4e 93 2e 3e 0e 8e 0a bc 87 18 5f 3e
       0.12065332 0.1704838 -0.00845672 0.217867
000300 81 5d d6 3d 2b 6d 36 3e 3a 11 47 bd dd af ee 3d
       0.10467053 0.17815082 -0.048600413 0.11654637
000310 93 47 af 3d e9 8e 19 3e 80 b1 47 3e a6 0a 69 bd
       0.085585736 0.14995922 0.19501305 -0.05689492
000320 69 d4 b2 bc c7 7a 1d be ec 57 77 be e2 22 1a be
       -0.0218298 -0.15378867 -0.24154633 -0.15052369
000330 b4 bd bf bc b6 af 89 be 10 41 0d 3d c4 f2 8a be
       -0.023405887 -0.2689187 0.034485877 -0.2713834
000340 65 a0 57 be b4 4f 90 3d 13 43 5f be 53 d8 a3 bd
       -0.2105728 0.07046452 -0.2180293 -0.08000245
000350 b7 18 02 be 31 2f d9 3d bd de ae 3c de c3 1b be
       -0.1270474 0.10604704 0.021346444 -0.15211436
000360 ce 65 17 3e cb 56 85 3d 21 08 57 3e 6b 38 48 3e
       0.14784929 0.06510695 0.20999195 0.19552772
000370 c5 84 aa 3d a0 ef 14 3e c2 89 17 3e 9e 91 06 3d
       0.08326105 0.14544535 0.14798644 0.032853715
000380 50 50 61 3e bb e9 9f be ae bd 65 be 9c 8e a4 be
       0.22003293 -0.3123301 -0.22435638 -0.32140052
000390 14 cf f2 bd 12 b7 88 3e 29 1c c4 bd e2 d1 4a 3b
       -0.11855903 0.26702172 -0.095756836 0.0030947854
0003a0 47 36 8e 3d 57 d7 fb 3a d2 0e b0 3d 61 7b 59 3e
       0.06943946 0.0019213957 0.08596577 0.21238472
0003b0 02 30 13 be ab e6 99 bd b5 a9 d8 3d d4 bb 50 3e
       -0.14373782 -0.075146995 0.10579244 0.2038415
0003c0 c9 a0 09 3d 86 c0 1c 3c 05 23 86 bd ec 39 30 3a
       0.033600602 0.009567386 -0.06549648 0.0006722498
0003d0 81 12 3e 3d d3 9d f7 bc 0d 6c 64 bd 4f 60 84 3e
       0.046404365 -0.030226624 -0.055767108 0.25854728
0003e0 98 38 b7 bd db 0f 8d 3e 56 5d 13 3e 59 a3 5c 3e
       -0.08946341 0.2755116 0.14391074 0.21546687
0003f0 12 8c 91 3e bb 32 ca 3e f1 79 06 3e 33 7d 81 3d
       0.28427178 0.3949183 0.13132454 0.06322708

linear1.bias f4 [25]
000000 d2 d1 8b 3d bb 38 84 bd 12 ad e9 3d 9b fe 17 bd
       0.068271294 -0.06456133 0.11409964 -0.037108045
000010 69 62 c9 bd ca 8c 1b 3e 86 f9 c0 3d b4 3a 85 3e
       -0.098332234 0.15190426 0.09422593 0.2602135
000020 1e 9a 95 3e 7c 4b 5e bc c2 51 a9 3c bb e6 1f 3e
       0.29219145 -0.013567802 0.020668868 0.1561536
000030 bd fa 7b bd 24 6a 51 3e 78 d6 81 3e 26 60 06 be
       -0.06151842 0.20450646 0.2535894 -0.13122615
000040 3c 33 15 3e a5 65 9a bd 61 cd 69 3d ba 85 b1 3d
       0.14570326 -0.075389184 0.05708063 0.086680844
000050 a0 6c e6 bd 3e b6 8c 3e fb 81 d3 3d bd ef b0 bc
       -0.11251187 0.2748279 0.10327526 -0.021598691
000060 85 c0 1e 3b
       0.0024223637

linear2.weight f4 [25, 25]
000000 f7 e0 5e 3e 44 da 4d bd 86 07 64 be 53 43 24 be
       0.21765505 -0.050256982 -0.22268495 -0.16041307
000010 39 24 86 be 09 63 6a 3e c7 5d 8f 3e 93 27 08 3e
       -0.2619951 0.22889341 0.28001234 0.13296346
000020 80 3a 95 3e a1 1c 63 3e 82 ac 17 3e 63 ff 29 be
       0.29146194 0.2217889 0.148119 -0.16601329
000030 5c af 19 be 02 84 18 3c 7c 44 b2 3e 90 fd 35 3e
       -0.150083 0.009308817 0.34817874 0.17772508
000040 3f df 87 3e 1f 4e 14 3d 20 23 c0 3d 65 be a1 3d
       0.2653751 0.036207315 0.093816996 0.07897643
000050 6c 4d 52 be b3 c6 bd 3e 87 0b 33 3e da 2a 6d 3e
       -0.20537347 0.37065658 0.17484866 0.23160878
000060 11 00 de 3d 77 bd 8f 3d 4d d8 10 be 54 bd c2 3d
       0.108398564 0.070185594 -0.14145012 0.09508768
000070 36 6d 7b 3d 59 bc 85 be 4a 0a 0a be c1 23 a3 bd
       0.06138345 -0.2612026 -0.13480487 -0.07965804
000080 13 78 47 be 8b 2d 39 3d e0 b7 24 bd 96 35 c2 3d
       -0.19479398 0.04520945 -0.04021442 0.09482877
000090 9c f7 d6 bd 97 64 40 be f0 6e 97 bd 87 7a ef 3d
       -0.104964465 -0.18788372 -0.073942065 0.11693292
0000a0 c3 28 38 3e 39 33 63 3d 90 39 b2 bc 4b ad dc bd
       0.179843 0.05546877 -0.021755964 -0.107752405
0000b0 94 51 9b 3d 1c 7d 8f 3d da ff 79 3d 3d 45 83 bd
       0.07583919 0.070062846 0.061035015 -0.064096905
0000c0 c8 fd 01 3e 6a 05 d8 bd a1 35 7a be 35 70 2a 3e
       0.12694466 -0.10547908 -0.2443452 0.16644366
0000d0 7b 33 88 3e 3e b1 7d 3e 9c 05 ec 3d b0 d6 3f be
       0.26601776 0.24774644 0.115245074 -0.1873424
0000e0 34 ef 83 be 67 1d 99 be 07 bb 28 bd a1 c7 6e be
       -0.25768435 -0.29905245 -0.04119399 -0.2331834
0000f0 ec 29 84 3e c1 2f 73 3e f6 ab c5 3d 55 61 35 3e
       0.25813234 0.23748685 0.096519396 0.1771291
000100 c6 c3 3d be 42 ee 6b bc b4 3c a0 3d 42 f6 fc 3d
       -0.18531713 -0.014400067 0.07824078 0.123516575
000110 9c ee ac 3d 1e f2 be 3d 0a 81 a5 3e 0a d9 54 be
       0.084439486 0.09323524 0.32325011 -0.20785919
000120 08 de 9d 3e 91 95 d1 3d ca ae 64 3e 4a d2 bc 3b
       0.3083346 0.10233606 0.22332302 0.005762373
000130 76 59 cb bd ee aa 8c 3d f7 49 0c 3e 42 09 b9 bd
       -0.09929173 0.0686854 0.1370009 -0.09034969
000140 67 38 20 be 95 11 26 3d 1c 34 27 3e a6 c5 e7 bd
       -0.15646516 0.04054411 0.16328472 -0.11316995
000150 d6 19 d0 bd 77 b5 21 3e 38 76 36 be 81 61 b6 bc
       -0.10161178 0.1579188 -0.17818534 -0.02226329
000160 d8 d4 2e be cc 68 37 3c 30 fd fe bd 0c 0a 2e 3e
       -0.17073381 0.011194419 -0.124506354 0.1699602
000170 ed 78 34 3e a9 3f c1 3d 76 bc f8 bc 12 07 56 3d
       0.17624255 0.0943597 -0.030363303 0.052252837
000180 1c 22 15 bd ae d8 1a be 3a f3 71 be d1 4e 00 3e
       -0.036409482 -0.15121719 -0.2362794 0.12530066
000190 31 f9 b6 bd ff 02 15 3e 69 11 99 3c d2 f7 26 bc
       -0.08934248 0.14551924 0.01868506 -0.010190921
0001a0 ca d4 1c 3e 65 f5 be be 93 ae 37 be 13 19 29 be
       0.15315548 -0.37296596 -0.17937689 -0.16513471
0001b0 e4 6e 08 bd de af 2a be 9e 1d 99 3e c7 ed ac 3e
       -0.03330888 -0.1666865 0.2990541 0.3377516
0001c0 ba 29 78 3c 58 39 9c 3e 69 2c 35 bb c3 f5 ea 3d
       0.015146667 0.305125 -0.0027644879 0.114726566
0001d0 18 77 92 be 6a d9 86 3e be 69 a2 3e 24 1e a9 3e
       -0.28606486 0.2633775 0.317213 0.33030808
0001e0 81 97 a5 3e 3e 22 92 bb d6 d2 36 3e 39 5c 3b 3e
       0.3234215 -0.0044596484 0.17853865 0.18296899
0001f0 b6 c5 64 3b 0c 1b 4f be 87 93 1a 3d 60 26 a7 3e
       0.0034907884 -0.20225161 0.03773835 0.32646465
000200 db 58 76 3e 37 ff b1 3e 8a 9b 85 be 21 2b db be
       0.24057333 0.34765026 -0.2609523 -0.42806342
000210 b2 b7 e7 bc d4 57 d4 be 93 5b 9d be 1e d3 98 3e
       -0.028285835 -0.41473258 -0.30733928 0.2984857
000220 ad 87 91 3e 6c e5 7f bd 37 e3 68 3e 87 76 3f be
       0.28423825 -0.062474653 0.22742926 -0.18697558
000230 6c e7 da bd 1a c4 79 be 80 a4 9e bd 26 77 be 3d
       -0.106886715 -0.24391213 -0.0774622 0.093000695
000240 12 4c 84 3e ae 33 ab 3e d4 a0 22 3d 98 9a 0b 3e
       0.25839287 0.33437866 0.03970416 0.13633192
000250 be bc a6 3e ee d8 39 3e 54 fa 2c be 2d 7a 05 3e
       0.32565874 0.18149158 -0.16892368 0.13034888
000260 12 39 68 bd 03 24 3d 3e 83 e8 ab 3d 36 fb 6f bd
       -0.05669505 0.18470769 0.083939575 -0.058589183
000270 97 29 92 be 86 17 91 be fa 0b b8 be 2c 15 86 be
       -0.28547356 -0.2833826 -0.35946637 -0.26188028
000280 bd 7d 12 bd d8 2f 8a 3d bc b1 5c 3e b0 59 62 3e
       -0.035764445 0.06747407 0.21552175 0.22104526
000290 54 e5 6d be 57 1f 8e be c7 59 11 be 4b 17 e8 3d
       -0.23232013 -0.27758285 -0.14194404 0.11332568
0002a0 07 7f 47 3e d1 8c 09 3e 0c 06 b2 3e 95 0c 2e be
       0.19482051 0.13432623 0.34770238 -0.16996987
0002b0 9a 79 1f 3d 3f 93 88 3e cb a2 93 3e eb 7a 5a 3e
       0.038934328 0.2667484 0.2883514 0.21335952
0002c0 27 ca 05 be f5 e7 44 3d 3f 36 37 be 00 d6 ae 3c
       -0.13065396 0.048072774 -0.17891787 0.021342278
0002d0 12 aa a9 3e 67 13 80 3d 78 9c 2c 3e ef 03 b0 3e
       0.33137566 0.06253701 0.16856563 0.34378
0002e0 4c 39 bc 3d 72 72 8e bd bf a5 94 bd af 2b 90 3d
       0.09190616 -0.069554225 -0.07258176 0.07039582
0002f0 1e 82 c1 bc 8c 29 79 3e d5 9f f0 bd a0 01 5f 3e
       -0.023621615 0.24332255 -0.117492355 0.21777964
000300 24 58 20 3e 5f b4 4d bc 4a 64 54 be c2 62 62 bd
       0.15658623 -0.012555211 -0.20741382 -0.055269964
000310 36 b6 b0 3e dd ac 19 3e e9 4d 23 3e 4e d6 4c 3c
       0.34514016 0.15007348 0.15947689 0.012502266
000320 4d 51 74 3e ec ff 15 bc 2d 22 03 3c 92 18 ef 3d
       0.23859139 -0.009155255 0.008003754 0.11674608
000330 59 6b bc 3d ce fb 85 3e 3d 39 b4 3d 3d e8 d1 3d
       0.092001624 0.26168674 0.0879998 0.10249374
000340 8b ee e5 bd e8 57 b3 3d a4 55 a6 3d 2d 00 57 bd
       -0.11227139 0.08757001 0.081218034 -0.052490402
000350 37 31 fe 3c 31 b0 ef bd 15 e9 1d 3e de b2 6f 3e
       0.031029327 -0.11703528 0.15420945 0.23408076
000360 54 b5 5c 3d d4 14 92 3e 2e 8b 2b 3e 35 dd 64 bc
       0.053883865 0.28531516 0.16752312 -0.0139687555
000370 27 79 4e bc 7c 71 61 be 7c 10 80 bd cb 79 84 3d
       -0.012602127 -0.22015947 -0.06253144 0.06468543
000380 22 ca 46 be c6 5b 66 be c9 ef 31 be 1f 81 72 3e
       -0.19413045 -0.22495946 -0.17376627 0.23682068
000390 b8 50 16 3e 2b 8b a6 3e b3 06 f4 bc 72 74 a1 be
       0.1467923 0.32528052 -0.02978835 -0.31534153
0003a0 c7 09 2e be 65 98 9d be 13 cc 59 be 21 24 95 3e
       -0.16995917 -0.3078033 -0.21269254 0.29129127
0003b0 ae 92 85 3e e2 29 85 3e c8 bb 70 3e 91 25 13 3d
       0.2608847 0.26008517 0.23509133 0.035924498
0003c0 74 8f 67 3b e8 c0 ad be 83 76 45 3e 7e 23 89 3e
       0.0035333307 -0.33936238 0.1928349 0.2678489
0003d0 8f 78 84 3e 0a b4 f4 3d 68 0e 32 be 3f 56 73 3e
       0.2587323 0.11948402 -0.17388308 0.23763369
0003e0 81 51 3f 3e 55 5b 4b 3e d0 f5 b1 bc 2e e6 14 be
       0.18683435 0.19859059 -0.021723658 -0.14540932
0003f0 75 f9 08 3e 99 1d 1d be 6f dd 30 3e e4 e2 6f bd
       0.1337641 -0.15343322 0.1727197 -0.05856599

linear2.bias f4 [25]
000000 b3 b0 b5 bc d1 2a c3 bd 32 f0 78 3d e3 86 56 be
       -0.022178983 -0.09529651 0.060775943 -0.20949893
000010 b0 65 f8 bd b4 10 98 3d b8 76 96 bd 38 c3 59 3e
       -0.1212877 0.07425061 -0.073468626 0.21265876
000020 79 35 15 3d 90 9e b0 3d b6 be 13 be 9d 4c 23 be
       0.03642795 0.086239934 -0.14428219 -0.15947194
000030 14 54 82 3e e7 f6 0f bb bf f7 8c 3c 06 01 00 bd
       0.25454772 -0.0021967234 0.017207978 -0.031250976
000040 e9 f8 8d bb 32 6a 26 3e dd ae eb bd 5e eb b5 bd
       -0.004332651 0.16251448 -0.11507962 -0.08882783
000050 0f 5b df 3d d2 4d 81 bc 66 31 0b be c8 f1 77 3d
       0.1090604 -0.015784178 -0.13593063 0.060533315
000060 54 a1 b4 3c
       0.022049583

linear3.weight f4 [5, 25]
000000 e5 22 2d bc db c5 0f 3d 4e 48 e2 3d 02 05 2b 3c
       -0.010567402 0.0351008 0.11048947 0.010438206
000010 66 c9 fd 3c 70 b0 42 be 29 39 f9 bd 1e 6d 3a 3d
       0.030979823 -0.19012618 -0.121691056 0.04551422
000020 95 59 46 3e e6 e8 d1 3c 46 00 58 ba 13 85 10 be
       0.1937011 0.02562375 -0.0008239787 -0.14113264
000030 59 91 14 3e 1e e0 88 bd 56 7d a9 3d 8c 93 b7 3c
       0.1450857 -0.06683372 0.08275859 0.022409223
000040 54 03 55 be 4b 96 ff 3d 2a 1f 91 3d 6f a9 75 3e
       -0.20802051 0.12479838 0.07086022 0.23990415
000050 db 68 1f be 82 53 87 be 25 00 c7 3d 2c 76 38 be
       -0.15567343 -0.264309 0.097168244 -0.18013829
000060 65 06 07 bc 93 bb 34 3e 1c d1 bc bb 00 6f 3f 3d
       -0.008241271 0.17649679 -0.0057622325 0.046736717
000070 55 a0 c7 bd 36 41 e0 bd cb d0 20 3e e1 b3 4f bd
       -0.09747378 -0.10949938 0.15704648 -0.050708655
000080 5a a6 bf 3d 36 73 6f be 1b 32 8b bd 14 23 17 3e
       0.09357901 -0.23383793 -0.06796666 0.14759475
000090 58 23 d0 3c 79 29 35 3e de f2 b1 bd d5 e1 27 bc
       0.025407478 0.17691602 -0.08688901 -0.010246714
0000a0 bd d3 46 be ce ba dc bd c5 2d 56 3e e5 28 31 3e
       -0.19416709 -0.10777818 0.20915897 0.17300756
0000b0 1f 71 4a 3e dd 06 35 3d fc 87 37 bd 11 48 27 3e
       0.19769715 0.044196 -0.04480742 0.16336085
0000c0 56 10 06 be 6d 5a fe bd 32 e8 a7 3e 98 b9 c8 3d
       -0.13092169 -0.12419591 0.32794338 0.09801024
0000d0 56 c6 70 be 57 32 04 be 19 4c f9 bd e7 04 1b be
       -0.23513159 -0.12909828 -0.121727176 -0.15138589
0000e0 b9 ae 21 be f3 bd 91 3e be bd 17 3e 9f 85 b9 bb
       -0.15789308 0.28465232 0.14818475 -0.005661681
0000f0 75 62 38 be c6 42 0a be 77 60 e2 bc c4 7a 50 bd
       -0.18006308 -0.13502035 -0.027633889 -0.05089833
000100 32 9d 9a bd 48 fc 8a 3e 90 30 a5 3d 76 05 18 3e
       -0.07549514 0.271456 0.08065903 0.14845833
000110 ef e2 c5 bd 59 8b 6f be a9 94 20 3d d9 d4 14 be
       -0.09662425 -0.23393 0.039204273 -0.1453432
000120 84 06 38 3e 7f 11 a1 3c d4 52 46 bd 72 67 65 3e
       0.17971236 0.019661663 -0.048418835 0.22402743
000130 e2 ce 01 3e 9b fb a2 bc f2 06 da 3d ee be b7 bd
       0.12676576 -0.019895365 0.10645856 -0.08971964
000140 d3 4b 42 bd d1 fa cc 3d 97 a4 94 3e 89 c0 25 be
       -0.047435593 0.10008777 0.29031822 -0.16186728
000150 40 09 8c be 49 fa d0 3d 98 ca 11 3d 84 ab 77 3d
       -0.27350807 0.10203988 0.0355936 0.060466304
000160 6d e8 91 be 05 6d 2f be 48 76 ec 3d f6 b8 9e be
       -0.2849764 -0.17131431 0.11545998 -0.3100049
000170 04 20 e6 bc ba 74 97 3d 10 bb d0 3d 28 55 52 3d
       -0.028091438 0.07395311 0.10191929 0.051350743
000180 89 02 95 bd 0b b4 fe bc 2d 4b 3f 3d e5 a7 36 bc
       -0.07275874 -0.03109171 0.046702553 -0.011148428
000190 8a a1 01 be 2c ea af 3d 07 b1 b9 3e c1 5c 5c bd
       -0.12659279 0.085895866 0.36267874 -0.053799395
0001a0 94 10 77 3e 22 22 a1 3e 8e 8f a2 3e 2f 68 62 be
       0.24127418 0.31471354 0.3175015 -0.22110055
0001b0 33 b4 aa bd a5 cd 9c 3e bd 7c e4 3d d2 6c f3 3d
       -0.083351515 0.30625644 0.111566044 0.1188599
0001c0 55 a4 8c be 13 2c e3 3e c9 83 12 be 71 3a 05 bd
       -0.27469125 0.44369563 -0.14308085 -0.032526437
0001d0 e3 47 33 3e b0 26 c7 3d 3d 32 0f be 2c b1 cc bd
       0.17507891 0.09724176 -0.13984008 -0.0999473
0001e0 0d 7e f6 3c 27 14 8e 3e b0 7e 72 be 72 55 df bd
       0.030089403 0.2774975 -0.2368114 -0.10904969
0001f0 72 04 b2 3e
       0.34769017

linear3.bias f4 [5]
000000 ab b6 86 bd cb 5c 30 3d db 39 47 be 6a e6 12 3e
       -0.0657781 0.043057244 -0.19455664 0.14345708
000010 6a 14 58 3e
       0.21101537
