model/a1model-deep.pth (torch, 6487 bytes, 6 tensors)

linear1.weight f4 [25, 25]
00000000: 6bd5 1bbf 1bb8 813e b568 23bf 4dea 58be
00000010: c0fd b33e 6269 a6be 0ced c23e 09c3 c2be
00000020: 7a75 353d 41df c23e 049e 183e e485 4fbe
00000030: 8173 cf3d be59 ea3d b172 dbbe 6d5d e33d
00000040: 96ee 873e eab5 213e 023b e33d 21db e6bd
00000050: 56ba ae3e f480 cb3e efeb 0b3e f01d 0a3e
00000060: 0ef0 ea3d c585 2f3e 21e6 25c0 04a0 043f
00000070: 00c2 863f c5aa a73e 8536 ec3d 1681 00bf
00000080: 01c0 323e 8dad ca3e f82e a03d 22ba 673d
00000090: ab84 bdbe 6643 7f3d 4bba 9e3d fb27 d5bd
000000a0: a7ab a23d 6755 343e 4620 adba 535a 6a3e
000000b0: d036 37be 5d2a c23d ca3f 05be 83e0 603e
000000c0: ec9b d83d b51c d43d baa2 723d 83e1 7bc0
000000d0: 1375 cbbc 71f5 b73d f1fa 093e 07db 2e3e
000000e0: 846d 49bf db16 0cbe cf45 813d 8c48 dd3d
000000f0: 3889 c23d 29e2 59be 2476 babd 2e01 e63d
00000100: 213f 78be a9c8 c13e d873 8a3e eca6 b43d
00000110: c92e 903e de11 3e3e f42a 943e 3d11 213f
00000120: a0ef 493e a142 f63e 5cac 313e ae74 3a3f
00000130: c8dc b5bf 9e3e 1a3f 62d5 923e 495d b33e
00000140: 16de 853e b79f d1be 7146 123e 299f 00bd
00000150: a836 433c b21e 593d 658f c0be 96bd 04be
00000160: 594c 26be ab47 38be 533d 933e 7f16 083e
00000170: 1ad8 6cbe 41da 753e 7ec8 94be 0a6c 40bd
00000180: f3de b9bc fb17 6b3e 02b7 03bb e6f3 08be
00000190: b43b 22bf aef7 7cbf 69ae 0d3f e261 8cbd
000001a0: 2d59 99be 2c7d 86be 3fa5 aabe 2d53 603e
000001b0: 0b45 d33e a2f9 663e efba 3cbe 62be bb3e
000001c0: e010 e33d c9ad 573e cdf0 973e afa9 8b3d
000001d0: 5e53 2bbe 3d3f 79be b530 393d 4ab3 373e
000001e0: 9877 97bd 0982 71be 0bc6 b6be 9424 dcbe
000001f0: 1ba8 4b3e 1daf eb3e 4990 553f 158a 93bf
00000200: b2a5 1dbf 5dcb a33d 3f49 923e 95f3 ae3e
00000210: b143 4cbf 8e32 58be b978 793e 64e6 10be
00000220: 103b 67bd fcf8 153e 2638 0bbd 7eac 793c
00000230: d714 853b 6f41 2b3e d6a1 32bd 4851 ccbc
00000240: 70d4 513e 6cb2 de3d 259d 8c3e e03e 7b3e
00000250: 383a 503c 94d7 3a3d 2f21 ccbe 9349 58bf
00000260: f9ae 8cbf 2c32 b3bd cbb7 8d3e 1996 35be
00000270: 39bf 903d fdbf 09bf 9d40 10be 2b9c cd3e
00000280: c19d 353e b71d d9bd 0123 943c 6c2f 96bd
00000290: 4ef6 9bbd 8ad9 bc3e 1c19 d03e 83f8 883d
000002a0: 7e9e 2e3e 4dad a53e 9ff5 8f3e 27b5 9d3e
000002b0: e330 4e3e 8d1f cb3e ae91 ad3e 61ed 44be
000002c0: 5785 aa3f 3f18 b93e 5983 5bbf 8739 99bf
000002d0: d737 3cbc 4235 123f 1f2a 313e 791f 2e3e
000002e0: 674a 82be fdb3 a23d 4cfb 08bc 57cf af3d
000002f0: 3cac 813e 9371 44be 357c 213e 9dce 36bc
00000300: c162 b13e d220 c33e 2f0f 583e b1a8 3c3e
00000310: 94f6 f53d 8fab 3e3e d0c1 943e 2c63 31be
00000320: dc66 3f3f 56f3 1cbf 1b15 823e 88db b5bd
00000330: 7775 213d 9d26 4b3e cafd 69be 1d52 073f
00000340: 3eef 653d 19ef 04be 51f9 0bbe 2486 873d
00000350: 5025 0b3e 9fb4 93bd ed14 ca3e a118 a4bc
00000360: 4385 c93d 9933 ffbd aa1a cf3d 7aca 213e
00000370: 8f50 0e3e 9c3e b93d 9f67 f63d 6b2d 26bc
00000380: 2d0d 313d 5d51 0bbe 3e65 293e 358d 97be
00000390: ba8d 49be c6f1 01bf ac8b f4bd 89c0 a13e
000003a0: b468 b3be bec0 88bd 98ab 82bd 3497 14bb
000003b0: 1b2c 1dbe 95cf 233e 162f dd3e 0e9a 00bf
000003c0: 75c6 bf3d b460 303e d455 c43e d9c7 4e3d
000003d0: d871 f0bd f61a b33e 028b 5f3e bf9a 963e
000003e0: 3858 563e 85b8 b9be 90ba 5d3f ccff 54bf
000003f0: 9a60 073e f4ab a53f 5e48 6f3e 7482 c53e
-0.60872525 0.25335774 -0.63831645 -0.21183129 0.35154533 -0.32502276 0.38071477 -0.38039425
0.044301488 0.38060954 0.14904028 -0.20265919 0.101294525 0.11442898 -0.4286094 0.11101804
0.26549214 0.15792051 0.11095239 -0.11272264 0.34126538 0.3974682 0.1366422 0.13487983
0.11471568 0.17140873 -2.592171 0.51806664 1.0527954 0.32747474 0.11533836 -0.5019697
0.17456056 0.39585534 0.078214586 0.056573994 -0.3701528 0.062320136 0.07750376 -0.10408016
0.07942896 0.17610703 -0.0013208471 0.22886018 -0.17892003 0.094807364 -0.13012615 0.21960644
0.10576615 0.10357038 0.05923722 -3.9356391 -0.024836099 0.08982361 0.13474633 0.1707574
-0.7868273 -0.13680594 0.06312143 0.10804853 0.09498829 -0.2127768 -0.09104565 0.11230694
-0.24242832 0.37848404 0.27041507 0.088209 0.28160694 0.18561503 0.2893902 0.6291693
0.19720316 0.4809771 0.17350906 0.7283429 -1.4208002 0.60251796 0.28678423 0.35032108
0.26146 -0.40942165 0.14284684 -0.031401787 0.0119148865 0.05300779 -0.376094 -0.12962946
-0.16240062 -0.17996089 0.28757724 0.13289832 -0.23129311 0.24009039 -0.29059213 -0.046978034
-0.022689318 0.22958367 -0.0020098095 -0.1337429 -0.6337235 -0.9881543 0.55344254 -0.06854607
-0.29950848 -0.26267374 -0.33329198 0.21906729 0.41263613 0.22556165 -0.18430685 0.36668688
0.11087203 0.21062388 0.29675904 0.06819474 -0.16731021 -0.2434053 0.045212466 0.17939487
-0.073958576 -0.2358476 -0.3569797 -0.42996657 0.19888346 0.46032038 0.83423287 -1.1526514
-0.61580956 0.07997773 0.28571507 0.34170213 -0.7979079 -0.21113035 0.24362458 -0.14150387
-0.05645281 0.14645761 -0.033989094 0.015238879 0.004061322 0.1672418 -0.04361137 -0.024941102
0.20491195 0.10873875 0.27463642 0.24535704 0.012709193 0.045615748 -0.39869067 -0.84487265
-1.0990897 -0.08749804 0.27679285 -0.17733039 0.07067723 -0.53808576 -0.14087148 0.4015821
0.1773596 -0.10601371 0.018083097 -0.07333264 -0.07615338 0.3688472 0.40644157 0.06688025
0.17052647 0.3235878 0.28117082 0.3080227 0.20135836 0.3967251 0.33900207 -0.19231178
1.3321942 0.3615131 -0.85747296 -1.1970681 -0.011487923 0.57112515 0.17301224 0.17004193
-0.2544739 0.07944486 -0.008360695 0.08584469 0.25326717 -0.1918395 0.15770037 -0.011157659
0.34645656 0.38110977 0.21099542 0.18423726 0.12009922 0.18620132 0.29054117 -0.17322987
0.74766326 -0.613088 0.25406727 -0.08879763 0.039418664 0.19838949 -0.22850719 0.5285967
0.056136362 -0.12981834 -0.13669325 0.06617382 0.13588452 -0.07212185 0.3946909 -0.020031275
0.09839871 -0.12461013 0.10112508 0.15799895 0.13897918 0.09045145 0.12031483 -0.010142664
0.043225456 -0.13605256 0.16542527 -0.2959992 -0.1968297 -0.5075954 -0.11940703 0.31592205
-0.3504082 -0.06677388 -0.06380385 -0.0022673132 -0.15348856 0.15997155 0.43199986 -0.5023507
0.093640245 0.1722439 0.38346732 0.05048356 -0.11740464 0.34981507 0.21830371 0.29414937
0.2093209 -0.3627359 0.86612797 -0.83202815 0.13220444 1.2943101 0.2336745 0.3857609

linear1.bias f4 [25]
00000000: 927f 2a3f 8b87 853d 28d4 6c3f b45f a23d
00000010: 2d12 273f 20f1 0c3f a180 303f eb1c 113f
00000020: 6da0 36bc a7d8 533f b18b 253c 676d 173d
00000030: f377 a33f e788 36be a3ad 533f a129 4fbe
00000040: 1943 48be 7ecb 843c d105 c13f d527 e13e
00000050: e1f0 12bc 12f4 40bd dc79 45bd f018 9dbe
00000060: 96c9 1c3f
0.66600907 0.065199934 0.92511225 0.0792841 0.6526211 0.5505543 0.6894627 0.5668475
-0.011146647 0.8275246 0.010104106 0.03696957 1.2770981 -0.17825662 0.82686824 -0.20230724
-0.19556846 0.016210314 1.50799 0.43975702 -0.008968563 -0.047107764 -0.048211917 -0.30683088
0.61245096

linear2.weight f4 [15, 25]
00000000: 6164 08bf 7ec9 2f3f 3658 833e 8884 2d3f
00000010: afeb 023f e653 23bf ce64 57bf 311f ac3e
00000020: 008b 843e 8246 babe bb1d ef3e 6ef7 8a3f
00000030: bf04 1cbe 956c f73e 82db 453c a7b2 83be
00000040: 09a6 13bf 8f38 5d3c 646c b63e 69d2 35be
00000050: f34d 813f 5ba4 513e a417 d2be e7af 84bd
00000060: 72b0 2d3d 3516 a4be c745 2a3f ffad ee3e
00000070: 0d68 3d3f 9700 c13e e4c7 d3be d8c9 a2be
00000080: 8798 1bbf 6e56 ca3e 09e8 0cbf 72a3 cb3e
00000090: 3f12 743e 3a69 533e b6a1 613e 9548 e3bd
000000a0: 434e c13d ec88 77be 61ce 0b3f ceaa 06be
000000b0: 6645 bcbe 8f16 463e c735 3f3e c8a7 fcbd
000000c0: e64a 2d3f 9468 05bf 574d fabe 1be5 673f
000000d0: 6452 dc3e 2521 053f 1811 af3e b1ac 1cbf
000000e0: 1d92 713d 2285 65bf c565 333e ee00 e1be
000000f0: 4fd0 763e 78f9 c4be b4fd 97be 67f6 be3e
00000100: 96ca e0be 7151 e63e 70c3 c7bc 75a2 e03e
00000110: 7286 d8bd 67cc 3fbd fa9a ae3e 38ab 9cbc
00000120: 70f4 afbe 3cf3 cd3e 362e 90be 4af3 bf3d
00000130: 9f6f e93e 8082 a93e b563 063d 94b3 1cbf
00000140: 7fd4 de3e 0b43 be3e 118c 44bf 5a73 6f3d
00000150: 30cb 5ebe 2a41 f83e b706 29bf 34c6 82bd
00000160: 6eb8 7ebe 4dd3 e2be 9064 273e 5a3a 263f
00000170: e664 193e 3f80 9ebe 81a8 1b3f f79c 02bf
00000180: 8404 b93e 936c bcbd ed1a 9e3e bf13 58bc
00000190: b5c6 5a3f 3ce4 34bc bbc8 8a3f b9dc 5b3e
000001a0: a8d7 563f a9ff 073f bbdb 953f a870 ba3d
000001b0: af4f 50be 8b47 843f ec52 b0be df62 2e3d
000001c0: 0430 e23f adb1 c4be a417 913f a377 b3be
000001d0: 1ef5 7fbf 754f c13e f61d a23f c124 ae3d
000001e0: 7fd8 1fbe 77a0 03bf 3c05 993e 94bc 90bc
000001f0: c37c 9b3e 91cc 9b3e 6fca be3e 365e f73e
00000200: 89f2 f83d 97fc 823e 91ff 70be 1297 0a3f
00000210: edd9 45bf 667b eabd dc05 82bd 7ad5 a93e
00000220: 6f92 60bf 90e7 43be 549f 94be bb95 95bd
00000230: 98de e53e aec3 0d3e ba1c 153e b1e8 a7be
00000240: 80c3 5d3e 380c a2be 1121 d7bd 1b9f b0be
00000250: 60fc 473e 92a7 8dbd 1a02 70be 4c40 d33e
00000260: c54a 2a3f bb78 013f 7c53 763e 2447 183e
00000270: 612b ac3e 4206 b4be 8585 643e 147b 43be
00000280: 6aaf da3e aa47 013e 1c91 063f 1d07 083d
00000290: 4c51 63bd 57ab bfbd fd7b acbe 553d 4b3e
000002a0: 4320 ea3e 7261 2abe fe40 c9be e5dd a53e
000002b0: c081 383e f975 193f 2bac 15bf 4308 023f
000002c0: a399 463f d37e 523f 6133 8f3e 6c90 133f
000002d0: a7df fa3d a08c 403f 9a4c c83e 098c 97be
000002e0: 080b 433f 0cee 203f 2d6f 8abe 7176 a73e
000002f0: 2a1a 0abf cacb 8a3d 19aa 5abf a287 bfbd
00000300: 7b67 f9be be48 4f3f 2964 8e3f 4358 d03d
00000310: a6c9 c33e 6a3f 24bf dbdc c7be 6db5 d63e
00000320: 75ea 7e3e d7fd 0b3e 17a5 1b3e 8976 06be
00000330: a37a 30be c8c3 d6be 0d3c 013f f602 f8be
00000340: 87f5 e7bd f37c febd ddf9 e33c 4913 2ebf
00000350: ce22 15bf 81a9 a3bc f8f0 66bd 7e14 6a3e
00000360: 8651 d53e b1a3 f23e ebfc d0be cce8 873e
00000370: 85ea ba3e 1a7e efbe 125c 08be b05f 8bbe
00000380: bde6 a53e 420f 123f 0b1a e93e da91 0f3f
00000390: 59c1 32be 601b 273f e92e 9a3e 2f59 373f
000003a0: d73e 3a3f e238 9cbe 64f9 593f aa6e d53e
000003b0: 577f 4e3c b443 753d 9cab cabd 0a07 213f
000003c0: 6336 f3be 5604 efbd d3fc 92be 2bc4 b33e
000003d0: 857e 6d3f 3240 803e 17bc a73c c752 0cbf
000003e0: 8a87 29bf 5020 7f3f b64e 32be a79d 133f
000003f0: eb0f 8e3e b6c6 7e3e 5ba6 debd 9f35 1cbf
-0.53278166 0.6866683 0.25653237 0.6778035 0.51140875 -0.63799894 -0.8413819 0.33617547
0.258873 -0.36381918 0.4670237 1.085676 -0.15236185 0.4832503 0.0120762605 -0.25722238
-0.57675225 0.013502254 0.3562957 -0.17756046 1.0101913 0.20472853 -0.4103366 -0.06478863
0.0424046 -0.32048193 0.6651272 0.46617123 0.73986894 0.37695763 -0.41363442 -0.3179462
-0.60779613 0.39519066 -0.5504156 0.39773136 0.23835085 0.2064561 0.22034344 -0.11097828
0.09438755 -0.24173325 0.54611784 -0.13151094 -0.36771697 0.19344543 0.18672858 -0.12336689
0.6769241 -0.521127 -0.4888713 0.9058396 0.4303161 0.520037 0.3419273 -0.61201006
0.058977235 -0.8965627 0.17519291 -0.43946022 0.24102901 -0.3847158 -0.29685748 0.37297365
-0.4390456 0.4498401 -0.024385184 0.43873945 -0.105725184 -0.046825793 0.34102613 -0.019124612
-0.3436618 0.40224636 -0.28160256 0.093725756 0.45592973 0.33107376 0.03280993 -0.61211514
0.43521497 0.37160525 -0.76776224 0.058459617 -0.21757197 0.48487216 -0.6602587 -0.063854605
-0.24875042 -0.44301835 0.16346955 0.6493279 0.14979896 -0.3095722 0.6080399 -0.5102076
0.36136258 -0.092003964 0.30879918 -0.013188302 0.8545945 -0.011040743 1.0842508 0.21470918
0.83922815 0.5312448 1.1707681 0.09103519 -0.20342897 1.0334333 -0.34438264 0.04257476
1.7670903 -0.38416806 1.133534 -0.35052213 -0.99983394 0.37755933 1.2665393 0.08503104
-0.1560993 -0.51416725 0.29886806 -0.017668046 0.30368623 0.3042951 0.3726382 0.48314065
0.12155635 0.25583336 -0.23534991 0.54136765 -0.77285653 -0.11449318 -0.06348774 0.33170682
-0.8772344 -0.19131303 -0.29027808 -0.073039494 0.44896388 0.13844177 0.1456174 -0.32794717
0.21656609 -0.31649947 -0.10504354 -0.34496388 0.19529867 -0.06916727 -0.23438302 0.41259992
0.6652034 0.50574845 0.24055284 0.14870888 0.33626845 -0.35161024 0.22316559 -0.1908992
0.42711955 0.12624994 0.5256517 0.03320991 -0.055497453 -0.09358852 -0.33688346 0.19847615
0.4572774 -0.16638735 -0.39307398 0.32395855 0.18018246 0.59945637 -0.5846583 0.50793856
0.7757818 0.8222477 0.27968886 0.57642245 0.122496895 0.75214577 0.39120942 -0.29599026
0.7618871 0.6286323 -0.27037945 0.3270755 -0.53946173 0.06777151 -0.854158 -0.09352042
-0.48711762 0.8097037 1.1124316 0.101730846 0.38239783 -0.6415926 -0.39035687 0.41935292
0.24894126 0.13671051 0.15199696 -0.13131155 -0.17234282 -0.41946244 0.50482255 -0.4843976
-0.113261275 -0.12426176 0.027829105 -0.67998177 -0.5825623 -0.019978287 -0.05638215 0.2285938
0.4166376 0.47390512 -0.4081796 0.26544797 0.3650705 -0.46775895 -0.13316372 -0.2722144
0.32402602 0.5705453 0.45527682 0.56081927 -0.17456569 0.65276146 0.30113915 0.7162046
0.72752136 -0.30512148 0.85146165 0.41685992 0.012603602 0.05987902 -0.09896013 0.62901366
-0.4750243 -0.11670749 -0.28708515 0.35110602 0.9277118 0.25048977 0.02047543 -0.5481381
-0.6622244 0.9965868 -0.17412838 0.57662433 0.2774652 0.2488049 -0.108715735 -0.6101932

linear2.bias f4 [15]
00000000: 8651 cbbc 0249 58be 742d 7cbd 79a8 99bc
00000010: e84f 453f b8d4 82bd dd1f 963e a37a 2b3f
00000020: 1ad7 b1be 68da 0d3f 0d4e b5be 57aa 00bd
00000030: 0498 d73d a2f6 50be 2dac fc3e
-0.024819147 -0.211216 -0.061566785 -0.018757092 0.7707505 -0.06388229 0.29321185 0.66984004
-0.34734422 0.55411386 -0.3541111 -0.03141245 0.105270416 -0.20406583 0.4935011

linear3.weight f4 [5, 15]
00000000: d3f4 67be 5c0b 19bf 5b40 5dbd ab9d febe
00000010: 45ba 9f3e bac9 363e 715a 30bf 61fd bd3e
00000020: 3e5b 413f 726d 3e3f 15fc d5be d682 873e
00000030: deef a0bd 46e9 8b3f b432 a13f ad7b 953e
00000040: 0953 103f a92c f53e d529 103e 0872 2f3f
00000050: 95fb a83e fd89 463f e0cf 013f 20d1 62be
00000060: 6e70 683e b435 15be 3f8a 38bd 8f5c 1abf
00000070: 8df9 b9bd c366 1c3e 93d1 9bbf 22ca 05bf
00000080: af92 ecbe 38a8 993f accd e73e c007 6c3e
00000090: 8916 363e 22aa 2d3f 1df3 63be 34b5 1a3f
000000a0: 2908 27bf 492a 9dbe b350 64be 84ca 24bf
000000b0: c20e 773e fcac 0b3d 3f98 edbb 49ed e7be
000000c0: 9ccd a9bf b4c3 813f 8e53 a0be 9809 b23e
000000d0: c1b6 d23c d79c 1fbf ce38 593e ec58 31bf
000000e0: ef2e 013e d9ac 023f e1af 083e d7cf bf3e
000000f0: 4b6d 5a3f 30ea dbbe f188 25bf d333 51bf
00000100: 9d1f 5f3e df72 19bf 2979 63be dbd9 723f
00000110: fe21 0dbf fbe2 713f a3d2 ac3d b7d8 89bf
00000120: 98ed 39bf 1dd9 7abd 29a9 50bd
-0.22651987 -0.5978296 -0.054016452 -0.49729666 0.311968 0.1785039 -0.68888 0.37107375
0.7552985 0.7438575 -0.41793886 0.26467007 -0.07858251 1.0930564 1.2593598 0.2919592
0.563767 0.47885635 0.14078458 0.6853337 0.33004442 0.77554303 0.5070782 -0.22150087
0.22699139 -0.14571267 -0.045053717 -0.60297483 -0.09080801 0.15273575 -1.2173332 -0.52261555
-0.4620566 1.2004461 0.45274103 0.23049831 0.17782034 0.6783773 -0.22260709 0.60432744
-0.65246826 -0.30696324 -0.2229641 -0.64371514 0.24126723 0.034100518 -0.007250815 -0.45298222
-1.3265872 1.0137849 -0.31313747 0.34772944 0.02572191 -0.62348694 0.21213076 -0.6927631
0.1261556 0.51044995 0.13348342 0.37463257 0.8532302 -0.42952108 -0.6466208 -0.817197
0.21789403 -0.59940904 -0.22214188 0.9486367 -0.5512999 0.9448697 0.08438613 -1.0769261
-0.72628164 -0.06124221 -0.050942574

linear3.bias f4 [5]
00000000: e2d7 f73e 7201 b43e a0f5 ff3e e015 263f
00000010: 94f6 c83e
0.48406893 0.35157353 0.49992085 0.6487713 0.39250624
