model/a1model.pth (torch, 33183 bytes, 4 tensors)

linear1.weight f4 [256, 25]
00000000: f318 313c 7aaa c63d 9076 dabd d58b 143e
00000010: 908a 4f3e 38fd 0ebe 4b21 36bd 379f aabc
00000020: 2111 10be 3ba2 cfbd 9856 19bd e310 803d
00000030: 2b97 0abe 88a6 38be e3a5 a93b 2b05 3a3e
00000040: 4b9e 593d 286b 9d3d 2d10 c43d 805d 02be
00000050: 54f5 34bd 4a80 343d a7bb 1bbe 1fef 813d
00000060: 4aa7 343e 9833 5abd 8a13 4e3c 2af0 1ebb
00000070: 99e3 073e cfb3 32be 50f6 7bbc 88e5 03be
00000080: 8ef7 a93d 5a6f 47be a7e2 f9bd e0c1 2fbc
00000090: 770b 7f3d 1a8a 913d 1e64 84bd ae76 0dbe
000000a0: de0a b23d 9459 d1bd 22d2 383e 2211 d0bd
000000b0: c05e ff3b c05d 9dbd 4a4f 453e 59fd 36be
000000c0: 0c53 c2bd db8f 25be 0c4f 293e 95b0 1f3e
000000d0: 287b 0fbe 984c 31bd 632e 93bc 3414 db3d
000000e0: c142 92bb d4bc b1bd efb6 ce3d 377d 1bbd
000000f0: 3f19 8a3d 29c1 a0bd f673 edbd 0f90 963d
00000100: 9d6c 353c e607 2fbd 97a8 dc3c 2e30 863d
00000110: 4445 8c3c 850c ab3d 3684 8e3c 05d5 3b3d
00000120: bcf7 0fbe eb69 40be 6d54 f7bd e5d2 7bbd
00000130: 8b50 1dbd 0060 603c 3375 c4bc 8feb 3dbe
00000140: bad8 883d acbc 42be 0347 3cbe a150 343d
00000150: 6cd6 3e3e 2bb3 3fbe 7eea d73c af96 4dbb
00000160: 4dc0 efbc 7fd4 84bd 8d7a 8d3d a889 3a3d
00000170: 199c 223e 4994 dcbd 90f7 8d3b 0ac7 f43d
00000180: 9866 35be 944d 88bc 0f94 85bd 8a2d 8d3d
00000190: 232c 273e 2368 4a3c 227d 33be 0093 573c
000001a0: a224 e93d 8b89 983d ba7b 77bd 635c 26be
000001b0: 2059 67bd 4e5a fd3d b0a1 1bbe 3177 a6bc
000001c0: 7252 4cbe 5fe4 153e 27c5 c2bd c18d 193e
000001d0: cac0 5fbd 28d3 adbc 6e8a 6ebd 40ef 7d3b
000001e0: 2389 da3d d6ce 62bd 310c ffbc 2b19 f5bd
000001f0: 0f5d 9fbd 248c 393e 01c1 dc3d 22b2 e7bd
00000200: 2274 c1bd 9f54 22be e46c bcbd 5253 863d
00000210: 6650 06be 5909 3d3e b98e 58bd 2c1d c03d
00000220: f762 d63d 1010 dd3c 7a0a 293e 5236 11be
00000230: 231b 27bd 14a3 c7bd ed7d d3bd ea64 243e
00000240: 00f0 653d 9c5f 4b3c 9630 0fbb 3572 9d3d
00000250: 9c09 3d3e 1369 afbd 8c22 25be da27 06be
00000260: 6987 9bbd e28d febd 7023 36bd 06ce 813c
00000270: 20bb 243e 5650 413c 3ec4 7c3a 8674 20bb
00000280: 6608 72bd ee3c 403d 30bc 363d 3de2 073e
00000290: 8907 cc3d cbe8 263e 6936 d9bd 4470 e4bb
000002a0: 58a0 88bd 3428 dbbd cb3d cd3d c1c4 823d
000002b0: 7487 3cbc 0157 253d b1b8 2f3e db17 2c3d
000002c0: 57e1 9b3d 4c7c cb3d d8bd b03d 1f52 323e
000002d0: 8840 fd3d 1776 093d ba8f 9dbc 58ea 3ebd
000002e0: 4bac eabd aaff 023d 86c8 65bd cc2e 5fbd
000002f0: 1c1d 79bd e08e 4b3e 2a8f 2e3e 9882 3b3e
00000300: fb51 35be 3d22 f2bc 5a6c 4c3d 9c47 033e
00000310: 8703 c8bc c585 1dbe a64d 2e3e 377f ba3c
00000320: 5e58 453e fa7b 2a3e 9242 2d3e 53d0 09be
00000330: 7fd5 133e 8539 ce3d edaf 013e 1804 b3bd
00000340: f391 57bd 0599 3fbe b70f 6bbd 4ba4 243e
00000350: 1c54 d0bc 823d 0a3e 7e92 43be 0f44 c33d
00000360: 20f6 21bc 105a ad3d f263 113e b943 53be
00000370: 76e8 373d 6782 9e3d 03b5 30be 2931 25be
00000380: 3239 10be 4024 c53c b9d5 393e ec8a 6cbd
00000390: 828b 48be 0082 0ebd e2ef fe3d 5412 49be
000003a0: 7035 0fbe fd31 eebd 60b4 f5bb c07f d23c
000003b0: 6dd7 033c 97d1 1b3e 4849 7fbd 9802 183d
000003c0: 4451 693d 7373 83bd b3d9 28be c7fe 40be
000003d0: c8d8 0ebe 58c9 d8bc 34a0 783b d669 59bd
000003e0: 82f6 43bd 7c43 743d 4fa8 0d3d 0d34 363e
000003f0: 7bd0 05be d7be 333e d0a0 333e 7d56 d4bd
0.010809171 0.097004846 -0.10667145 0.14506467 0.20267701 -0.13963783 -0.044465344 -0.020827873
-0.14069034 -0.10138365 -0.037436098 0.06253221 -0.13534229 -0.18032277 0.005177246 0.18166034
0.053129476 0.07686454 0.09573398 -0.1273098 -0.044179276 0.04406766 -0.15208302 0.06344437
0.1764194 -0.05327186 0.012577901 -0.0024252036 0.13270415 -0.17451404 -0.01537855 -0.12880528
0.082991704 -0.19476071 -0.12201434 -0.010727376 0.062266793 0.07106419 -0.06464408 -0.13814804
0.08693479 -0.10222164 0.1804891 -0.10159518 0.0077932775 -0.07683897 0.19268528 -0.17870082
-0.09488496 -0.16168158 0.1653406 0.15594704 -0.14011824 -0.043285936 -0.017966455 0.10697213
-0.004463524 -0.08678594 0.100934856 -0.03796121 0.067430966 -0.078493424 -0.115943834 0.07351696
0.011073259 -0.042732142 0.026935859 0.06552158 0.017122872 0.08351997 0.017397027 0.045857448
-0.14059347 -0.18790404 -0.1207665 -0.06148042 -0.03840689 0.013694763 -0.023981666 -0.1854689
0.06681962 -0.19017285 -0.18386464 0.044022206 0.18636483 -0.18720691 0.026356932 -0.0031370332
-0.0292665 -0.06485843 0.0690814 0.045541435 0.15879859 -0.10770471 0.0043324903 0.11952026
-0.17714918 -0.016638555 -0.065223806 0.068934515 0.1632543 0.01235393 -0.17528203 0.013157606
0.1138394 0.07448109 -0.06042073 -0.1624618 -0.05648148 0.1237074 -0.15198398 -0.020320507
-0.19953325 0.14637898 -0.0951026 0.14995481 -0.054627217 -0.021218851 -0.058237486 0.003874734
0.10670688 -0.055373035 -0.031133743 -0.11967691 -0.077814214 0.18119866 0.10779 -0.11313273
-0.09445979 -0.15852593 -0.09200457 0.06558861 -0.13116607 0.18460597 -0.052870486 0.09380564
0.10468095 0.026985198 0.16507903 -0.14180878 -0.040797364 -0.097479016 -0.10326753 0.1605412
0.056137085 0.012412932 -0.0021849028 0.07687799 0.18460697 -0.08564963 -0.1612646 -0.1310114
-0.07594187 -0.12429406 -0.04446739 0.01584531 0.16087008 0.011798939 0.00096422795 -0.0024483516
-0.05909004 0.046933107 0.044613063 0.13269897 0.09962375 0.16299741 -0.10606081 -0.006971391
-0.06671208 -0.107010275 0.10021552 0.06385184 -0.011506904 0.040366177 0.17160298 0.042014938
0.076113395 0.09935817 0.0862996 0.17414139 0.12365824 0.033559885 -0.019233573 -0.046610206
-0.114586435 0.0319821 -0.056099437 -0.05448799 -0.060818776 0.19878721 0.170468 0.18311536
-0.17707054 -0.029557342 0.04990802 0.12820286 -0.024415744 -0.1538306 0.17021808 0.022765739
0.1927199 0.16648856 0.16919926 -0.13458376 0.14436911 0.10069565 0.12664767 -0.08741015
-0.052629422 -0.18710716 -0.057388034 0.16078298 -0.025430731 0.13500026 -0.19098851 0.095344655
-0.009885341 0.08464444 0.14198282 -0.20631303 0.044899426 0.07739716 -0.1725655 -0.16132034
-0.14084318 0.024065137 0.18147935 -0.057749674 -0.19584468 -0.034791946 0.12448098 -0.19635898
-0.13985229 -0.11630628 -0.007498309 0.025695682 0.008046967 0.15216671 -0.062325746 0.03711185
0.056962267 -0.064185046 -0.16489296 -0.1884719 -0.13949883 -0.026463196 0.0037937285 -0.05307945
-0.04784251 0.05963467 0.03458434 0.17793293 -0.1306781 0.17553268 0.17541814 -0.10368059

linear1.bias f4 [256]
00000000: 7f67 0abe b74c d0bc f760 0b3e 80fe 0cbd
00000010: 295b e2bd 636d bc3d fd94 d23c 4368 063e
00000020: e7df 023e 8471 e3bb 674b 16be 6a4c edbd
00000030: 9079 21be 8aef ce3d 4fc7 2abd ca06 15be
00000040: 78ec 9bbd 45a1 6d3d ebdd 1ebe 5730 bb3d
00000050: 1465 41be 69ac 99bd a663 6c3b 635e 13bd
00000060: f893 e9bd 5c49 833d 94d7 e23d 1e85 44be
00000070: 962f fd3d f4a7 993d 39bf f53d 0662 143d
00000080: f9d3 c9bd 9a28 1e3e 9766 943c 02e1 3fbe
00000090: 7c52 27be b7a5 b63d 0e8e 1ebe 28ba 09be
000000a0: 8688 413e 75a8 363e 9a3c 053e 85c4 86bd
000000b0: 0744 283e 482c 14bd 95f8 41be 1789 3a3e
000000c0: cb21 22be 98dd 343e f344 203e 5acd 1f3e
000000d0: d9cc 213e 0529 dfbc 4816 133e 497b 16bc
000000e0: f5a6 adbd 31e1 d9bc ac8b 34be 03be 37be
000000f0: 02e1 febd 5abf e83d 47fa a43d 2e52 303d
00000100: 153e 273e 043b f6bd ce1d ddbd 7985 acbd
00000110: d808 d93c 80c0 4e3d f3c8 20be 49c7 103e
00000120: 55a2 023e 7a61 fd3d 5dfd 883c d153 3b3e
00000130: 1857 293e 0c45 56bc 0e94 023e 74ef 073d
00000140: cfed 01be a3e6 e7bd 4437 2b3e 23db 4a3e
00000150: fb1d bdbd 2758 373e 8457 fe3d 419f d53d
00000160: d42e 3dbe bdc9 1cbd f917 013e 57f4 0dbe
00000170: 4fbe 07bd f93c 5abd cfb8 0abe c4c7 c4bc
00000180: 1ee6 693d 6272 95bc b461 bc3d e390 213d
00000190: b9fe 583d 5ec0 8f3c 40b7 3a3e 2d29 333d
000001a0: 63ec 3ebd eb32 00be 286a dcbd 2994 443e
000001b0: 66f0 a1bd d318 75bd 799d 51bd fe5e 2c3e
000001c0: c4e3 883d 231e 893d a218 183e 7800 edbd
000001d0: adc3 41be e9ed 1bbe 831e 83bb 9b5b 2f3e
000001e0: 898e 2e3e b017 3fbe 777e ddbc 5cf4 04be
000001f0: 3722 d73d d7e0 103e e082 d73d d597 39be
00000200: 081e 1e3e 2977 8c3d 076a 383e ab57 ffbd
00000210: bbe5 293e 2c72 073e acff d93c be69 25be
00000220: e497 0a3e f84a b83d c786 993c a857 24be
00000230: 124f 1a3e b6ca 55bd 5306 e0bd 8224 973d
00000240: 4100 89bd 95b0 263c cffe 1f3c 3f60 b43d
00000250: 5ceb c7bd 4f70 4a3d 6c35 f93d 23f8 ccbd
00000260: f840 67bd 3f65 c1bd 6a76 8a3c d996 d73c
00000270: cee6 003e 56e2 9dbc 6116 283e 70de a8bd
00000280: b15c 55be d41b 58bd 985b 13bd 5537 0d3e
00000290: a4ba dc3c 37f5 0ebe 4c9e ccbd e41b cebd
000002a0: 16e8 4abe 26c9 cbbd f9c7 ce3d 8d2c b53d
000002b0: 1bba 3c3e 4126 3b3e ba4e 38be 3539 00be
000002c0: 6c31 253e d986 413e c05e 23be f604 1bbe
000002d0: 45a1 0f3c 92d0 ed3d 4266 a33c a1f2 423d
000002e0: 83ca 413e 586f c23d 6b6b cfbd 00a2 3fbe
000002f0: ce91 df3d 1fcf aebd de0f a33d e452 4c3e
00000300: 5808 113b d3cc 103e d41e 063e a6f4 313e
00000310: 21fd 3cbe c231 403e 412f a3bd 0c11 19be
00000320: 702d 90bd 721d 28bc 958e bc3d 0b65 48be
00000330: 7bdb d9bd 9846 0c3e cabb 44be 9355 ba3c
00000340: e0e8 12be 1fc0 a23c 4d70 2bbe c28f e33d
00000350: 7fdd 173e f733 a9bc 4f4f 963d 85ca 313c
00000360: 9512 d73d e5d4 2abe b1e2 2cbe a597 823d
00000370: cb71 1b3d eb59 45be 0696 e9bd dab5 013d
00000380: b4f3 0ebe 7d79 23be b9ff cb3c 0968 b93b
00000390: a6c6 8fbd 00f0 713d 1b92 2c3e ee1f 0f3e
000003a0: bd23 233e fd57 3abe 9aaa 17be c789 273e
000003b0: d746 cc3d 4eba 923d a09e bf3c 2e0d 18bd
000003c0: 8b14 fb3b 2130 00bd 3474 48be b8a2 223e
000003d0: 3925 06be 8ea8 af3d 4591 83bd d666 03be
000003e0: e8a9 cabd 2163 3abe 8d71 753c b7a5 973c
000003f0: e246 d53d fb3b 853d 4d7d 493e 010d 8e3c
-0.13516043 -0.025427205 0.13611208 -0.034422398 -0.11052544 0.09200551 0.025705809 0.1312571
0.12780724 -0.0069410224 -0.14677201 -0.115868405 -0.15769029 0.10104282 -0.04169398 -0.14553371
-0.07613462 0.058015127 -0.15514342 0.091400795 -0.18886214 -0.07503588 0.0036070137 -0.035978686
-0.11405176 0.064104766 0.110762745 -0.19191405 0.12362592 0.07502738 0.119993635 0.036226295
-0.09854884 0.15445176 0.018115325 -0.18738177 -0.16340059 0.08918326 -0.15483877 -0.13449919
0.18899736 0.17837699 0.13011399 -0.06580452 0.164322 -0.036175042 -0.18942483 0.18216358
-0.15833203 0.17662656 0.15651302 0.15605679 0.158008 -0.02724124 0.14363968 -0.009184667
-0.0847911 -0.026596637 -0.17631406 -0.17943577 -0.124452606 0.113646224 0.08055549 0.043047123
0.16332276 -0.12022975 -0.107967004 -0.084238954 0.026493475 0.05047655 -0.15701656 0.14138521
0.12757237 0.12372108 0.016722376 0.18293692 0.1653713 -0.0130779855 0.12751791 0.033187345
-0.12688373 -0.11323287 0.16720301 0.19810157 -0.09234234 0.17904721 0.12419036 0.10430766
-0.18474895 -0.03827833 0.12606801 -0.1386274 -0.033140477 -0.053280804 -0.13547061 -0.024021037
0.057104222 -0.018243019 0.09198323 0.039444815 0.052977297 0.017547783 0.18233967 0.04374044
-0.046612155 -0.12519424 -0.10762435 0.19197144 -0.079071805 -0.059838127 -0.05117557 0.16833112
0.06684068 0.06695201 0.14853147 -0.11572355 -0.189223 -0.15227474 -0.00400144 0.17124788
0.1704656 -0.1866138 -0.027037842 -0.1298384 0.10504573 0.1414827 0.10523009 -0.18124326
0.15441144 0.068586655 0.18009196 -0.12467893 0.16591541 0.13227147 0.026611172 -0.16153619
0.13534504 0.08998674 0.018741025 -0.16049063 0.15069225 -0.052195273 -0.10938706 0.0738001
-0.066895016 0.010173936 0.009765341 0.0880742 -0.09761688 0.049423512 0.121683925 -0.10008266
-0.056458443 -0.09443139 0.016902167 0.026317047 0.12588045 -0.019272964 0.16414787 -0.082455516
-0.2083614 -0.052760914 -0.035976022 0.13790639 0.026944466 -0.1396073 -0.0999113 -0.100639135
-0.19815096 -0.099504754 0.100967355 0.08846388 0.18430369 0.18276311 -0.17998782 -0.12521823
0.16132134 0.18899097 -0.15954113 -0.15138611 0.008766477 0.11612047 0.019946221 0.04759467
0.18924908 0.094938934 -0.1012791 -0.18714142 0.10916482 -0.08535599 0.07962011 0.19953495
0.0022130217 0.14140634 0.13097697 0.17378482 -0.18455936 0.18768981 -0.07967997 -0.14947909
-0.070399165 -0.010260927 0.09206883 -0.19569795 -0.10637566 0.13698804 -0.19212261 0.022745883
-0.14346647 0.019867001 -0.16742058 0.11111404 0.14830588 -0.020654662 0.07339346 0.010851507
0.10501591 -0.16682775 -0.16883351 0.0637658 0.03795032 -0.19272582 -0.11405568 0.031667568
-0.13960153 -0.15964313 0.024902212 0.005658154 -0.07020311 0.059066772 0.1685261 0.13977024
0.15931602 -0.18197627 -0.14811173 0.16361152 0.09974449 0.07164441 0.023391068 -0.037121944
0.007662361 -0.0312959 -0.19575578 0.15882385 -0.13100137 0.08577071 -0.06424192 -0.12832198
-0.09895688 -0.18201877 0.014980686 0.018511636 0.104139104 0.06505581 0.19676705 0.017340185

linear2.weight f4 [5, 256]
00000000: 47d4 a5bc c007 0ebb faac da3c 9890 c13c
00000010: 0668 5cbb e859 f83c 5beb 4bbd ed2c 163d
00000020: 5a7f 6abd 40f2 95bb 81d0 773d b032 2fbc
00000030: 9e4e 13bd 5e94 51bc eb3b 593d e768 dc3c
00000040: ce48 07bd 3b09 14bc 51ad 05bc 450c 2a3d
00000050: ff7d 973c 9d6d 1d3d 4682 e33c d82d a7ba
00000060: 10b9 36bc 7831 843c bf2f 503c c06f 7ebd
00000070: 7468 c1bc 7e7b 59bd 1689 243c 35ce 543d
00000080: 47ae 6ebd 160b 45bd 3481 f6ba 7285 07bd
00000090: 943f 5a3a 4e12 913c 84df 6dbd 587c 083d
000000a0: a61c 96bc d1ce 983c 121a d43b b49b 593d
000000b0: bf68 8bbd 1963 1b3d d7a5 143d b935 febc
000000c0: 944a 16bd 81dc d6bc d6f1 443d f68b 51bd
000000d0: f43f 173d a97d 0e3c 0796 cb3c ced2 fa3c
000000e0: c469 0cbd 577c 4dbb 814f 0bbd b85a 09bb
000000f0: 57df 40bd 4a43 46bc df58 03bc 1722 b0bc
00000100: 1e24 8fbd 1771 4f3c 9cd7 953c c172 583d
00000110: f138 ff3c 0356 29bd 18e8 1b3c 8ccd 36bd
00000120: 184e b5bc 3efc 57bd 1ad7 50bc 54f4 2f3d
00000130: cf30 85bd c8ed c93a a96a 243d 46b5 6ebb
00000140: dc9c 223d e652 29bd 5867 40bc 9a4d 793d
00000150: d490 34bc 3448 233d 25d2 993b 406d 4d3d
00000160: df89 27bd ad52 ff3c 2599 073d 4bb2 0ebc
00000170: 069c a3bb b338 093d 60b2 77bd c231 3d3d
00000180: 60c0 27bd c4d4 9c3c 0efc 373d 550c 8b3d
00000190: d382 82bd a3b4 e83b 789f 88bd 2abb 4a3d
000001a0: 5df3 60bd d141 3fba 3628 25bc 6455 423b
000001b0: ee40 de3c b8bc 70bd 7faf 11bd 066d d93c
000001c0: c238 4f3d 163f 28bd 425f a23c f550 89bd
000001d0: 8c44 55bd 93dd b73c 0bf7 0cbd 13f8 10bd
000001e0: 9632 30bd 6007 083d 29bc 24bd d9ce cd3a
000001f0: efef f4bb b765 983c 3767 4fbd a02b 8abb
00000200: 0d66 84bd a4b9 afbc d759 6ebd dea3 68bd
00000210: f0c7 f53a 8362 c3bc b1f9 92bd 1282 8abc
00000220: 932f 233d 17e1 d4bb 3b89 8f3b 9041 b4bb
00000230: 8704 a03c 9df3 c0bb a0f6 953c 8b04 4839
00000240: 9c25 69bd bfda 05bd 7e60 0abc b250 253c
00000250: 4a31 113d 3f95 943c 146e 403d 20b7 b63c
00000260: 487e 413c c389 63ba 6436 103d a150 1c3d
00000270: 3130 d2bb 515b d4bc d88a c5bc aedd 81bc
00000280: 3f0b 133d b189 613c 5787 29bd d528 1bbd
00000290: 5460 f33c 7790 483d 1e45 53bd 8d71 18bd
000002a0: 73ec 293d 9bb5 153d f35c 46bd 5edd eebc
000002b0: d48c 38bd 2ac3 5abd b436 1cb8 317e 603d
000002c0: d2f7 f1b9 3205 c8bc 6bdc 723c d932 50bd
000002d0: d194 bc3c b94e 283d 817c 1bbc 65ec 3e3d
000002e0: 88f1 a9bc 56fb c33c 9e9c 2fbd 77df 643d
000002f0: c1fa cdbc 7c31 0b3a acc3 6cbc 0745 3cbd
00000300: bc86 a3bc 6741 dcbc cb6e 5a3c ccbc 5c3d
00000310: fdb4 ce3c 8b1a 5cbd cb67 74bd 3923 4dbd
00000320: f061 1abd 9496 433d 2ef6 6fbd a9d1 2e3d
00000330: ecbc 9d3c 5da1 bdba 80ee f03b 562c 153d
00000340: 3adc 6f3d 4a76 23bd 7c16 4cbd 658d debc
00000350: ac98 43bd 9ff2 80bd 9236 803d bca9 bdbc
00000360: 9c79 6bbd db2e 843c c22f 273c 4152 1e3d
00000370: 3162 213d 5f13 91bc da3f a0bb ce9c 143d
00000380: 2ffa d3bb 1b89 6ebd b0d2 b9bb cd07 4dbd
00000390: 222f 403b cc01 2c3d 905c 74bd 2d5e 79bd
000003a0: ff61 073d 7562 87bd f00c 223d f435 253d
000003b0: c35a 97bc 932a f3bb 6f31 693c 8e95 42bd
000003c0: c061 2e3d c254 17bc a1ab 23bd 7a07 8f3c
000003d0: a1b9 143d 16cc e3ba a63e 45bd 101a e63b
000003e0: d83a 6ebb 0b24 b53c ed9b fe3c 7e7b 5b3d
000003f0: 9461 de3c 7d2b 983c b0ac 34bd 3c07 eb3c
-0.020242823 -0.00216721 0.02669381 0.023628518 -0.0033631339 0.030316308 -0.049785 0.03666394
-0.05725036 -0.0045759976 0.06050158 -0.010693237 -0.035963647 -0.012791721 0.053035658 0.02690549
-0.033028416 -0.009035404 -0.008158998 0.041515607 0.018492697 0.038434613 0.02777208 -0.0012754751
-0.011152521 0.01613687 0.012706696 -0.06211829 -0.023609377 -0.053096287 0.010042449 0.051954467
-0.058271673 -0.048106275 -0.0018806816 -0.033086248 0.0008325514 0.017708924 -0.05807449 0.03332171
-0.018324208 0.018653305 0.0064728344 0.053127006 -0.06807088 0.037936304 0.03629097 -0.031031476
-0.036692217 -0.026228191 0.048082195 -0.051158868 0.036926225 0.008696952 0.024851812 0.030618098
-0.034280553 -0.003135463 -0.034011368 -0.0020958614 -0.047087993 -0.012101004 -0.008016794 -0.02150063
-0.06989311 0.01266124 0.018291287 0.052843813 0.031155081 -0.041341793 0.009515785 -0.04462962
-0.022131965 -0.05273079 -0.012746597 0.04295762 -0.0650345 0.0015405947 0.04014078 -0.0036423965
0.039700374 -0.041338824 -0.011743389 0.060865022 -0.011020858 0.03986378 0.0046942406 0.050153017
-0.04090297 0.031167353 0.033105034 -0.008709501 -0.0049929647 0.03350134 -0.060472846 0.04619003
-0.040954947 0.019144423 0.044918112 0.067894615 -0.06372609 0.0071016117 -0.06671041 0.0494949
-0.05491959 -0.0007295879 -0.010080388 0.0029652948 0.02713057 -0.058773726 -0.035567757 0.026541244
0.050591238 -0.04107579 0.019820813 -0.067048945 -0.052067325 0.022444522 -0.034415286 -0.035392832
-0.043016993 0.03321016 -0.040218506 0.0015701904 -0.0074748914 0.018603189 -0.050635543 -0.0042166263
-0.06464777 -0.021450825 -0.058191147 -0.0567969 0.0018751603 -0.023850685 -0.07176531 -0.016907725
0.039840292 -0.0064965594 0.004380373 -0.0055009797 0.019533409 -0.005888416 0.018306077 0.00019075179
-0.056920633 -0.032679316 -0.008445857 0.01009004 0.035447396 0.018137572 0.04697998 0.022304118
0.011809893 -0.0008679891 0.03520812 0.03816283 -0.0064144363 -0.02592245 -0.024114057 -0.015852775
0.035899397 0.013765738 -0.041388836 -0.037880737 0.029709019 0.048965897 -0.051579587 -0.037217665
0.04148526 0.036550146 -0.048428487 -0.02915829 -0.04505618 -0.05340878 -3.7244245e-05 0.054807846
-0.00046151743 -0.02441654 0.01482306 -0.050829742 0.02302018 0.0410907 -0.009490133 0.046612162
-0.020745054 0.023923557 -0.04287397 0.055877175 -0.025143983 0.0005309803 -0.014450949 -0.045964267
-0.019961707 -0.026886655 0.013332079 0.05389099 0.025232786 -0.05373625 -0.059669297 -0.05008242
-0.037691057 0.047751024 -0.058584385 0.042680416 0.019255124 -0.0014467646 0.00735265 0.036419235
0.058559634 -0.03990773 -0.04982613 -0.027167032 -0.04775302 -0.06296276 0.062604085 -0.023152225
-0.057489023 0.016135624 0.010204257 0.038652662 0.039400283 -0.017709432 -0.004890424 0.036282353
-0.006469033 -0.058236223 -0.005670868 -0.050056268 0.0029324968 0.0419939 -0.059658587 -0.06088083
0.03305244 -0.06610576 0.03956312 0.040334657 -0.018475896 -0.0074208467 0.014232977 -0.047505908
0.04257369 -0.009236516 -0.0399586 0.01745962 0.036309842 -0.0017379548 -0.04815545 0.00702215
-0.0036350992 0.022111913 0.03108021 0.05358457 0.027146138 0.018575424 -0.04411 0.028689973

linear2.bias f4 [5]
00000000: 5900 1d3d 0700 6a3d a0d3 25bd 7043 15bb
00000010: 6e0b 8c3c
0.03833041 0.057128932 -0.040485024 -0.0022775792 0.017095294
