model/a2model.pth (torch, 33183 bytes, 4 tensors)

linear1.weight f4 [256, 25]
000000 bc 9b ec bf 34 b3 59 3f 17 7c 5c 3f 5c e2 91 be
       -1.8485026 0.8503907 0.86126846 -0.2849301
000010 6d e9 34 3f ef d5 e3 be 05 84 c7 3e e7 ae 7f 3e
       0.7066868 -0.44499156 0.3896791 0.24969064
000020 57 31 91 be 75 f1 ae 3e 73 99 4b 3e b3 70 0a 3f
       -0.28357956 0.34168592 0.19882755 0.54078215
000030 8c 83 28 be 80 b4 df 3e 09 dd 09 3d 38 52 4c bf
       -0.16456431 0.43692398 0.03365806 -0.79812956
000040 77 8e 9c 3d 1f 2f 40 3d 71 c1 b0 be e8 78 85 3c
       0.076443605 0.04691994 -0.34522584 0.016293004
000050 36 57 d8 3c 3c 3a 87 bd e4 7b 0d 3e 83 8f bd be
       0.026408773 -0.06602904 0.13816792 -0.37023553
000060 6d 0b dd be 73 1d a7 3e df ad ed bf 76 8c ea 3e
       -0.4317278 0.32639655 -1.8568686 0.45810288
000070 9b e8 78 c0 b0 74 dd be 58 79 9b 3f fe d8 3d be
       -3.889197 -0.43253088 1.2146406 -0.18539807
000080 7a c4 64 3e 17 f2 74 bf d9 02 6a bf 1c 0b 4b 3f
       0.22340575 -0.956819 -0.91410595 0.79313827
000090 36 ed 8b 3e 44 22 81 3e 0b 18 2a 3e c7 02 93 bd
       0.27329415 0.25221455 0.16610734 -0.07178264
0000a0 b1 6d 3c 3f 74 b9 26 3f 14 72 04 bf 76 47 07 bf
       0.73604876 0.6512673 -0.5173657 -0.52843416
0000b0 cc 7f 36 3d 6b 0f 19 be 7d 93 8c 3e 92 ae 20 bf
       0.04455547 -0.14947288 0.27456275 -0.62766373
0000c0 c1 6a e6 be 58 0b c5 be ba 79 84 3f ab d2 de 3e
       -0.45003322 -0.38485217 1.0349648 0.43520102
0000d0 59 2b fb 3e cf 6f ec 3e 1f ce 0a c0 97 11 80 be
       0.4905651 0.46179053 -2.1688306 -0.2501342
0000e0 ae 18 19 3f 26 11 d4 3e fa fa 79 3e 67 78 b5 bf
       0.59803283 0.41419333 0.24412146 -1.4177369
0000f0 23 08 e8 bc 1f 13 25 3f 23 ee 07 bf f7 fa 22 3e
       -0.028324192 0.644823 -0.5309774 0.15916048
000100 eb bd 5d 3f 03 cf 15 bf 97 b8 2d bf c0 0c 71 be
       0.86617917 -0.58519 -0.67859787 -0.2354002
000110 d0 12 2f 3f 22 c4 61 be 33 3d 9e bf 17 c1 8f 3c
       0.6838808 -0.22047475 -1.2362427 0.017548127
000120 86 b6 85 bf a9 82 89 bd 90 2f b4 be 6f f9 36 3e
       -1.0446327 -0.067143746 -0.35192537 0.17868589
000130 4d 11 99 3e 8c 72 07 c0 72 23 a8 3e ac f7 39 bf
       0.29896012 -2.1163664 0.32839543 -0.7264354
000140 4d 3f 4f 3f 97 26 c5 3e 85 eb 16 c0 5c 57 45 bf
       0.80955964 0.38506004 -2.358125 -0.77086425
000150 ed 1e c9 3e 1d 45 b9 bd 23 db d5 3d 39 c7 06 bf
       0.39281407 -0.090463854 0.10442188 -0.5264774
000160 dc 10 7d bf ae d2 d3 3e 0c 11 c8 3d f9 0b 01 3f
       -0.9885385 0.41371673 0.097688764 0.50408894
000170 30 5a 2f bf 6d 39 fc be 5d 02 33 3f 59 73 06 be
       -0.6849699 -0.49262562 0.6992548 -0.13129939
000180 f7 1f eb 3d 59 65 ca 3d 4e 49 ba be 82 47 9a bd
       0.11480706 0.09882612 -0.36384052 -0.0753317
000190 4a b2 eb bd 98 bb 3c 3f bd ed 84 3d 77 7d 83 3f
       -0.11508615 0.73723745 0.064906575 1.0272664
0001a0 e5 6c ec bf a3 08 a5 3e 1a 05 bf 3e 56 d7 c0 3e
       -1.8470732 0.32233152 0.3730858 0.37664288
0001b0 a2 0a f3 3e 21 8b bb bf 9d 6c 53 bd d2 84 1e 3d
       0.4746905 -1.4651834 -0.051617254 0.038700886
0001c0 04 48 2b bf 87 61 51 be ab 6c 3a bf 54 6f f8 3e
       -0.6690676 -0.2044736 -0.72822064 0.48522437
0001d0 28 59 8e be 5d 6e ff ba 1d 44 96 be 00 74 2c bf
       -0.27802396 -0.0019487847 -0.2934884 -0.673645
0001e0 90 6b ad 3d 9b f8 65 3d 5b 75 11 bf 56 15 55 be
       0.084677815 0.05614529 -0.56819695 -0.2080892
0001f0 01 ac 36 bf a4 be 34 3f cd eb b2 3f 9e 54 24 be
       -0.7135621 0.70603395 1.3978211 -0.16047904
000200 62 11 6b 3d 3e d1 51 bf fe 7e 43 3f 9d dd 0e be
       0.057389624 -0.81959903 0.7636565 -0.13951726
000210 59 52 27 3f 6d 2f 10 3e 63 ad 0c 3f 86 1a f8 3e
       0.6536003 0.14080591 0.5495207 0.48457736
000220 f8 d9 df bb 69 be 31 bf 53 0e 11 3d 5f fd 23 bf
       -0.006831404 -0.6943117 0.03541405 -0.6405849
000230 1b 8e d1 3e 84 e0 2b bf 54 9e c3 bd e3 56 dc bb
       0.4092873 -0.6713946 -0.09551683 -0.006724225
000240 66 1b 0e be 56 56 dd 3b c1 d8 1a 3d 0f 4c 50 bf
       -0.13877639 0.006754677 0.03780437 -0.81366056
000250 96 f7 66 be 67 4c 13 be 65 08 4c c0 47 fe 87 3d
       -0.22555384 -0.14384614 -3.1880124 0.066402964
000260 79 61 89 3f e0 9b 8a bf 1a a3 82 3f 32 f4 54 bc
       1.0732871 -1.0828819 1.0206025 -0.012997674
000270 2e 01 67 be 18 57 d2 3e 47 93 ae be bc 83 83 3d
       -0.22559044 0.41082072 -0.3409674 0.06421611
000280 86 e6 f5 be 8e e4 12 3f 14 16 d3 be 00 e4 1a bf
       -0.48027438 0.57379997 -0.41227782 -0.6050415
000290 97 e8 ab bd a7 b6 15 3d 46 39 94 be 24 76 88 3e
       -0.08393972 0.036551144 -0.28949946 0.26652634
0002a0 2e ad 6b bf 74 46 fb 3c f5 51 1c bf 6b 44 86 be
       -0.92061126 0.030673243 -0.61062557 -0.26224074
0002b0 e1 1e 31 3d df 29 a4 be d9 6a c9 be de 8b 35 40
       0.04324234 -0.32063195 -0.3933933 2.8366618
0002c0 ed 31 a5 bf ae 1e a9 3e c5 c2 c8 3e 97 61 7a be
       -1.2905861 0.3303122 0.39211097 -0.2445129
0002d0 9e 5f 14 bf ce d8 82 bf c9 f4 0a bf 30 a0 05 be
       -0.579584 -1.0222414 -0.5427976 -0.13049388
0002e0 80 ff a0 be ba 1e c9 bd 7b 92 81 c0 f1 d8 53 bf
       -0.3144493 -0.09820314 -4.049131 -0.827529
0002f0 34 19 27 3f fb 4a 95 3f ea b0 67 3f cb 3b 29 bf
       0.6527283 1.1663507 0.90504324 -0.6610686
000300 b1 46 2c 3f 39 8e e5 3e 84 78 cd be 9f 29 7c 3e
       0.67295367 0.4483507 -0.4013101 0.24625252
000310 65 4d 9b bf 64 60 90 bd 9d 5a ae be 29 5e d6 be
       -1.2132994 -0.07049635 -0.34053507 -0.41868713
000320 7c 24 c8 bf f2 60 eb be c1 b2 0c bf fd f2 d2 3f
       -1.5636134 -0.459724 -0.54960257 1.6480404
000330 a8 4b da 3e e0 65 4f 3e 41 80 ad 3e b8 0b 5e 3e
       0.42635846 0.20253706 0.33886912 0.21684158
000340 20 8d 58 3f ee b6 50 bf d9 70 b1 be 73 59 a5 3e
       0.8459034 -0.8152913 -0.34656408 0.32294807
000350 f2 40 0f bf 7d d5 70 be b2 c3 32 bf c2 d9 e8 be
       -0.55958474 -0.2351894 -0.6982986 -0.45478636
000360 bd 7f 70 3d d2 f6 77 3e 50 39 d5 3e 4d d4 d6 3e
       0.05871557 0.24215248 0.41645288 0.41958848
000370 23 4c 7b 3d 2a ae b6 bf 08 86 36 be 62 6c bf bc
       0.061351907 -1.4271901 -0.17824566 -0.02336711
000380 14 e8 aa 3e bc 98 03 3e 96 1b 76 c0 f8 15 16 3e
       0.33380187 0.12851232 -3.8454337 0.14656818
000390 5f 53 6b 3f bd 62 e8 bf 4c f0 7e 3f a0 65 3e 3e
       0.9192409 -1.8155133 0.99585414 0.18593454
0003a0 cc 40 89 be 25 d2 aa bf ed 79 14 bf 4b cd a0 3f
       -0.2680725 -1.3345381 -0.57998544 1.256265
0003b0 30 6c 1c be 8a 05 4f 3f fe 71 38 bf ef 2c 97 be
       -0.15275645 0.80867827 -0.7204894 -0.2952647
0003c0 02 db cb 3e 2c 3f d4 be 0e f1 9c 3e 05 53 e1 3e
       0.39815527 -0.41454446 0.3065266 0.4400865
0003d0 fd 65 57 bf e2 23 86 be 28 20 83 be ee 61 33 3f
       -0.84139997 -0.2619925 -0.2561047 0.70071304
0003e0 34 63 2b 3e 0c 73 27 bf c0 97 1d bf 88 8b 8b 3f
       0.16737062 -0.6540992 -0.6155968 1.0901957
0003f0 0b 73 13 bf f8 18 d5 bf 7b 54 28 c0 0f f3 77 3d
       -0.57597417 -1.6648245 -2.6301563 0.060534533

linear1.bias f4 [256]
000000 23 1b 2a be e2 40 0e 3c 8d 56 c0 be e7 42 36 3f
       -0.16611914 0.008682461 -0.37566033 0.71195835
000010 69 4f 32 bf 3f cb 78 be 42 c0 cd be 90 d4 f9 be
       -0.6965242 -0.24296282 -0.40185744 -0.48794985
000020 85 ba 29 3f 4b a6 24 3f ae 25 9a 3e bc b5 29 3f
       0.6630023 0.6431624 0.30106872 0.6629293
000030 d5 73 1d bf 8b eb 81 3f bc b6 14 3f a4 fd 10 be
       -0.6150487 1.0150007 0.5809133 -0.14159256
000040 d2 f9 0e be 98 db 0a be 40 2d 57 3f 60 27 76 bc
       -0.13962486 -0.13560331 0.8405342 -0.015024036
000050 e3 18 69 bc 94 aa ea 3e e8 19 4f be 82 18 6e be
       -0.014227125 0.45833266 -0.20224726 -0.23251536
000060 73 80 c6 be 91 28 fc be a2 e5 8e be ad b8 d8 3e
       -0.38769874 -0.492497 -0.2790957 0.42328396
000070 ad 10 f0 bd cf 8d 3b be 4d e4 bc be 1f 0c e7 3f
       -0.11721931 -0.18315814 -0.3689293 1.8050574
000080 c2 15 56 be 3c 94 fc 3e 9e 59 d0 3e a9 62 88 3e
       -0.20906737 0.49331844 0.40693372 0.26637772
000090 f9 7e 5b be 65 30 93 be dc 84 06 3f 8a df 22 be
       -0.21435155 -0.2874786 0.5254648 -0.15905586
0000a0 0a 95 2b be 30 e8 27 3f 2c ac 41 3f 5a 83 65 bd
       -0.16756073 0.65588665 0.7565334 -0.05603347
0000b0 2e f7 b9 bd 20 9e 80 3c 2d 1a 38 3e e8 31 0d bf
       -0.09080349 0.0157004 0.17978735 -0.55154276
0000c0 66 39 21 3f 51 a3 be 3f 37 ed 23 3e 1d 1b b9 be
       0.6297821 1.489359 0.16008459 -0.36153498
0000d0 d7 e5 e0 be 5a 44 37 3c e0 74 b6 3e 0d f2 d8 bd
       -0.43925354 0.01118573 0.35636044 -0.105930425
0000e0 79 d3 37 3f 45 e5 63 3e 16 f9 a9 be f5 55 06 bf
       0.71807057 0.22255428 -0.3319785 -0.5247491
0000f0 6c 26 95 3f b1 97 18 3f 32 57 bf 3e 48 63 e1 3e
       1.165235 0.5960646 0.37371212 0.44021058
000100 1f 8a 8d be ee fa 34 be 1c 6d 06 be 50 e3 c2 3e
       -0.2764444 -0.17673847 -0.1312756 0.3806405
000110 7e 87 42 bd 32 92 ae 3e a4 5a 5c 3f df 8b 73 be
       -0.047492497 0.34095913 0.86075807 -0.23783825
000120 34 8d ee be 1c ba 91 be 96 09 a7 be 4e e2 99 be
       -0.46592104 -0.28462303 -0.326245 -0.3005547
000130 2f b7 3e 3f 6f e5 03 bf c5 b5 7a 3f ff 02 4b 3d
       0.74498266 -0.5152196 0.9793361 0.049563404
000140 23 c6 92 be 66 38 67 be fe 2a 58 3f c6 f0 c0 be
       -0.2866679 -0.22580108 0.844406 -0.37683696
000150 dc 14 33 3f 5c 39 c4 be 05 f3 e7 be 30 03 11 bf
       0.69953704 -0.38325012 -0.45302597 -0.5664549
000160 2a 50 50 be 8b 8d a0 3e 09 21 9e 3e a3 04 96 3c
       -0.2034308 0.3135799 0.3088458 0.018312758
000170 c8 5c 91 3e 93 91 66 be de e3 a8 be f6 a2 75 3d
       0.283911 -0.2251647 -0.3298635 0.059969865
000180 93 0b 21 bf 23 e1 24 3e 2e a4 eb be 6b b1 ab bd
       -0.62908286 0.16101508 -0.46023697 -0.08383449
000190 28 6b f6 3e ce d0 c5 3e 2a d5 2d bf bd ca a6 3e
       0.4812863 0.38635868 -0.6790339 0.32576552
0001a0 6d b0 61 be 4f f5 dd bd 0b b2 44 bf 93 5b 0c bf
       -0.22039957 -0.108378045 -0.7683417 -0.5482723
0001b0 be c6 9c 3f 59 2e 3d be f2 f2 d3 be 3a e7 01 3e
       1.2248151 -0.18474711 -0.4139629 0.12685862
0001c0 5d 24 3a be 69 bd 44 be 7a ac 3e 3f 2c c4 3a bf
       -0.18177934 -0.19212879 0.7448193 -0.72955585
0001d0 11 a0 9e bd 20 55 49 3f 1c e3 e3 3c da 5d 1c bf
       -0.07745374 0.78645515 0.027818255 -0.61080706
0001e0 a6 ed 66 3e 44 5a 03 3c 66 08 af 3e 24 78 06 bc
       0.22551593 0.0080171265 0.34186095 -0.008207355
0001f0 bb e1 08 3f 0d cd 87 3e 68 50 83 be 07 17 d6 be
       0.5346944 0.2652363 -0.25647283 -0.41814443
000200 7a 76 df 3e bd 42 06 40 f3 d3 ae 3f 9f eb 62 bd
       0.43645078 2.0978234 1.3658432 -0.055400487
000210 25 05 2a bf 95 71 e7 3e 5c dd 15 be d4 b6 d0 be
       -0.664141 0.45203844 -0.14635223 -0.40764487
000220 97 fe a0 be 71 5c 95 3e 2e bd eb be 12 04 72 3e
       -0.31444237 0.2917209 -0.4604277 0.23634365
000230 34 b6 32 be 58 04 51 be d0 d7 0d 3f 75 2a ef be
       -0.17452317 -0.20411813 0.5540743 -0.4671208
000240 b5 7c 22 be a9 64 05 bd 77 a5 40 be e3 3a 37 3e
       -0.15867884 -0.0325667 -0.1881312 0.17893557
000250 a0 6f fc bc 28 9b c6 be f9 02 f3 bd 01 34 14 3e
       -0.030814946 -0.3879025 -0.11865801 0.14472963
000260 55 e2 93 3e bf c6 08 3e ad 51 d5 bd a4 fc 4d 3f
       0.28883615 0.13357066 -0.10415969 0.80463624
000270 65 d6 97 3d e1 58 0e 3f 71 bb 1a be 5d 86 68 be
       0.074139394 0.5560437 -0.15110566 -0.22707506
000280 bb 04 64 bf 6e ba 7e bd fa 4e 96 bd 6d 88 c8 3e
       -0.8906972 -0.062189512 -0.07339282 0.39166585
000290 fa bd cf 3f a9 66 75 3f e7 e0 fa 3e d8 61 de 3f
       1.6229851 0.9585977 0.48999712 1.737361
0002a0 5d 51 5b 3f bf f8 0f 3f 9d 45 9a be 5d c6 b2 bc
       0.85671026 0.5623893 -0.30131236 -0.021823103
0002b0 26 4c 1a bd d9 0d 5d 3e 65 f6 32 be c3 1d a3 be
       -0.037670277 0.21587314 -0.17476805 -0.31858644
0002c0 01 56 00 bd 04 64 80 be 23 2f a9 be 2a 85 13 3f
       -0.03133202 -0.25076306 -0.33043775 0.5762507
0002d0 b2 1b 93 3e 68 f1 d6 3e e8 68 05 bf a5 42 0d be
       0.28732067 0.41981053 -0.521132 -0.13794954
0002e0 8c 77 51 3d b4 a7 6f bd 54 95 30 40 20 fe e2 3e
       0.0511394 -0.058509544 2.7591143 0.44334507
0002f0 45 2e 02 bf 2e f1 2e 3f 6b 37 1a bf 03 62 9c 3e
       -0.5085185 0.6833676 -0.6024081 0.30543527
000300 05 67 2b 3f 86 d1 a9 3e aa 12 0e be 10 de 0b 3f
       0.6695407 0.33167666 -0.13874307 0.54635715
000310 19 1f 0f 3d 0c d4 37 be 95 3c 99 be d8 f2 10 3e
       0.034941766 -0.17951983 -0.29929033 0.14155138
000320 7b 4a 04 3f 7d 15 f2 bc 2a 8a 92 be 63 51 77 be
       0.5167615 -0.029551262 -0.28621036 -0.2415214
000330 85 f1 80 be 17 2b 8e 3e bd b4 1b bf 56 43 fa 3e
       -0.25184265 0.2776725 -0.6082266 0.48879498
000340 8d 13 8b 3f 67 d5 81 3f d8 4a 04 3e 57 5e 3d 3e
       1.0865341 1.014325 0.12919176 0.18493019
000350 9b e0 c9 3d bb 10 68 3c f6 cb c9 3e 2a fb af be
       0.09857293 0.014164145 0.39413422 -0.3437131
000360 70 fe da 3f d6 03 c3 be c7 65 95 be 1a ec ce be
       1.7108898 -0.38088864 -0.29179212 -0.40414506
000370 80 54 51 be 8c 2f 43 bf a7 64 52 3e e8 e1 22 bf
       -0.2044239 -0.76244426 0.20546208 -0.63625956
000380 0d f3 f1 bd 00 fe 71 3e c8 cb 8f be b4 f5 5e 3b
       -0.118139364 0.2363205 -0.2808516 0.0034020962
000390 8d a9 41 be d8 3e 70 be 3a a6 72 bf 28 61 73 3e
       -0.18912335 -0.23461473 -0.9478489 0.23767531
0003a0 50 4b 42 be f4 29 20 3f 36 ed f4 3f d3 7a ba be
       -0.18974042 0.62564015 1.9134891 -0.36421832
0003b0 9e 96 38 bd 9a f6 69 be 51 71 b2 3d 80 87 9c be
       -0.045065515 -0.22847977 0.0871302 -0.30572128
0003c0 81 4e 74 be 0c 73 87 3e 41 24 2c 3f 76 24 5e be
       -0.23858072 0.2645496 0.6724282 -0.21693596
0003d0 20 f6 ce 3e 0e 86 3a be a8 56 48 3f 1c 24 1e 3f
       0.40422153 -0.182152 0.78257227 0.6177385
0003e0 a2 c9 38 3e 50 0a 50 3f 39 1c e8 3e 45 5a 23 3e
       0.18045667 0.81265736 0.45334032 0.15952404
0003f0 20 84 d6 3e d1 f3 a7 3e 95 f9 7c be 66 33 0f be
       0.41897678 0.32803205 -0.24704583 -0.1398445

linear2.weight f4 [5, 256]
000000 8c 8c 93 3f d6 63 d5 bf 99 ee 75 40 9e 84 8b 3f
       1.1527267 -1.6671093 3.8426878 1.0899847
000010 c2 6b 86 3f 81 6a 95 bf 52 f9 70 3f 9f e6 ba 3f
       1.0501635 -1.1673127 0.9413043 1.460163
000020 a3 2d da 3f 14 ec b3 3f db fc 6a 40 34 e5 97 3f
       1.7045177 1.405642 3.671683 1.1866822
000030 d1 c2 83 bf 12 3f 04 3b d9 53 3d c0 60 86 50 bd
       -1.0293828 0.0020179194 -2.9582427 -0.0509094
000040 2f 0b 17 bf 9d dc 75 bf d1 fb 70 3f 28 53 89 3e
       -0.5900144 -0.96039754 0.9413424 0.26821256
000050 87 6d 15 bf bb ff 67 3f be 0a 49 bd 60 77 6d 40
       -0.5837025 0.9062459 -0.04908251 3.710411
000060 a8 28 95 3f 98 27 9d 3f 03 5a c8 bf ba 30 0f 3e
       1.1653032 1.2277708 -1.5652469 0.13983431
000070 cb 7d 3c bd f6 18 96 3c a4 d3 83 3f 08 96 66 40
       -0.046018403 0.01832245 1.0298963 3.6029072
000080 a3 a5 ec 3f 49 b2 1d 3f 36 27 c6 bf d9 f0 d2 be
       1.8488048 0.61600167 -1.5480716 -0.41199377
000090 25 03 46 c0 87 1b 39 3f 90 a7 99 3e bc 28 77 3f
       -3.093942 0.7230763 0.30010653 0.9654653
0000a0 36 3f ae 3f c9 3b 46 3f c0 dc 0a 40 ee 66 b1 3f
       1.361304 0.77434975 2.1697235 1.3859537
0000b0 83 b3 eb 3e c6 62 bd be 53 0b 0e 40 ce e7 23 3f
       0.46035394 -0.3698942 2.2194412 0.6402558
0000c0 7d 0b 20 40 1d 5b 80 3f 55 ae f3 3f 79 fa ae 3e
       2.5007012 1.0027806 1.9037577 0.3417547
0000d0 ea d5 b0 3f bb 31 e9 3e 58 3f ba 3d d4 1a b9 be
       1.3815281 0.45545754 0.09094113 -0.3615328
0000e0 39 19 de 3f 59 56 e8 3f a1 37 f3 3f 48 62 06 c0
       1.7351447 1.8151351 1.9001352 -2.0997486
0000f0 20 8b 8d 3f e6 42 f4 bf 11 51 9e 3e e9 46 1d 40
       1.1058083 -1.9082916 0.30921224 2.457453
000100 f3 98 aa bd 5f d4 48 3e b5 10 94 be 0c 2e 3a 40
       -0.08329954 0.19612263 -0.28918996 2.9090605
000110 4a 1e f7 3f 94 43 91 3f f8 4c fe 3f 45 42 f5 bb
       1.9306118 1.1348748 1.9867239 -0.0074847066
000120 53 80 f4 3f 25 68 b2 3c 71 c3 ba 3e 3b 12 aa 3e
       1.9101661 0.021778176 0.36477235 0.33217034
000130 44 2b 88 3f a9 36 b1 be 6f 75 5d 3f 8d cf 9e be
       1.0638204 -0.34612015 0.86507314 -0.31017724
000140 12 c3 c0 3c 08 8b 8c be 21 1d cf bf 9d 5c e8 3e
       0.023530517 -0.27449822 -1.6180764 0.45383158
000150 88 97 56 3f c7 40 55 3f 64 05 07 bf ac 9c da 3f
       0.8382497 0.8330197 -0.527426 1.7079062
000160 4e 5b e4 3f da 83 e0 bc eb 03 ee bf 51 ad f3 bd
       1.7840364 -0.027406622 -1.8594946 -0.11898292
000170 7a 77 7e 3e ba c8 7d bf 50 40 2e bd 1c cf c7 3e
       0.24850264 -0.9913441 -0.042541802 0.390252
000180 3e 3c fa bf 1b 12 4e bd d9 55 41 c0 3f 6a d0 3e
       -1.9549634 -0.050310235 -3.0208647 0.4070606
000190 9a fc 46 bf 1f ad 4a 40 e1 57 f8 3f 1f 2a f5 3f
       -0.7772919 3.1668165 1.9401819 1.9153479
0001a0 6c dc a5 3f 26 9f 37 3f 35 3f a0 bf 30 17 98 3f
       1.2957892 0.71727216 -1.2519289 1.1882076
0001b0 bc d6 32 3f a9 c3 2e c0 0e 12 66 3f bc db 28 3f
       0.6985891 -2.7306921 0.898713 0.6596029
0001c0 62 3d de be fa 38 ba bd 1e 46 29 3e 12 39 5f 3f
       -0.43406206 -0.09092899 0.16530654 0.8719646
0001d0 35 8a d2 3c 81 4a 5c 40 c3 72 a7 3f 7d cc 0d 3f
       0.025700668 3.4420474 1.3081897 0.5539015
0001e0 41 c3 54 c0 18 75 9c c0 c7 62 81 3f 3b e1 32 bf
       -3.3244174 -4.8892937 1.010827 -0.69874924
0001f0 37 48 0a 3f 94 4a 0c c0 f4 25 f2 bf 83 8f a8 3f
       0.5401644 -2.192052 -1.8917832 1.3168796
000200 41 98 22 c0 2c 17 0e 40 ee f8 2e 3f fa 62 13 bf
       -2.5405428 2.2201643 0.68348587 -0.575729
000210 1e 92 b3 3f 80 ad 34 3f 3b ce 88 3e 43 af f9 3f
       1.4028966 0.7057724 0.2671984 1.9506611
000220 4e f3 ba 3f 62 eb 16 3d 6d a1 aa bf e6 5f ab 3f
       1.4605501 0.036845572 -1.3330513 1.3388641
000230 20 9d a5 3f d3 51 b9 bf 2e 73 7a 40 25 4a 36 3d
       1.2938576 -1.4478096 3.91328 0.044504303
000240 24 29 59 3f 53 e1 3d 3f d5 15 54 3e f9 15 27 3f
       0.848284 0.7417194 0.20711453 0.652679
000250 18 f4 89 3f 02 20 93 3f 9a 98 4a 3f 4e a7 5a bf
       1.0777617 1.1494143 0.791391 -0.85411537
000260 be 6f 03 3f 71 81 11 40 1a 4c 25 40 e8 80 bc 3e
       0.5134238 2.2735255 2.5827699 0.36817098
000270 f4 43 fa bd 61 a4 e5 bf d0 e1 51 3f 4f 6f 70 3d
       -0.12219992 -1.794079 0.8198519 0.058699902
000280 ef bf 7c 3f ac a9 76 c0 29 01 a5 bf 83 f7 5c be
       0.9873037 -3.854106 -1.2890979 -0.21578793
000290 1c de 11 40 45 a3 37 bf 50 cc 0e 3f af 58 36 3e
       2.2791815 -0.71733505 0.55780506 0.17807268
0002a0 5f 98 00 3f a2 38 5a 3f a6 f7 05 3f 8f 42 ad 3f
       0.502325 0.85242665 0.52331007 1.3535937
0002b0 d7 de f8 3f 43 42 04 c0 2c 9f 9d be 9f a9 fa 3e
       1.9443005 -2.0665443 -0.307855 0.48957536
0002c0 a6 9f 7a 3f b7 ee 47 3f dd 5c 30 3f 77 66 0f 40
       0.97899854 0.78098625 0.688917 2.240629
0002d0 e1 85 2b 3f 95 cc 73 40 7d a8 c3 3e 35 72 41 40
       0.6700116 3.8093617 0.38214484 3.0225956
0002e0 9c 3d f8 3e 4f 74 99 be 34 3e 22 40 a8 b9 c7 bf
       0.48484504 -0.2997155 2.5350466 -1.5603533
0002f0 3a 8c b4 c0 16 78 82 3f 0b c9 b8 3f 71 93 68 bf
       -5.6421175 1.0192897 1.4436353 -0.9084998
000300 16 ba 8d 3f fb b3 2e c0 ce 58 9f 3f 59 ae e6 bf
       1.1072414 -2.7297351 1.2448976 -1.8021957
000310 d2 63 16 3f 6d 23 8b 3c 80 61 b1 bf 74 5f e2 3e
       0.58746064 0.016984666 -1.385788 0.4421345
000320 72 8b ad bf 3e ea 93 c0 61 96 c7 3f 50 ad 57 3f
       -1.355818 -4.622344 1.5592767 0.8424883
000330 f2 f7 c8 bc ee 12 fd 3e 21 fb 3e 3f 17 01 8b 3e
       -0.024532292 0.49428505 0.7460194 0.2714927
000340 fa fa 7a bf f7 29 2b 40 b4 3a ad 3d 55 22 5f 3f
       -0.9803921 2.6744363 0.08458462 0.8716176
000350 19 57 bc 3f e2 e2 9b 3f 16 7f 7b 3f 36 1f a1 3e
       1.471408 1.2178614 0.9824079 0.31469125
000360 0f 44 62 3f 8a e4 8c bd 2e b3 4b c0 bc 87 08 40
       0.883851 -0.06879528 -3.1828113 2.1332846
000370 a5 0b a0 be 5a 46 05 3f d3 84 8a be 35 86 09 3f
       -0.31258884 0.5206047 -0.27054462 0.5372041
000380 d4 33 f2 3e fd 9e c6 3e 37 ad f2 bf dd 4d 5f bf
       0.47305167 0.38793173 -1.8959111 -0.87228185
000390 6b 28 3f bd 97 3e a8 bd 29 06 79 c0 80 20 b3 3e
       -0.046669405 -0.08215063 -3.891001 0.34985733
0003a0 59 fc a8 3b 38 ac 14 40 65 8c 8d 3f 6b 41 e8 3e
       0.0051570353 2.3230114 1.105847 0.4536241
0003b0 28 ed d9 3e 05 46 82 bf 7f 71 85 3e dd 05 c1 3e
       0.42563748 -1.0177618 0.26063153 0.37699786
0003c0 5d 4b 61 3e bc b0 56 3f 35 89 21 3f 13 8b 36 be
       0.22001405 0.83863425 0.63099986 -0.1782649
0003d0 94 dd b9 3f cb 3b 09 c0 8c 52 38 40 4b 1d 43 3e
       1.4520745 -2.1442745 2.8800383 0.19054143
0003e0 62 4a 1f bf 02 58 72 3f e0 31 cb 3f 0c 0c 6b 3e
       -0.62222874 0.9466554 1.5874596 0.22953814
0003f0 55 b7 98 3f ce c9 a7 40 bc b3 78 3f 3b 10 86 3f
       1.1930948 5.2433844 0.9714925 1.0473703

linear2.bias f4 [5]
000000 b6 21 c5 3e 17 94 82 3e bf ee 5f 3e 76 c1 fd 3e
       0.38502282 0.2550361 0.21868418 0.4956166
000010 50 78 a3 3e
       0.3192773
