model/a2model.pth (torch, 33183 bytes, 4 tensors)

linear1.weight f4 [256, 25]
00000000: 6628 5e3d 30e0 373c 4bd0 11be c725 ea3d
00000010: f59b 4abe b89f 9c3c 5ed6 093e 7817 fcbd
00000020: 8238 963d fd6a 6d3d 5427 d7bd 35fb 883d
00000030: 0bfa 04be 6464 e6bd 596f a3bd 0ddb e03d
00000040: 4ac8 bcbc fecd b9bd 94bf 02be 1305 2dbe
00000050: f631 3cbe 119e 113e f57a b8bd 83fe 1fbe
00000060: 3fd4 233e 9037 7e3d f2a1 2cbe 8bce ce3d
00000070: 8eaa 78be e9b2 5bb9 282d ba3d d4b6 dbbb
00000080: c794 833d d7f1 0ebe 8342 953d 3330 30be
00000090: bb05 9bbd 96a6 16be 15de e5bd ebda fcbb
000000a0: afab 0d3e a126 f3ba 0276 2ebd f147 813c
000000b0: 31ec be3d 770f e6bc 5cae 603d 1cd7 953d
000000c0: 680c 23be ce84 89bd 0b98 66bd 2cb1 fd3d
000000d0: d804 bd3d 39d7 343c 1165 ac3d 4c5f 20be
000000e0: 4d1d 033d 0de4 13be 6de7 143d 268e 05be
000000f0: ac42 ebbd ad1b 45bd 4eb5 903d 9ceb 60bd
00000100: 2529 2c3e d6fd fa3d 0453 123e 39e8 f63d
00000110: 2c01 1f3e 9d46 e8bc 34e3 333b 9430 07be
00000120: 5df0 c03d 1dc9 68bc d4f0 9bbd 90b7 ba3d
00000130: 669f 3f3c 66cb fb3d e379 99bb 8aea 41bd
00000140: 4b91 09be 3196 a0bd 18c2 063e dee5 51bb
00000150: e63b 2d3e eb8d d9bd 4b50 873d a8d5 3f3e
00000160: 4292 2cbe cb4f 303e c857 de3c 2bcc 03be
00000170: 15be bcbd 7598 28be eb44 e5ba 68a7 cb3d
00000180: f413 1ebe e766 57bd 5cbf 183e 14b0 77bd
00000190: 44d4 153d 7702 cf3c af1f 02be 5b95 38be
000001a0: 210a 083e 2d33 01bb 2348 3d3e e6de debc
000001b0: 8244 05be e150 053e 824e e43c 58b1 fbbd
000001c0: aaaa 7f3d 1ff6 b23d e280 253d 1d74 15be
000001d0: c1a9 00be 91c8 bd3d 3d4a 5c3d 047d 4abe
000001e0: d550 01be 9794 cebd e1ed dfbd 5a6f 8a3d
000001f0: cea6 24be 986b 04be 390a 50be b353 bebd
00000200: e23a 903c 46c8 3bbe c584 a93d 5271 46bc
00000210: 927b 4d3d eb1b 053e 5229 a73d b9a3 53bc
00000220: e717 423d 2c8a 1a3e 6c9b f8bd 72d4 91bb
00000230: 0775 a33d d714 4ebe 2bb2 10be 76fa 883c
00000240: 0f61 3ebe 5036 a43d fa10 76bd bdcf a13d
00000250: 6500 243e 8a08 dd3c 78f6 113d daa7 103e
00000260: 5768 0fbe e006 3d3e 5c53 c23d f92f 463d
00000270: e022 51be 6ac2 573d eb86 0e3e c9cc c23d
00000280: 5547 2bbe 1bcf d93d 2b88 19be 1499 b2bd
00000290: b8e4 bd3c ad2d 2cbe d7d7 65be 77cf 28bd
000002a0: c4c4 1bbe 42e4 323c 0a4e e0bd 4088 b3ba
000002b0: abae cc3d 3fbc c1bc 248e fabd 889d 303e
000002c0: 0e0d 143e a027 36be 8624 093e 012e 11be
000002d0: 6154 b63d a2ec f93d b749 7c3d 77c4 21be
000002e0: 91ed 053e 1310 19bd 1a97 1c3e 3601 0a3e
000002f0: b9a6 01be 526b 7a3b d47e 7b3d b461 f33d
00000300: 5b05 103e 8b40 093c 0495 503c 4dc9 0f3e
00000310: 7044 47be 83a9 52be 504e 703d 133a 46bc
00000320: f828 0cbe f4f1 c13d 9956 22be e8df 57be
00000330: d796 27bd b6ee 103d 45ae c2bd 8862 f63d
00000340: d2b6 86bd a18e 20be 1de3 b3bd 1881 f0bc
00000350: 0e6b da3d 35f4 c23d fedb 423d eb45 8cbc
00000360: 544e fcbd 035d 1cbe 1511 35bd af57 083e
00000370: 026b 3bbe b7ff cdbd 24b6 8e3d 9569 293e
00000380: c7fc d4bd 3ff2 4bbd f6a6 273e b3a9 36be
00000390: c36b 8fbd 8621 4dbe 6f35 54be 65fd 033e
000003a0: 97e0 f3bc 1b7c 123c a299 bebd 4dfa 94bc
000003b0: 3260 d13d 9b1c 0f3e 6fca 0a3e b44d 0fbe
000003c0: 373f 1c3e 688f 003e c4ce acbd 9d19 59be
000003d0: a9a7 a13d cd54 3bbe 0448 8b3d 0079 96bc
000003e0: ef05 a23a c4a1 c3bb 1ed7 a03d 8c45 8bbd
000003f0: 0ace c53d 412e 123e 55ac 1d3e ecc9 a43d
0.054237746 0.011222884 -0.14239614 0.11432987 -0.19786055 0.019119129 0.13460681 -0.12309164
0.07334997 0.05796336 -0.10505548 0.06688539 -0.12986009 -0.11249617 -0.07980222 0.109792806
-0.023044724 -0.09072493 -0.12768394 -0.16896467 -0.18378434 0.14220454 -0.09007827 -0.15624432
0.15998934 0.062064707 -0.16858652 0.10097989 -0.24283811 -0.00020952117 0.09090644 -0.0067051444
0.064248614 -0.13959442 0.07288077 -0.17205887 -0.075694524 -0.14711985 -0.112239994 -0.0077165267
0.13835023 -0.0018550941 -0.04259301 0.015781375 0.09322394 -0.028083546 0.054853782 0.073164195
-0.15922701 -0.067147836 -0.056297343 0.123873085 0.092294395 0.011037641 0.084177144 -0.15661353
0.032010365 -0.14442463 0.036353517 -0.13042507 -0.11487326 -0.048122097 0.07065831 -0.054912195
0.1681257 0.122554466 0.1428948 0.12056012 0.15527791 -0.028353984 0.0027448656 -0.13202125
0.09420846 -0.014208105 -0.07614294 0.09117043 0.011695718 0.122946545 -0.0046837195 -0.047342815
-0.13434331 -0.07841147 0.13159978 -0.003202788 0.1691738 -0.10622772 0.066071115 0.18733847
-0.16852668 0.17217939 0.027141467 -0.12870853 -0.09215943 -0.16464408 -0.0017491853 0.099440396
-0.15437299 -0.05258837 0.14916748 -0.060470656 0.036579385 0.02526973 -0.12707399 -0.18025725
0.13285114 -0.001971434 0.18484549 -0.027205896 -0.13014415 0.13019134 0.027869467 -0.12289685
0.062418617 0.0873835 0.040406115 -0.14595075 -0.12564756 0.09266771 0.053781737 -0.19774252
-0.12628491 -0.10086935 -0.10934044 0.0675952 -0.16079256 -0.12931669 -0.203164 -0.09293308
0.017606203 -0.18338117 0.08277277 -0.012111979 0.050166674 0.12998931 0.08162178 -0.0129174525
0.047386076 0.15091771 -0.12139019 -0.0044503743 0.079813056 -0.20125137 -0.14130466 0.016720992
-0.18591712 0.08018172 -0.060074784 0.07900951 0.16015776 0.02698161 0.03563544 0.1412653
-0.14004646 0.18459654 0.09488556 0.048385594 -0.2042346 0.052675642 0.13918655 0.09511716
-0.1672643 0.10635205 -0.1499335 -0.087206036 0.02318035 -0.16814299 -0.22445618 -0.04121348
-0.15211779 0.010918679 -0.10952385 -0.0013697222 0.09994253 -0.023649333 -0.122341424 0.17247593
0.14458105 -0.17788553 0.13392839 -0.14177705 0.08902813 0.12203337 0.061593737 -0.15797602
0.13078906 -0.037368845 0.15292016 0.13477024 -0.12661256 0.003821094 0.06140025 0.1188387
0.14064543 0.008377205 0.012730841 0.14041634 -0.194597 -0.20572476 0.058668435 -0.012098807
-0.13687503 0.09469977 -0.15853347 -0.21081507 -0.040915336 0.035383902 -0.095058955 0.12030512
-0.06577839 -0.15679409 -0.08783553 -0.029358432 0.1066495 0.09519235 0.047573082 -0.017123183
-0.123196274 -0.15269856 -0.044205744 0.13314699 -0.18302539 -0.10058539 0.06968334 0.16544183
-0.10399776 -0.04979157 0.16372284 -0.17838173 -0.07002976 -0.2003232 -0.20723508 0.12889631
-0.029770179 0.008940722 -0.09306647 -0.018185759 0.10223426 0.13975756 0.13553785 -0.13994485
0.1525849 0.12554705 -0.08437875 -0.21201177 0.07893307 -0.18294068 0.06800845 -0.018368244
0.0012361387 -0.0059702117 0.0785353 -0.068003744 0.096584395 0.14275457 0.1539777 0.08046326

linear1.bias f4 [256]
00000000: 0df3 28be 146a c6bb fd09 173e dd14 19be
00000010: 3a73 79bb e376 10be f7e8 5abe a4bd f53c
00000020: c6f8 1e3e b823 223e 9c8e 723d 79e2 6cbd
00000030: 5861 233e 9bd1 b53d 005d aebd d4fa 66bd
00000040: df63 333d f5e6 b73d a84a a13d 4501 b1bc
00000050: 92ab 01bd f55d e6bd 42e0 4b3d 42f8 663d
00000060: 9559 a93d c31a 22be 575e 2b3e bb4a 4bbe
00000070: 433c afbd 69cf 6e3d 90bd a03d fc3e 19be
00000080: cb39 da3d ea16 343d 25c6 bbbc 3127 513e
00000090: fe3b ba3d 173c 96bd afca f83c e140 aa3a
000000a0: 31c9 163e ae47 e23d c1ee 77bd e945 4e3c
000000b0: e493 09bd 5fee 39be be6a ca3b f2d6 86bb
000000c0: a6a5 abbd aebc 493d c05d 67be 059a 253d
000000d0: 2cd7 27be 09ad bcbd a41e 093e 6801 7b3d
000000e0: d44a a83b afc4 583d 15fa 94bc 3aca b13d
000000f0: 553b adba d74f 1dbc 4aef e43c 3dce 5c3d
00000100: b183 23bd cd5c ea3d 62a5 b9bc 99db 763d
00000110: 9142 17bc 8ae8 42be e993 0fbe 6ac0 46be
00000120: 3ab6 6dbc 9cab f8bd f382 6e3d 1f26 d43d
00000130: fb02 403d 40a7 423e 34c2 09be f4b6 aa3d
00000140: 8af1 39be 736f afbd 275c 4c3d 7bdf ab3d
00000150: 6f65 8e3c 51f4 2f3d 6936 a8bd 3fd0 c6bd
00000160: e1e4 893d 44fc bb3d c620 43be 6c0f f4bd
00000170: 012c 42be 75f8 463d bc9a 67be 25a0 b03c
00000180: e842 2bbe 0f74 9abd 7627 b9bd f42f e0bd
00000190: f0ae a13d 4f8b cbbd a121 d2bc 0fe2 49be
000001a0: 4804 27be b253 31bd be10 b0bc 1148 283e
000001b0: 5c41 06be fcb9 f73c 0ff7 2bbe f38b 03be
000001c0: 2447 40be 7e58 4f3d 7da2 1ebe e782 1cbe
000001d0: 523f 903c cb12 113e 3e76 0ebe 85ac 153d
000001e0: e195 45bd bd8d 56be 9458 a53d 884b dbbd
000001f0: bfb2 69bc 2fa0 5bba 706e 3f3e e92d f43c
00000200: 92eb cf3d b450 71bd a5b2 ca3d bfca 57be
00000210: 882a 183e 05c5 323e cefe 143e 7926 1ebe
00000220: 3a8a e8bd e823 cf3d bd6b c63d 9fc3 d2bd
00000230: 3604 12be 6cdb c33d 0762 2fbe 7ea7 6abe
00000240: 5e52 1c3d f889 5fbe 51fa 1c3c 3759 32be
00000250: cf04 113e 83cf 1b3d 649a 043e ad76 27bd
00000260: ed27 0a3e 06dd 243e 1782 693d 6631 1bbe
00000270: 2b30 073e 559c dfbd fee4 28be 9867 ce3d
00000280: 3eaa df3d f852 b93d c2ae 58be 28c8 03be
00000290: aa6c 573c a59a 02bd 2cf8 45be 05d6 473d
000002a0: d82d 26be 5ddc eebd a0f5 273e 324f 0f3e
000002b0: 5dc2 23be 53eb 323e 2eb0 c73c 768e ab3d
000002c0: aa71 b33d e320 613d 8a09 c8bd fb8e d5bd
000002d0: 6e44 21bd c3b5 cbbd 94ba 17be 0472 6fbd
000002e0: 1440 993d dac2 233c 0054 b63d 6653 b63d
000002f0: 30e1 d2bc 2f57 45bd 7bed dfbd 0189 56be
00000300: edad 153d d596 cc3d d5f0 ef3d 07fc 20be
00000310: 5c47 e23d f5b9 45be 74a5 0b3a 6840 1c3d
00000320: 0948 16bd f51a 67be 4115 f63d cb26 b83d
00000330: 90f0 1d3d 5a6b 75be 3d57 20be 6bb2 0dbe
00000340: 5aef 083e 92b8 7ebd 60db f53c 9903 58be
00000350: a838 e73d 0eff 0fbe 1c47 c73d a0d1 46be
00000360: 06b0 30be e798 33be 93b4 f03b f680 1f3e
00000370: 573c 2f3e 064b 4cbe c59c 043d 308d 75bc
00000380: 8b4e cf3c 7bc8 013d 0403 27be 8f03 ebbd
00000390: c800 a1bd a483 d8ba cc59 813d 0ebb dd3d
000003a0: 9087 0e3e 7594 303b cc49 df3d 4211 1fbb
000003b0: 6487 38be 90bb a83c ace7 133d c2d8 c53d
000003c0: e600 3bbe f2dc 353c aa25 fb3d 1445 ee3d
000003d0: feae c9bc a9b7 1a3e e215 d4bd 152c 2e3e
000003e0: 47d0 f3bd d3d1 b43d 9bda dc3c 1d69 2a3e
000003f0: 5ae2 bf3d efeb bb3c 2b4f e43d e28a 063e
-0.16498967 -0.006055126 0.14749904 -0.14949365 -0.0038063065 -0.14107852 -0.21377932 0.029997654
0.15524587 0.15833938 0.059218034 -0.05783317 0.15955102 0.0887787 -0.08513832 -0.056391552
0.043796416 0.089795984 0.07875568 -0.02160705 -0.031657763 -0.1124839 0.049774416 0.0563891
0.082690395 -0.15830521 0.16735207 -0.19852726 -0.08556416 0.05830327 0.07848656 -0.14965433
0.106555544 0.043967165 -0.022921631 0.20425107 0.09093474 -0.0733568 0.030370085 0.0012989306
0.14725186 0.11048828 -0.060530428 0.01258991 -0.033588305 -0.18157338 0.0061772754 -0.004114979
-0.08381204 0.049252205 -0.22594357 0.040430088 -0.16390675 -0.09212691 0.13390595 0.061280638
0.0051358733 0.052921947 -0.018185655 0.0868115 -0.0013216535 -0.009601555 0.027946133 0.05390762
-0.039920513 0.114434816 -0.022661868 0.06026802 -0.009232179 -0.19034019 -0.14021267 -0.19409338
-0.014508778 -0.12142107 0.05823035 0.103588335 0.046877842 0.19009113 -0.13452989 0.08335677
-0.18158546 -0.08566179 0.04989257 0.08392235 0.017382352 0.042957608 -0.08213503 -0.097076885
0.06733108 0.09178975 -0.19055471 -0.11917004 -0.18962099 0.04857679 -0.2261762 0.021560738
-0.16724741 -0.07541668 -0.0904073 -0.10946646 0.07894695 -0.099386804 -0.025650801 -0.19715141
-0.16310227 -0.04329271 -0.021492358 0.16433741 -0.1311087 0.030240051 -0.16793464 -0.12846355
-0.18777138 0.050621502 -0.15491672 -0.1528431 0.017608318 0.14167325 -0.13912293 0.03654148
-0.04823864 -0.20952506 0.080735356 -0.10707766 -0.014263808 -0.0008378056 0.18694472 0.029807048
0.10152353 -0.058914855 0.09897355 -0.21073435 0.14859974 0.1745797 0.14550325 -0.15444364
-0.113544896 0.101142704 0.09688518 -0.10291218 -0.14259419 0.09563336 -0.17127238 -0.22915456
0.03816449 -0.21829975 0.009581164 -0.17416845 0.1416199 0.038039695 0.1294952 -0.040884662
0.13491793 0.16099939 0.05700883 -0.15155563 0.13201968 -0.1091849 -0.16493604 0.10078353
0.10921143 0.09049028 -0.21160415 -0.12869322 0.013148466 -0.03188576 -0.19332951 0.04878809
-0.16228426 -0.11663125 0.16402292 0.13995054 -0.15992112 0.17472582 0.024376001 0.08376782
0.08761914 0.054963004 -0.097674444 -0.10427662 -0.0393719 -0.09946778 -0.14817268 -0.058458343
0.07482925 0.009995187 0.089027405 0.08902626 -0.025742143 -0.048178848 -0.10933968 -0.209507
0.03654282 0.099897064 0.11715857 -0.15721141 0.11048767 -0.19309218 0.00053270836 0.03814736
-0.03668979 -0.22568877 0.120157726 0.08991774 0.038559496 -0.23966733 -0.15658279 -0.13837592
0.13372555 -0.06218774 0.030011833 -0.21095122 0.11290103 -0.1406214 0.0973036 -0.19415903
-0.17254648 -0.17538796 0.007345745 0.15576538 0.17112862 -0.19950494 0.03237607 -0.014987275
0.025306007 0.031685334 -0.16309744 -0.11475288 -0.07861477 -0.0016518724 0.063159555 0.108266935
0.139189 0.0026943956 0.109027475 -0.002427176 -0.18020397 0.02059725 0.03610961 0.09660484
-0.18262061 0.011100041 0.12263043 0.11634269 -0.024619576 0.15109123 -0.10355736 0.17009003
-0.1190496 0.08829083 0.026959708 0.1664166 0.09369345 0.02293965 0.111479126 0.13138917

linear2.weight f4 [5, 256]
00000000: b381 993a 9869 f93c 0a48 8c3a 5f8a 813c
00000010: dade 32bd 793a 6cbc a5a0 263c 861e 44bc
00000020: bdb2 963c 4df4 97bc 1bd3 2dbc 4937 093d
00000030: 8597 5cbd 0c8b d6bb fe60 02bd c3cd 07bc
00000040: a560 54bd 85bd 303d 8580 2ebd 5e07 233d
00000050: ac41 1fbd b18f ff3c 7293 5ebd fe3d 3fbc
00000060: bb2e 1c3d b629 7e3d f161 343d 8ec7 c8bb
00000070: bb0c d839 1342 e03a 88df 5bbc bcdd abb9
00000080: 9ac6 20bd c59d 40bd f08d 343d 5469 803d
00000090: f41d 5abc 9edd 57bd 3983 ed39 3b54 0abd
000000a0: ad94 a53c fd04 a9bb f7d5 693b 883f 693d
000000b0: 4f56 72ba 1efe 27bd 1b68 e8bc d9ea d3bb
000000c0: 17c2 423a 27fe ae3c caa3 ca3a b671 1c3d
000000d0: 14fe d03c ad11 333c 7ee1 ff38 6ed5 cd3b
000000e0: ca1f 933b 9351 96bc 3952 053d fb12 d0bc
000000f0: c0eb 313a 230b 61bc 0a7f 483d 1d7b 07bd
00000100: 652a bdbb 327e 0c3b 9769 4e3d c6a1 c4bc
00000110: 486a 443d f806 c9bc 2e02 303d 8082 623b
00000120: 9efe 203d a21a db3c b54b 0a3d d602 ba3b
00000130: bf5f 9c3d a910 fdbb 60c5 abbc bc47 6dbc
00000140: 404a d63d ffd9 083d 8ac6 d23c 0209 973d
00000150: b910 2ebc 6cdb f2bc 4504 8dbc d617 1bbc
00000160: a60e e63c 96a2 c1bc 3c36 a43d 811c 47bc
00000170: b37c de3c b8f1 3fbd ad2e 22bd f758 2dbd
00000180: 66c9 26bd 610a 44bc 53df 1bbc 0cbd 5439
00000190: 8297 d8ba aa1e e53b 54a8 44bd d671 87bb
000001a0: a552 bebc 2957 0abd a67a a1bb 75ec 17bd
000001b0: 9a44 adbc 6f94 97bb 03e2 2fbd 5008 20bd
000001c0: 9447 ecbc 2af5 e8bb 7dac 823d bfc9 34bb
000001d0: d99a c83c 2dbd bcbb e303 ac3c 53b1 2cbc
000001e0: f979 003d 2b6c 0c3d d398 2b3d 54be 483d
000001f0: c7ef f8bc f272 4c3d b584 313d bd8f 15bb
00000200: 0524 a13b dff4 263c 260d 33bd 80bc ca3b
00000210: 7377 eebc 8bdb 83bc 4f50 a73c 2d57 b1bb
00000220: 0b61 eb3b e0df 81bc a92c 1d3d 2aab d3bc
00000230: 305e 00bd c1bb a93c 36ec 1c3d 3d64 01bd
00000240: 5180 62bc ee61 97bd 9ae5 2b3d 9638 9ebd
00000250: 674c 12bd 172a d4bc 9c28 f93c bf05 033d
00000260: 0900 643d 0929 e43c 8f39 f7bc 5167 c2bc
00000270: ccd7 313b 0e5a e33c b0d8 d13b 8be4 b0bb
00000280: b21e e1bc 575d 1c3d c550 31bc 4453 ecb9
00000290: 8cbd 95bc 9dae ee3b b8fb 26bd 7046 0d3d
000002a0: 399b 993c 2074 f8bc cb08 6f3d a819 783d
000002b0: 5fb0 423c 80e1 153c fd60 2dbb 15fd 6b3c
000002c0: a7cc 07bd 5fed b2bc 216f 1e3c 9a13 4cba
000002d0: 0e2a 08bd 121e 37bd f438 93bc 7715 443d
000002e0: 670b e53b 9fd5 f93c 4542 3c3d 1042 08bd
000002f0: e081 633b d666 c6bc 012a 173d a80b fc3c
00000300: 6fec 103c 622b 203b 8dfb 52bd 1bc5 4bbc
00000310: bce7 123d 8f9c ebbc 52a8 933c c048 bf3b
00000320: d731 5a3d 5d8b 873c 0a48 2c3d 3272 f2bb
00000330: 993d 103c 3a83 a53a 5d20 3d3d e099 263d
00000340: 1a11 783d f800 0e3d 3b5e 58bd 1d7d 54bc
00000350: b809 8a3d 9a99 e73c 3d38 973b 8969 9c3c
00000360: 8794 043c 8810 a83b 8e32 e53c e596 c83c
00000370: a36d a3bc f1d7 c4bc d6cc 04bd 250c b6bc
00000380: c738 06bd 7faf 01bc 50cf 553d bd3f 003d
00000390: 25a2 41bc bd19 d7bb bd1a 49bd 26d4 1b3d
000003a0: ae2e c1bc 71d8 263b c09b aa3b 0983 893c
000003b0: f7d1 9fbc bd3c 23bd fe10 0d3d ddf0 45bc
000003c0: b341 3c3d 9f0e 283d 915f 8a3c 34c3 613c
000003d0: e70f 493b ad4d 83bc addc 343d 4945 553d
000003e0: 7461 06bd f2a9 f6bc 7e75 85bc 8862 d8bc
000003f0: acc6 68bd bd5e 7e3d 3e0a 873c 52b9 0fbd
0.0011711627 0.030445859 0.0010702622 0.01581305 -0.04366956 -0.014418238 0.010170137 -0.011970168
0.018395776 -0.018549109 -0.0106094135 0.03349999 -0.053855438 -0.0065473374 -0.03183078 -0.0082888035
-0.05184998 0.04314949 -0.042603035 0.039801948 -0.03888099 0.031196447 -0.054339834 -0.011672495
0.038130503 0.062051497 0.044038717 -0.0061273044 0.00041208215 0.0017109535 -0.013419993 -0.00032780867
-0.0392519 -0.04702546 0.044080675 0.0627009 -0.013312805 -0.052701585 0.0004530193 -0.033771735
0.020212496 -0.0051580654 0.0035680512 0.056945354 -0.00092444284 -0.04101383 -0.028369954 -0.006467205
0.00074294343 0.021361424 0.001546019 0.03819438 0.025511779 0.010929507 0.00012201349 0.0062815463
0.0044898735 -0.018349444 0.032549117 -0.025399676 0.00067871436 -0.013735565 0.04894928 -0.033076394
-0.005772876 0.0021437523 0.050393667 -0.02400292 0.04795292 -0.024539456 0.04297083 0.0034562647
0.039305322 0.026746098 0.033763606 0.0056766076 0.076354496 -0.0077229333 -0.02096814 -0.014482435
0.10463381 0.033411022 0.025729436 0.07374765 -0.010624104 -0.029645644 -0.01721395 -0.009466132
0.028083157 -0.023637097 0.08018157 -0.012152792 0.02715907 -0.04686138 -0.039595295 -0.04232117
-0.040719412 -0.011965365 -0.009513694 0.00020288321 -0.0016524645 0.006992181 -0.048012093 -0.0041334433
-0.023232767 -0.03377453 -0.004927951 -0.037090737 -0.021150876 -0.004625849 -0.04294015 -0.039070427
-0.028842725 -0.007109304 0.06380556 -0.002758607 0.0244879 -0.005759856 0.020997947 -0.010540324
0.031366322 0.034282845 0.04189379 0.049009636 -0.030387772 0.049914308 0.04333945 -0.002282127
0.004917624 0.010190218 -0.04371371 0.0061870217 -0.029109692 -0.016095897 0.020424036 -0.0054120035
0.0071831993 -0.015853822 0.03837267 -0.025838453 -0.031339824 0.02071941 0.038311206 -0.031589735
-0.013824538 -0.073917255 0.041967012 -0.07725637 -0.035717394 -0.025898976 0.030414872 0.0319879
0.055664096 0.027851598 -0.030178813 -0.023730906 0.0027136682 0.027752902 0.006404005 -0.005398338
-0.027480457 0.038174953 -0.01082248 -0.00045075465 -0.01827886 0.007283999 -0.0407674 0.034491003
0.018750774 -0.03032881 0.058357995 0.060571343 0.01188287 0.009148002 -0.0026455515 0.014403601
-0.033154156 -0.021841703 0.00967005 -0.0007784903 -0.03324323 -0.04470641 -0.017971493 0.047872033
0.0069898847 0.03049737 0.045961637 -0.033266127 0.0034714863 -0.024218958 0.036905292 0.030767277
0.008845433 0.002443992 -0.05150943 -0.01243713 0.03586553 -0.028761176 0.018024597 0.00583753
0.053270187 0.016545946 0.04206089 -0.007398867 0.0088037485 0.001262761 0.046173442 0.04067409
0.060563184 0.034668893 -0.05282424 -0.012969282 0.06740135 0.028271485 0.0046148584 0.019093292
0.008092052 0.005128924 0.027978208 0.024486015 -0.01994974 -0.02402875 -0.03242191 -0.022222588
-0.03276899 -0.007915377 0.05219966 0.031310786 -0.011818443 -0.0065643475 -0.049097765 0.038044117
-0.023581829 0.00254586 0.005206555 0.016786115 -0.019509299 -0.039852846 0.034440033 -0.012081352
0.045961093 0.04102957 0.016891273 0.01377945 0.0030679645 -0.01602825 0.044155765 0.05206803
-0.032807782 -0.030110333 -0.016291376 -0.02641417 -0.056830093 0.06210207 0.016484376 -0.035088845

linear2.bias f4 [5]
00000000: ebbc 713c b964 b8bb 7ef1 0a3c bbb3 303d
00000010: bdef 5f3d
0.014754514 -0.0056272415 0.008480428 0.043140154 0.05467199
