model/a2model.pth (torch, 33183 bytes, 4 tensors)

linear1.weight f4 [256, 25]
0	0xc0050088	-2.0781574
1	0x3f91350b	1.1344312
2	0x3f577335	0.84160167
3	0xbe7917ff	-0.2432556
4	0x3f487ce3	0.7831556
5	0xbf645b7b	-0.8920209
6	0x3f1159ba	0.56777537
7	0x3d032163	0.032014262
8	0xbe127d95	-0.14305718
9	0xbd4a40e9	-0.04937831
10	0x3c3405e9	0.010987737
11	0x3e701155	0.23444112
12	0xbe5f60ce	-0.21814272
13	0x3ec4de91	0.38451055
14	0xbdf21ea6	-0.11822252
15	0xbf6aaddf	-0.91671556
16	0x3da0e158	0.07855481
17	0x3b900583	0.0043951883
18	0xbeb10781	-0.34576038
19	0x3c78aced	0.0151779475
20	0x3df6f1ef	0.12057864
21	0xbea2c25c	-0.3178891
22	0xbd51561b	-0.051107507
23	0xbe1584ff	-0.14601515
24	0xbeab25ca	-0.33427268
25	0xbef08c99	-0.46982267
26	0xbffcf4a9	-1.9762164
27	0x3c8d207a	0.0172274
28	0xc04b4f59	-3.176718
29	0x3ba8c2cc	0.0051501747
30	0x3f88f264	1.0698972
31	0x3e47843d	0.19484039
32	0x3e6f210a	0.23352447
33	0xbf0cc9d2	-0.54995453
34	0xbf3a43e4	-0.7275984
35	0x3f855df8	1.0419302
36	0x3e38320e	0.17987844
37	0x3f1b5417	0.60675186
38	0x3eeb3f88	0.45946908
39	0xbe9569d2	-0.29182297
40	0x3f33d2e3	0.7024366
41	0x3f00e297	0.5034575
42	0xbe6dbf31	-0.23217465
43	0xbe0cb9b4	-0.13742715
44	0x3e9f1871	0.31073335
45	0xbe118f59	-0.14214839
46	0x3e39bdd4	0.1813882
47	0xbf10c518	-0.5655074
48	0xbe8b4557	-0.2720134
49	0xbedc6258	-0.4304378
50	0x3f5cfa03	0.8631899
51	0xbe9b37ac	-0.30315912
52	0x3e3ac1d2	0.18237999
53	0xbe9938d0	-0.29926157
54	0xc002c621	-2.0433428
55	0xbeea405a	-0.4575222
56	0xbe8c7c68	-0.27438664
57	0x3d57dce5	0.052700896
58	0x3de79a63	0.11308744
59	0xbfb31173	-1.39897
60	0x3d434afc	0.047678933
61	0x3d88f76b	0.06687816
62	0xbf5eae18	-0.86984396
63	0x3f185c3e	0.5951575
64	0x3fa75fdc	1.3076129
65	0xbfb17725	-1.3864485
66	0xbfbe3f5e	-1.4863088
67	0xc02145d4	-2.519887
68	0x3f323f43	0.6962778
69	0x3ea70564	0.326213
70	0xbf8aa345	-1.0831076
71	0xbf834d5e	-1.0257986
72	0xc01d27bd	-2.4555504
73	0xbdbee209	-0.093204565
74	0xbc5800ee	-0.013183815
75	0x3f01160a	0.50424254
76	0xbd0106a6	-0.03150048
77	0xc00afb9d	-2.1716073
78	0xbf15cb77	-0.5851359
79	0xbfdab762	-1.7087214
80	0x3f25fa8b	0.64835423
81	0xbad1fb6a	-0.0016020362
82	0xbf56b0d1	-0.8386355
83	0xbec04da9	-0.3755925
84	0xbe8be827	-0.27325556
85	0xbe4f0b11	-0.20219065
86	0x3f293205	0.6609195
87	0xbf2ff206	-0.68728673
88	0xbe27255b	-0.16322844
89	0x3d843a7d	0.06456468
90	0x3e7e632b	0.24842517
91	0x3f560f77	0.8361735
92	0xbe1d9933	-0.15390472
93	0xbec10926	-0.37702292
94	0x3f1f8b48	0.623219
95	0xbf049bb6	-0.51800096
96	0xbe1e3d5d	-0.15453096
97	0xbdb7d187	-0.08975511
98	0xbe22088e	-0.15823576
99	0xbe20fdb3	-0.15721779
100	0xbf76ad15	-0.9635785
101	0x3f366dbe	0.71261203
102	0x3dcadc3a	0.09905286
103	0x3ea245c5	0.31693855
104	0xbfec6ce5	-1.8470732
105	0x3e0db28f	0.13837646
106	0x3f561711	0.83628947
107	0x3ef86803	0.48516855
108	0x3f483c9d	0.7821749
109	0xbfe334a8	-1.7750444
110	0xbe682d2f	-0.22673486
111	0x3e989e9e	0.29808515
112	0xbf52e554	-0.82381177
113	0xbf43784f	-0.7635545
114	0x3c9c4d9f	0.019079981
115	0x3f30aa89	0.69010216
116	0x3b968813	0.004593858
117	0xbe28bc8a	-0.16478172
118	0xbe07a384	-0.1324597
119	0xbf961b41	-1.1727067
120	0x3c91cb7b	0.017797222
121	0x3d331720	0.043723226
122	0xbf8321f0	-1.0244732
123	0xbeb75a62	-0.35811144
124	0xbead730d	-0.3387684
125	0x3f3cef17	0.7380232
126	0x3f9f5a49	1.2449428
127	0xbf3ac119	-0.72950894
128	0x3f088740	0.53331375
129	0xbf20944e	-0.62726295
130	0x3f83720a	1.0269177
131	0xbea6110b	-0.32434878
132	0x3f0a1ec6	0.53953207
133	0x3e29eb02	0.16593555
134	0x3f0a5f43	0.5405161
135	0x3ea647de	0.32476705
136	0x3cc9c4ad	0.024629915
137	0xbf59f11b	-0.8513352
138	0x3e7431bf	0.23847102
139	0xbf088db4	-0.5334122
140	0x3e80767a	0.2509039
141	0xbf10ccec	-0.56562686
142	0xbee462fb	-0.44606766
143	0x3d683450	0.056690514
144	0xbd9ce7fc	-0.07661435
145	0x3e3d59f1	0.18491341
146	0xbd3e868a	-0.046515025
147	0xbf9297d1	-1.1452581
148	0xbe3c3ef9	-0.18383397
149	0xbdeab7ea	-0.1146086
150	0xc0029d48	-2.0408497
151	0xbf7f770b	-0.9979102
152	0x3fa39de1	1.2782556
153	0xbfa3c2d6	-1.2793834
154	0x3f4aa568	0.7915864
155	0x3f1b06fb	0.60557526
156	0x3da8c0dc	0.0823991
157	0x3f33db69	0.7025667
158	0xc00a6627	-2.162485
159	0x3f32354a	0.6961256
160	0xbe87c067	-0.2651398
161	0x3ebdee2e	0.3709578
162	0x3dd42f70	0.103606105
163	0xbfe3e8ad	-1.7805382
164	0xbe71f63e	-0.2362909
165	0x3ea2077c	0.31646335
166	0xbf00abeb	-0.50262326
167	0x3f373e55	0.71579486
168	0xbf885b4e	-1.0652864
169	0xbe51aef8	-0.20476902
170	0xbeb7850e	-0.358437
171	0xbe6cd86c	-0.23129433
172	0x3e3019d3	0.17197351
173	0xbe41fcea	-0.18944135
174	0xbd5007aa	-0.05078856
175	0x4020f2f1	2.514828
176	0xbfa531ed	-1.2905861
177	0x3f949f6e	1.1611154
178	0xbe378b60	-0.17924261
179	0xbfe0f50b	-1.7574781
180	0xbe544ded	-0.20732851
181	0xbf86c5cd	-1.0529114
182	0xbf34437d	-0.7041548
183	0x3e354719	0.17702903
184	0x3e813698	0.25236964
185	0x3e3ebb77	0.186262
186	0xc0afea5f	-5.4973598
187	0xbf18dffe	-0.59716785
188	0xbe3ca6ad	-0.18422957
189	0x3f95b729	1.1696521
190	0x3f2ba103	0.6704256
191	0xbfd8cdd6	-1.6937816
192	0x3f4ca084	0.7993243
193	0x3e9668da	0.2937687
194	0xbf01b98e	-0.5067376
195	0xbe742794	-0.23843223
196	0xbf02209e	-0.5083102
197	0x3e436b3f	0.1908388
198	0xbf4be1e1	-0.7964154
199	0xbf292b23	-0.66081446
200	0xc0645e39	-3.568251
201	0xbf2c7d2b	-0.6737849
202	0xbf086b2e	-0.53288543
203	0x3fb10541	1.3829728
204	0x3db3238e	0.08747016
205	0x3e05144c	0.12996024
206	0x3c204382	0.00978172
207	0x3dd08547	0.10181671
208	0x3f9e38a5	1.2361037
209	0xbf44c40a	-0.7686163
210	0xbeacc9fa	-0.33747846
211	0x3e86d13e	0.26331514
212	0xbea7d5f6	-0.32780427
213	0xbe350995	-0.17679437
214	0xbedfcb69	-0.43709877
215	0xbf5b844c	-0.85748744
216	0x3e8fa4e7	0.28055498
217	0x3e828261	0.25490096
218	0x3eb7d677	0.3590581
219	0x3e85eb0a	0.26155883
220	0xbe89e842	-0.2693501
221	0xbfba6556	-1.4562175
222	0xbe36470f	-0.17800544
223	0xbde9f9db	-0.11424609
224	0x3f0cab14	0.54948545
225	0xbd9299e2	-0.07158257
226	0xc09cb8d3	-4.8975616
227	0x3ec7bd3a	0.39011556
228	0x3f2875ca	0.6580473
229	0xc028745a	-2.6321015
230	0x3f775e79	0.9662853
231	0x3e56f74a	0.20992771
232	0xbe6350fb	-0.2219886
233	0xbf9362be	-1.1514509
234	0xbe7eec58	-0.24894845
235	0x3fb79e2b	1.4345144
236	0xbe0ce38c	-0.13758677
237	0x3f3b44be	0.7315177
238	0xbf281662	-0.65659153
239	0xbf11caab	-0.5694987
240	0x3e179e80	0.14806557
241	0xb862a924	-5.4040123e-05
242	0x3e402907	0.1876565
243	0x3e9217e5	0.28533855
244	0xbf026763	-0.50939006
245	0xbe540b3f	-0.20707415
246	0xbe0eacee	-0.13933155
247	0x3f0b4f31	0.5441771
248	0xbe3974a8	-0.18110907
249	0xbf1de2dc	-0.61674285
250	0xbf1d97c0	-0.6155968
251	0x3f6fd83e	0.93689334
252	0xbf13730b	-0.57597417
253	0xbfd518f8	-1.6648245
254	0xc028547b	-2.6301563
255	0x3d77f30f	0.060534533

linear1.bias f4 [256]
0	0xbe62a878	-0.22134578
1	0x3c8eb6ec	0.017421208
2	0xbf0c9b88	-0.5492482
3	0x3f5166ba	0.81797373
4	0xbf432d9e	-0.7624148
5	0xbe766a04	-0.24063879
6	0xbecfe605	-0.40605178
7	0xbf545352	-0.82939637
8	0x3ebb986a	0.3663972
9	0x3edac6da	0.42729837
10	0xbe59c69e	-0.21267173
11	0x3e8c1fe9	0.27368096
12	0xbf2a1a79	-0.66446644
13	0x3f546b40	0.8297615
14	0x3e8f1f55	0.27953592
15	0xbe10fda4	-0.14159256
16	0xbda2e32c	-0.07953486
17	0xbe703fba	-0.2346181
18	0x3f46c5ce	0.77645576
19	0xbde22374	-0.110419184
20	0x3e6b3161	0.22968055
21	0x3f171da0	0.5902958
22	0xbe4f19e8	-0.20224726
23	0xbf069ae2	-0.5258008
24	0xbebfa194	-0.37427962
25	0xbf32a46f	-0.69782156
26	0xbec49452	-0.3839441
27	0x3e9c15ef	0.30485484
28	0xbe4a4d26	-0.19755992
29	0xbef918c4	-0.48651707
30	0xbf1936a0	-0.59848976
31	0x3fdf3368	1.7437563
32	0xbef6c8f8	-0.48200202
33	0x3f31bdb9	0.6943012
34	0x3c95a036	0.018264871
35	0x3d967f33	0.0734848
36	0xbebfb37f	-0.37441632
37	0x3c496a90	0.012293473
38	0x3ec2614f	0.37964866
39	0xbed28236	-0.41114968
40	0xbed85d2b	-0.42258582
41	0x3f263160	0.6491909
42	0x3ef104b0	0.4707389
43	0xbe860fb5	-0.2618386
44	0xbdb9f72e	-0.09080349
45	0xbdd1030d	-0.1020566
46	0xbdae5e0c	-0.08514032
47	0xbef5580b	-0.47918734
48	0x3f35e976	0.7105936
49	0x3f9078e9	1.1286899
50	0xbd7f2ca9	-0.06229845
51	0xbea63bfe	-0.32467645
52	0xbf07afb7	-0.53002495
53	0xba436430	-0.0007453589
54	0x3ec9ed07	0.3943865
55	0xbe901e6f	-0.2814822
56	0x3f3e66c6	0.7437557
57	0xbdbcb631	-0.09214438
58	0xbeac9e0b	-0.33714327
59	0xbf5dce06	-0.8664249
60	0x3faf4211	1.3692037
61	0x3f181a99	0.59415585
62	0x3e3698d4	0.17831737
63	0x3e85edc6	0.2615797
64	0xbea22d27	-0.31675074
65	0xbcc68964	-0.024235435
66	0xbe2fee94	-0.17180854
67	0x3f6387fe	0.8887938
68	0xbea2acde	-0.31772512
69	0x3ecb9e7d	0.39769354
70	0x3f307f7a	0.68944514
71	0xbe927a38	-0.2860887
72	0xbf33cfe8	-0.70239115
73	0xbe91ba1c	-0.28462303
74	0xbf166fc4	-0.5876429
75	0xbed54920	-0.41657352
76	0x3eced987	0.40400335
77	0xbf037d66	-0.5136322
78	0x3f71b5a5	0.9441779
79	0xbbfe84ed	-0.007767311
80	0xbe92c623	-0.2866679
81	0xbd0c24ce	-0.034214787
82	0x3f6e003d	0.92969114
83	0xbf1c898c	-0.6114738
84	0x3f2e9e89	0.68210655
85	0xbe5ed1a9	-0.21759667
86	0xbf182478	-0.59430647
87	0xbf77c4a4	-0.96784425
88	0xbebaefc6	-0.36511058
89	0x3eb08a0d	0.34480324
90	0x3f1958bc	0.5990102
91	0xbdc7feb2	-0.09765376
92	0x3ec2b8eb	0.38031706
93	0xbef328cb	-0.4749206
94	0xbee67e63	-0.450183
95	0x3ead6462	0.33865649
96	0xbef70d96	-0.48252553
97	0x3e63dbc7	0.22251807
98	0xbf6bb0ee	-0.9206685
99	0xbe5667ce	-0.20938036
100	0x3f13ac8b	0.57685155
101	0x3f296a2b	0.66177624
102	0xbf509a97	-0.81485885
103	0x3ea1a1b9	0.31568697
104	0xbec91559	-0.392741
105	0xbe83506d	-0.25647298
106	0xbf52945d	-0.82257634
107	0xbf1865c5	-0.5953029
108	0x3f7d4cc4	0.9894526
109	0xbe1ee079	-0.15515317
110	0xbeb8be65	-0.3608276
111	0x3d28033f	0.04101872
112	0xbd5d9725	-0.05409922
113	0xbe44bd69	-0.19212879
114	0x3f245fef	0.64208883
115	0xbef08eb5	-0.46983877
116	0x3da1b7a9	0.078963585
117	0x3f46b45f	0.77618974
118	0xbe91f7df	-0.28509423
119	0xbeff58e3	-0.49872503
120	0xbd7cdda2	-0.061734803
121	0x3bfb2df6	0.007665391
122	0x3e1514ec	0.14558762
123	0xbe64100a	-0.22271743
124	0x3f0fdd55	0.561971
125	0x3c644a22	0.01393369
126	0xbe3441cc	-0.17603225
127	0xbef51292	-0.4786573
128	0x3ec6df9d	0.38842478
129	0x3ff5794c	1.9177642
130	0x3f9a55ca	1.2057431
131	0x3cd6ac62	0.026205245
132	0xbf51aadc	-0.81901336
133	0x3f037c57	0.513616
134	0xbe15dd5c	-0.14635223
135	0xbf12f255	-0.5740102
136	0xbe9c285b	-0.3049954
137	0xbe1c2876	-0.1524981
138	0xbf092c24	-0.5358298
139	0x3e0f38a6	0.13986453
140	0xbf0cec96	-0.550485
141	0x3d4914e5	0.049092192
142	0x3e37d3be	0.17951867
143	0xbf46deac	-0.7768352
144	0xbd572222	-0.052522786
145	0xbdfad5a0	-0.12247777
146	0xbe9e7bb3	-0.3095375
147	0x3d8d5b2f	0.069021575
148	0xbe87d5ec	-0.26530397
149	0xbecd8591	-0.40140966
150	0xbe8b27d6	-0.2717883
151	0x3ea27055	0.31726328
152	0xbd3df068	-0.046371847
153	0x3e8ffca8	0.2812245
154	0xbe87b98d	-0.26508752
155	0x3f606892	0.8765956
156	0x3e6e2dad	0.23259611
157	0x3f01cf3d	0.50706846
158	0xbedc4d45	-0.43027702
159	0xbe6f9e64	-0.23400265
160	0xbf53dd09	-0.8275915
161	0xbe58be26	-0.21166286
162	0x3c196b1e	0.009363918
163	0x3ec3fa57	0.38276932
164	0x3fc59a37	1.5437688
165	0x3f8b475d	1.0881153
166	0x3e046ef9	0.12932958
167	0x3fd3c250	1.6543674
168	0x3f2669b9	0.6500507
169	0x3f1f2a4f	0.6217393
170	0xbe75e851	-0.24014403
171	0x3e040f7f	0.12896536
172	0xbdb58727	-0.08863669
173	0x3e3cd991	0.1844237
174	0xbe32f665	-0.17476805
175	0xbed36c6f	-0.41293666
176	0x3db61f85	0.088927306
177	0xbe7df793	-0.24801473
178	0xbed96719	-0.4246147
179	0x3f12cc4c	0.5734298
180	0x3ecb2d2c	0.396829
181	0xbba30564	-0.004975008
182	0xbf1b0f77	-0.6057047
183	0xbeaafd8b	-0.33396563
184	0xbc7a85b1	-0.015290664
185	0x3da20a48	0.07912117
186	0x4038787d	2.882354
187	0x3e94b3da	0.29043466
188	0xbf20720e	-0.62674034
189	0x3f25cb56	0.6476339
190	0xbf1a73fa	-0.60333216
191	0xbdcade8d	-0.099057294
192	0x3f0e47a0	0.5557804
193	0x3e79d613	0.24398069
194	0xbee3ab73	-0.44466743
195	0x3f0ca75a	0.5494286
196	0xbbb6ed05	-0.005582454
197	0xbe37d40c	-0.17951983
198	0xbee6089f	-0.44928452
199	0xbe1fc9be	-0.15604302
200	0x3eea8491	0.45804265
201	0xbe5fa0ae	-0.21838638
202	0xbef411ea	-0.47669917
203	0xbe08d2b9	-0.13361634
204	0xbe80f185	-0.25184265
205	0x3d3e36ab	0.046438854
206	0xbf2c5089	-0.67310387
207	0x3f10d81a	0.56579745
208	0x3f85df17	1.0458707
209	0x3f77d735	0.96812755
210	0xbe5d1f6b	-0.21594016
211	0xbda1c005	-0.07897953
212	0x3da4849c	0.08033106
213	0xbd50dd7a	-0.050992467
214	0x3bcb3326	0.0062011657
215	0xbeaffb2a	-0.3437131
216	0x3fd69bf4	1.6766343
217	0xbdb1bf05	-0.08679012
218	0xbeced3f0	-0.4039607
219	0xbf1380c8	-0.5761838
220	0xbcf5b0a5	-0.029991457
221	0xbf4b4f05	-0.7941745
222	0x3e65ca04	0.22440344
223	0xbf2c19c7	-0.67226833
224	0xbc03d81a	-0.008047128
225	0xbdd0d326	-0.10196523
226	0xbea2c3db	-0.3179005
227	0xbe59323a	-0.21210566
228	0xbdd0c2d4	-0.101934105
229	0xbeb180bb	-0.34668526
230	0xbf91bc61	-1.1385614
231	0x3e31081c	0.1728825
232	0xbe424b50	-0.18974042
233	0x3ef3a2a2	0.47585016
234	0x3fbd2377	1.4776448
235	0xbed7b14e	-0.4212746
236	0xbe4260ba	-0.18982211
237	0xbe71a730	-0.23598933
238	0x3db37d1d	0.08764098
239	0xbeadcea3	-0.33946714
240	0xbe0614ab	-0.13093822
241	0x3e6f91a4	0.23395401
242	0x3f1e0d66	0.61739194
243	0xbe2e11e2	-0.16999009
244	0x3ea46140	0.32105446
245	0xbedc8206	-0.4306795
246	0x3f3045a0	0.6885624
247	0x3f1d0fcc	0.6135223
248	0x3e58c020	0.2116704
249	0x3f2c8e6e	0.6740483
250	0x3e211ecb	0.15734403
251	0xbea9dfd7	-0.3317859
252	0x3ee96c0b	0.45590243
253	0xbe345549	-0.17610659
254	0xbf15057a	-0.5821148
255	0xbcc38258	-0.023865864

linear2.weight f4 [5, 256]
0	0x3f846c42	1.0345538
1	0xbf4efffd	-0.8085936
2	0x40236684	2.553132
3	0x3f9da6c2	1.2316515
4	0x3fa0aef3	1.255339
5	0xbf8b44f4	-1.0880418
6	0x3f3f89fd	0.7481993
7	0x3f4e79e3	0.80654734
8	0x3fbce835	1.4758364
9	0x3f9a469b	1.2052797
10	0x405a434a	3.410357
11	0xbf90073f	-1.1252211
12	0xbfe68f96	-1.8012569
13	0x3e0a2667	0.13491212
14	0xbffe2e55	-1.985789
15	0xbd508660	-0.0509094
16	0xbf2c2305	-0.67240936
17	0xbef75795	-0.48309007
18	0x3f250da7	0.64473957
19	0x3c59814f	0.0132754585
20	0xbed4f86e	-0.41595787
21	0x3f82cbea	1.021848
22	0xbd490abe	-0.04908251
23	0x4066f2f4	3.6085787
24	0x40128ac1	2.2897189
25	0x3fa3173d	1.2741467
26	0xbff5c7ea	-1.9201634
27	0xbd715174	-0.05891557
28	0xbfdd0e8e	-1.7270067
29	0x3d40acf6	0.04703995
30	0x3fb07c0f	1.378786
31	0x406fa00e	3.744144
32	0x3b9f9aea	0.004870762
33	0xbda42522	-0.08014895
34	0xc03e2bbf	-2.97142
35	0xbf4bb35f	-0.79570574
36	0xc06bc54d	-3.6839173
37	0x402152ac	2.520671
38	0x3eb76cce	0.358252
39	0x3f78ecd6	0.9723638
40	0x3fbeacc0	1.4896469
41	0x3f45917f	0.77175134
42	0x3fe7c3f7	1.8106679
43	0x3fd12cbb	1.6341776
44	0x3eebb383	0.46035394
45	0xbf126f0c	-0.57200694
46	0x402f4923	2.738839
47	0x3edd660a	0.43241912
48	0x4004fe13	2.0780075
49	0x3f7fe059	0.999517
50	0x400ac94f	2.168537
51	0xbd26ae43	-0.040693533
52	0x3f87d7a5	1.0612684
53	0x3ed66134	0.41871035
54	0x3d966c81	0.07344914
55	0xbee7fd04	-0.45310223
56	0x3ff457c0	1.9089279
57	0x400e3de3	2.2225273
58	0x40254ba7	2.5827425
59	0xbf7115ef	-0.94174093
60	0x3f659f29	0.89695984
61	0xbfba7118	-1.4565763
62	0x3e558ff3	0.20855694
63	0x404bc32c	3.1837873
64	0x3e771b01	0.24131395
65	0x3e6cfd8a	0.23143592
66	0xbe9549c5	-0.29157844
67	0x4067574a	3.6147027
68	0x3ff9033e	1.9454114
69	0x3fc60d0b	1.547273
70	0x3fc6d986	1.5535133
71	0x3ecc6413	0.399201
72	0x3fe4c718	1.7873259
73	0x3cb26825	0.021778176
74	0x3f9c98d4	1.223414
75	0x3e67f497	0.22651897
76	0x3fdd75b6	1.7301548
77	0x3efc9b5b	0.49337277
78	0x3f771354	0.9651387
79	0xbed690bd	-0.41907302
80	0x3cc0c312	0.023530517
81	0xbec395cb	-0.3820022
82	0xbf4ca21f	-0.7993488
83	0x3f14c02f	0.5810575
84	0x3f3db46e	0.7410344
85	0x3f712e8b	0.94211644
86	0xbf624cf1	-0.88398653
87	0x3f1e5c96	0.61860025
88	0x4011820d	2.2735627
89	0xbe72f44e	-0.23726007
90	0xc01e4bd9	-2.4733794
91	0xbf0e3b58	-0.555593
92	0x3c7add57	0.015311561
93	0xbfb665a5	-1.424977
94	0x3fc89e3d	1.567329
95	0xbe823c44	-0.25436604
96	0xbf747be6	-0.95501554
97	0xbd0b9460	-0.03407705
98	0xbfd5aaeb	-1.6692785
99	0x3b724ddb	0.0036972675
100	0xbe9c449a	-0.3052109
101	0x405b2b4b	3.4245174
102	0x3fad8f60	1.355938
103	0x3fc6c9ef	1.5530375
104	0xbee39457	-0.44449112
105	0x3f428d3e	0.7599677
106	0xbf988742	-1.1916277
107	0x3f711f68	0.9418855
108	0x3f480f38	0.7814822
109	0xbffa3e10	-1.955019
110	0xbd9e0a2a	-0.077167824
111	0x3f2bf339	0.67168003
112	0xbf4b0bfb	-0.79315156
113	0xbdba38fa	-0.09092899
114	0x3ec73713	0.38909206
115	0x402a003e	2.6562648
116	0xbc002b5e	-0.00782284
117	0x4069899e	3.6490245
118	0x3f918fad	1.1371971
119	0x3f350778	0.7071452
120	0xc0117cfe	-2.273254
121	0xbfe01939	-1.7507697
122	0xbe0de7f8	-0.1385802
123	0xbf268ce5	-0.6505874
124	0x3f222c2f	0.6334867
125	0xbededb1a	-0.43526536
126	0xc0762eca	-3.8466058
127	0x3f1f1271	0.62137514
128	0xc0011364	-2.0168085
129	0x4002f240	2.0460358
130	0x3f191981	0.5980454
131	0xbeebee5a	-0.46080285
132	0x3fa63b9f	1.2986945
133	0x3f1bc449	0.6084638
134	0x3e88ce3b	0.2671984
135	0x4025ca2b	2.5904644
136	0x3ffff33a	1.9996102
137	0x3e390150	0.18066907
138	0xbf30a7df	-0.6900615
139	0x3fa0d421	1.2564737
140	0x407b0f7f	3.9228208
141	0xbececf31	-0.4039245
142	0x409dcd5b	4.931318
143	0xbf042910	-0.51625156
144	0x3e9ef8f5	0.31049314
145	0x3f451582	0.76985943
146	0x3e1cb3b6	0.1530293
147	0x3eae8a23	0.34089765
148	0x4003bf2e	2.0585437
149	0x3f814d51	1.010172
150	0x3e08b99d	0.13352056
151	0xbf23e3d4	-0.64019513
152	0x3f29f6aa	0.66392004
153	0x3ff62f8f	1.9233264
154	0x3f92eb5d	1.1478077
155	0x3ed8a102	0.4231034
156	0xbdfe380e	-0.12413035
157	0xbfb035ca	-1.3766415
158	0x3f9f9197	1.2466305
159	0x3d128a02	0.035776146
160	0x3f076996	0.52895486
161	0xc05b7e90	-3.4295998
162	0xbda0b1b3	-0.078463934
163	0xbeff170f	-0.4982228
164	0x3fec083c	1.8440013
165	0xbede5ba6	-0.43429297
166	0x3f4a3d5e	0.7899989
167	0x3e780fc7	0.24224769
168	0x3ebff981	0.37495044
169	0x3f79e9b6	0.9762224
170	0x3fb56dc2	1.417412
171	0x3f6864c6	0.9077877
172	0x3fb46b13	1.4095176
173	0xc0150bd3	-2.3288467
174	0xbe9d9f2c	-0.307855
175	0x3f06a618	0.5259719
176	0xbe7ed507	-0.24885951
177	0x3f1f8fee	0.62328994
178	0x3f01c85d	0.50696355
179	0x4050ef98	3.2646236
180	0x3f5c4f30	0.8605833
181	0x403f666b	2.990626
182	0x3de68876	0.112564966
183	0x4037cc7f	2.8718565
184	0x3f22a681	0.63535315
185	0xbe460fd1	-0.19341971
186	0x400b097b	2.1724536
187	0xbf93359e	-1.1500738
188	0xc0ae0597	-5.4381824
189	0x3dc4a87a	0.09602447
190	0x3f3ad737	0.7298464
191	0xbfb13555	-1.3844401
192	0x3f6ff88d	0.93738633
193	0xc0110f15	-2.2665455
194	0x3fa8a756	1.3176067
195	0x3e47ee18	0.1952442
196	0x3f1e8466	0.61920774
197	0x3c8b236d	0.016984666
198	0xbf98b71c	-1.193088
199	0x3eb4884b	0.35260233
200	0xc00ca6cf	-2.1976812
201	0xc09c7cef	-4.8902507
202	0x3f436bf3	0.7633659
203	0x3f2bb289	0.670693
204	0xbcc8f7f2	-0.024532292
205	0x3f41a744	0.7564585
206	0x3ecdae83	0.40172204
207	0x3f034da0	0.5129032
208	0xbf545685	-0.8294452
209	0x40153a85	2.3316967
210	0x3e3fa809	0.18716444
211	0x3ff8db78	1.9441977
212	0x3fd25901	1.6433412
213	0x3fabed9e	1.343189
214	0xbd67d5b3	-0.056600284
215	0x3ea11f36	0.31469125
216	0x3f6842b9	0.9072681
217	0x3e0bb23a	0.13642207
218	0xc03e1d5b	-2.9705417
219	0x3fa41d0e	1.2821367
220	0xbee0e129	-0.43921784
221	0x3f05465a	0.5206047
222	0xbf951e25	-1.1649824
223	0x3f20dee6	0.62840116
224	0x3f7a759f	0.97835726
225	0x3f720932	0.9454528
226	0xbfa9cb30	-1.3265133
227	0xbf028c31	-0.50995165
228	0xbe623df4	-0.22093946
229	0xbeb2136e	-0.3478045
230	0xc01f2e6f	-2.487209
231	0x3e97cc9d	0.29648295
232	0x3ba8fc59	0.0051570353
233	0x3fbe1a97	1.4851865
234	0x3f323887	0.69617504
235	0x3eab0496	0.33401936
236	0x3ecd2ff6	0.40075654
237	0xbedcb97d	-0.43110266
238	0xbda90c5a	-0.08254309
239	0xbdbaef89	-0.09127719
240	0x3e25c5d5	0.16188748
241	0x3f62e487	0.88629955
242	0x3f1f6f4a	0.6227919
243	0xbf403688	-0.7508321
244	0x3ffa37fa	1.9548333
245	0xbffe1c1e	-1.9852331
246	0x407df506	3.96808
247	0x3e8937e7	0.26800463
248	0xbf2aeb1a	-0.66764987
249	0x3f7ea105	0.99464446
250	0x3f825ee7	1.0185212
251	0xbf01e69b	-0.507425
252	0x3f16e972	0.5894996
253	0x40bd649f	5.918533
254	0x3f433a77	0.76261085
255	0x3ed849c3	0.42243776

linear2.bias f4 [5]
0	0x3efb40d6	0.49072903
1	0x3e7f41f7	0.24927507
2	0x3e4f879d	0.20266576
3	0x3f08660a	0.532807
4	0x3eae8b24	0.3409053
