model/a2model-deep.pth (torch, 6487 bytes, 6 tensors)

linear1.weight f4 [25, 25]
-0.29071486 -0.15910538 -0.42405894 -0.10604273 0.26463443 -0.14312962 -0.07186824 0.16849037
0.17995399 0.291133 0.07078016 -0.16951856 0.28447494 0.15386927 0.039718978 0.14107877
0.022951273 -0.08418072 0.046267062 0.1223647 0.05647573 0.11611587 0.17924275 0.2697702
0.29065183 0.28704253 0.17916636 0.64394295 0.06475827 0.16306247 0.2006669 0.10993089
0.08720908 0.12028424 -0.10855965 0.10817859 0.26830167 -0.094933376 -0.024971856 -0.022499265
0.17973821 0.09141682 0.18826942 0.047684334 0.109315954 -0.11869859 0.21375385 0.18096143
0.14490724 -0.009036432 -0.2696818 0.02079612 -0.6518961 0.023345713 -0.08055695 -0.12981147
-0.10275443 0.103937715 0.05544405 0.22389054 0.17579226 -0.16806397 0.31905243 0.28746364
0.19447593 0.047881104 -0.021825748 -0.092600316 0.27777994 0.19418448 0.09105977 0.13035528
-0.07953886 0.02386024 0.16907056 0.28005093 0.45461398 1.1056862 0.23283742 0.19026199
0.023372548 0.1918938 0.445733 -0.15622178 0.15073167 -0.2092089 0.042064138 0.011415381
-0.078907326 0.18438083 -0.037688058 0.08602556 0.0712323 0.12685263 -0.027426891 0.13386287
-0.04114791 0.061477892 0.118617296 -0.10008375 -0.2316682 -0.09546183 -0.75969636 -0.28542024
-0.034322932 -0.22280884 0.06851192 -0.3129055 -0.11360136 -0.08807873 0.07311042 0.17678112
0.05353055 0.10600607 -0.08028484 0.039477736 0.0054865126 0.19261305 0.38156003 -0.018598892
0.03921867 0.19708039 0.17068127 0.3539133 0.450331 0.42460844 0.3988169 0.52648634
0.34489146 -0.10650579 -0.0116434945 0.46660307 0.12020469 0.30781734 0.12703659 0.032098345
0.343657 0.10004935 0.3556971 -0.104477 0.018630864 0.27215537 0.1479088 -0.12961619
-0.09083517 0.102722086 -0.08268925 -0.034711145 -0.004354978 0.02556882 0.7800125 0.041079752
-0.3730791 0.71392775 -0.16590793 0.35053638 0.06366831 -0.32174104 0.111767225 -0.3783023
0.089770354 0.07531329 -0.17433575 0.16602826 -0.15374097 0.14550467 0.048989363 0.21514535
-0.06725933 -0.065131605 0.11316726 0.20209962 0.0072007566 -0.080114126 0.055328544 0.43363494
0.45292476 0.54910225 0.41057745 0.14583942 0.1123455 0.2120518 0.3989984 0.17623757
0.0037154106 0.008467343 0.23413199 0.24800502 0.11029285 0.08308257 -0.103910185 0.11999299
0.1655157 0.14524634 -0.003339143 0.1522744 -0.009678826 -0.069373384 -0.13276021 0.10228154
0.040309723 -0.043519635 -0.33012277 -0.67766505 -0.032279424 0.01605558 0.116579235 -0.29590645
-0.37858745 0.07121976 0.2705381 -0.0675639 -0.03804767 -0.29304293 0.10387479 0.27260727
0.015571759 0.17825072 -0.068700515 -0.06374137 0.19149666 0.32395986 0.16088058 0.02954932
-0.05607468 0.5357106 0.60618705 0.25083777 0.36955136 -0.116738506 0.062809534 0.23917326
0.01195713 0.018023985 0.10646142 -0.095414594 0.07569117 0.058443733 0.24785404 -0.066046715
0.1944314 0.3193635 0.13242692 -0.07807862 -0.1284348 -0.06251017 0.15058926 -0.005401643
0.046482813 -0.018463576 0.64480084 0.14075506 0.08540176 0.5069585 -0.041650847 0.3110955
00000000: 94d8 94be 85ec 22be 411e d9be ee2c d9bd
00000010: 2a7e 873e 9290 12be a82f 93bd bd88 2c3e
00000020: dc45 383e 620f 953e 30f5 903d 4696 2dbe
00000030: b3a6 913e e88f 1d3e 5eb0 223d f476 103e
00000040: 4f04 bc3c f166 acbd 8882 3d3d 589a fa3d
00000050: 1853 673d 28ce ed3d 698b 373e 521f 8a3e
00000060: 51d0 943e 3df7 923e 6377 373e 72d9 243f
00000070: fc9f 843d d9f9 263e a07b 4d3e 7223 e13d
00000080: ad9a b23d 9557 f63d 8654 debd bd8c dd3d
00000090: d65e 893e 6e6c c2bd c791 ccbc 6150 b8bc
000000a0: 4b0d 383e be38 bb3d b3c9 403e a650 433d
000000b0: 0be1 df3d 3f18 f3bd 4ae2 5a3e f44d 393e
000000c0: 9062 143e 8b0d 14bc bc13 8abe a05c aa3c
000000d0: aae2 26bf 823f bf3c 0bfb a4bd 4ced 04be
000000e0: ea70 d2bd 4cdd d43d 4d19 633d 9043 653e
000000f0: e302 343e f618 2cbe d75a a33e 6f2e 933e
00000100: b324 473e fa1e 443d e9cb b2bc 3ca5 bdbd
00000110: 2c39 8e3e 4cd8 463e 8b7d ba3d db7b 053e
00000120: 45e5 a2bd 8d76 c33c d520 2d3e d662 8f3e
00000130: 2ac3 e83e 2087 8d3f ef6c 6e3e 0ad4 423e
00000140: c977 bf3c cf7f 443e 1e37 e43e 9af8 1fbe
00000150: 6759 1a3e dc3a 56be 724b 2c3d 9407 3b3c
00000160: 2a9a a1bd 54ce 3c3e cb5e 1abd 2b2e b03d
00000170: 3de2 913d a8e5 013e 5cae e0bc 5913 093e
00000180: b68a 28bd 3ed0 7b3d a0ed f23d b6f8 ccbd
00000190: 6e3a 6dbe 7e81 c3bd 767b 42bf 9a22 92be
000001a0: 3496 0cbd 0028 64be fa4f 8c3d 2635 a0be
000001b0: d4a7 e8bd 9f62 b4bd eaba 953d 1c06 353e
000001c0: da42 5b3d b619 d93d 616c a4bd 68b3 213d
000001d0: 34c8 b33b 5b3c 453e d65b c33e b45c 98bc
000001e0: c2a3 203d 71cf 493e 12c7 2e3e 2034 b53e
000001f0: c991 e63e 4766 d93e bb31 cc3e cfc7 063f
00000200: 9d95 b03e b51f dabd 5bc4 3ebc 99e6 ee3e
00000210: e02d f63d 3c9a 9d3e e115 023e 8e79 033d
00000220: cff3 af3e ace6 cc3d ee1d b63e 0af8 d5bd
00000230: c19f 983c f357 8b3e 6875 173e 1bba 04be
00000240: ca07 babd f55f d23d fb58 a9bd 462d 0ebd
00000250: 34b4 8ebb b475 d13c e6ae 473f 3e43 283d
00000260: 3904 bfbe f8c3 363f c5e3 29be 8179 b33e
00000270: 8864 823d 3ebb a4be 37e6 e43d d7b0 c1be
00000280: 85d9 b73d db3d 9a3d 1285 32be 5003 2a3e
00000290: 466e 1dbe 2dff 143e 12a9 483d 104f 5c3e
000002a0: 42bf 89bd b863 85bd 3dc4 e73d 34f3 4e3e
000002b0: 53f4 eb3b e012 a4bd 2fa0 623d 6605 de3e
000002c0: c1e5 e73e f791 0c3f 3537 d23e ee56 153e
000002d0: 6615 e63d 1b24 593e 8549 cc3e 9f77 343e
000002e0: 3f7e 733b 9cba 0a3c 4cc0 6f3e 07f5 7d3e
000002f0: 38e1 e13d 3227 aa3d ddce d4bd e2be f53d
00000300: f37c 293e 75bb 143e 86d5 5abb d2ed 1b3e
00000310: f093 1ebc a213 8ebd 4bf2 07be fc78 d13d
00000320: cf1b 253d a541 32bd da05 a9be 757b 2dbf
00000330: 6e37 04bd fe86 833c 18c1 ee3d 0d81 97be
00000340: 37d6 c1be aadb 913d f883 8a3e f15e 8abd
00000350: e0d7 1bbd b909 96be 4ebc d43d 2e93 8b3e
00000360: b120 7f3c 5b87 363e dbb2 8cbd d68a 82bd
00000370: b317 443e 11de a53e e1bd 243e 6a11 f23c
00000380: 90ae 65bd 5424 093f 132f 1b3f cf6d 803e
00000390: d635 bd3e 9914 efbd 49a2 803d d6e9 743e
000003a0: d7e7 433c 09a7 933c 7208 da3d ba68 c3bd
000003b0: f903 9b3d b262 6f3d 73cd 7d3e 8043 87bd
000003c0: 0619 473e 9d83 a33e ec9a 073e afe7 9fbd
000003d0: 6a84 03be 5505 80bd 1234 1a3e 4400 b1bb
000003e0: c364 3e3d ed40 97bc ab11 253f 1822 103e
000003f0: 1ee7 ae3d 08c8 013f 149a 2abd e947 9f3e

linear1.bias f4 [25]
0.20295553 0.13088201 0.16976571 0.017935311 0.5429982 0.008367777 0.15615803 -0.029703716
0.23061429 0.027966982 -0.26205522 0.37742203 0.07567696 0.062197257 0.80881965 0.41942322
0.36129087 -0.029987758 0.12088175 -0.02804799 -0.07615986 -0.23798431 0.09407888 -0.20765327
0.05454174
00000000: 93d3 4f3e ef05 063e 10d7 2d3e 13ed 923c
00000010: ee01 0b3f 0019 093c e4e7 1f3e 3555 f3bc
00000020: 2726 6c3e 031b e53c 1a2c 86be 763d c13e
00000030: 86fc 9a3d 8dc2 7e3d ce0e 4f3f a4be d63e
00000040: 1efb b83e e3a8 f5bc da90 f73d e6c4 e5bc
00000050: b3f9 9bbd 29b2 73be 6eac c03d 0fa3 54be
00000060: 2967 5f3d

linear2.weight f4 [15, 25]
-0.12432621 0.18205145 -0.2641442 0.2507468 -0.19095424 0.20488884 0.24560359 0.36502653
-0.04080534 -0.035892975 0.117882766 0.15815039 0.08853718 0.37592542 0.092781916 -0.22396566
-0.09279439 -0.46025568 0.20338376 -0.11187226 0.055484626 0.122386545 0.011341761 0.10333577
0.041301113 0.10280588 -0.11821872 0.36219162 -0.32495353 0.81495655 -0.1538511 0.25054097
-0.017678805 0.53305227 0.17896724 -0.16443755 0.47136366 -0.19061807 -0.023705702 0.29198328
0.41529685 0.5332571 0.14742382 0.14742242 -0.3631794 -0.3420602 0.09895378 0.34870374
-0.2839673 -0.1757411 -0.072669856 0.18352303 -0.032005895 -0.14875536 0.04714438 -0.19920953
-0.11558829 -0.0007636633 -0.24182202 -0.089870684 0.19797228 -0.001415734 0.008145701 -0.026114138
-0.12347856 -0.0477195 -0.20505384 -0.06054408 -0.07309848 0.0065621827 0.010405438 -0.13039833
0.007971245 0.120288014 0.13817167 -0.40302446 0.24260405 -0.33637837 0.27771056 -0.6096252
-0.07430691 0.19813454 0.19590242 -0.06432266 0.21613865 0.17918359 -0.23746511 0.18498243
0.103816465 0.082463644 -0.29271027 -0.14419676 -0.1984104 0.14085194 -0.13187584 0.31004682
0.046891827 0.24913023 0.29053077 -0.16124499 0.18015473 0.096825466 0.4472614 -0.24275501
0.6125699 0.1436951 0.06608294 0.026127055 0.023828305 0.11278708 0.037791908 -0.03813389
-0.23852023 -0.09496558 -0.046848834 0.34758258 0.19816798 -0.15565938 0.2686376 0.05482736
-0.37484372 -0.14749746 0.40853155 -0.08157481 -0.019863568 0.25151938 0.28298685 -0.011350537
0.56304926 -0.13937527 0.069935 -0.29420197 0.2674549 -0.051923297 0.15568344 0.0028180296
-0.30299658 0.5411235 0.36758184 -0.29834822 -0.29070038 0.19808172 1.0795418 0.32382458
0.56875 0.6418343 -0.027544491 -0.17352213 0.4396514 0.09461947 -0.22977984 0.36278003
-0.25636372 0.58812344 -0.37236494 0.4404334 -0.028456686 0.50653404 -0.4240439 0.14296171
0.19568676 -0.43478155 0.5033215 0.3783246 0.10978379 -0.30080488 -0.100700006 -0.15025379
0.14881943 0.37137768 0.3306705 -0.057824627 0.016012609 0.34503248 0.41208988 0.40842983
0.11164107 0.32302836 -0.14286089 0.79878086 -0.23443614 -0.069028296 -0.08043332 0.5637551
-0.10506433 -0.13134143 0.9245347 -0.011661035 -0.23939708 1.1462265 0.92963004 0.4172799
0.17498419 -0.13204019 -0.5864494 -0.067240946 0.04814715 -0.10008185 -0.06282173 -0.4780899
0.11215758 0.124815404 0.19260024 -0.12991706 0.4740351 -0.15065305 0.19874531 -0.3064174
0.31001142 -0.22482134 -0.14332396 0.6940581 -0.19397934 -0.037070267 0.67204857 0.74642336
0.6305294 0.33900222 -0.13418259 -0.2798735 -0.044559658 -0.11085095 0.19093819 0.07246641
-0.28629127 0.52437246 -0.12060118 0.3894577 0.017840259 0.440306 0.1113883 -0.17596279
-0.13670503 -0.2227667 -0.14382683 -0.19374123 0.59749246 0.16610044 -0.04381347 0.46892112
0.39847162 0.37515482 0.16334061 -0.23644735 0.107861795 0.09265585 -0.09511909 0.18824808
0.0742943 0.016185125 -0.08619623 0.11891653 0.18547173 -0.119026005 -0.07747175 0.08816061
00000000: bd9e febd b26b 3a3e e93d 87be e261 803e
00000010: 8289 43be 61ce 513e 827f 7b3e c2e4 ba3e
00000020: 8023 27bd 8304 13bd 856c f13d 2df2 213e
00000030: fb52 b53d 4c79 c03e 7204 be3d 4157 65be
00000040: fc0a bebd a2a6 ebbe d543 503e 491d e5bd
00000050: d943 633d cca5 fa3d cbd2 393c b4a1 d33d
00000060: 5b2b 293d e48b d23d a81c f2bd 2e71 b93e
00000070: 4f60 a6be fea0 503f 258b 1dbe e846 803e
00000080: 24d3 90bc 1d76 083f 3043 373e 5162 28be
00000090: 9456 f13e 6231 43be 7632 c2bc d57e 953e
000000a0: caa1 d43e 8a83 083f 45f6 163e e7f5 163e
000000b0: a6f2 b9be 8422 afbe 48a8 ca3d 4c89 b23e
000000c0: 2964 91be 7af5 33be efd3 94bd 76ed 3b3e
000000d0: 9d18 03bd 5353 18be 771a 413d 95fd 4bbe
000000e0: 8eb9 ecbd 9430 48ba 31a0 77be 1f0e b8bd
000000f0: 3fb9 4a3e 2690 b9ba 8c75 053c 51ed d5bc
00000100: 54e2 fcbd 8675 43bd a2f9 51be 12fd 77bd
00000110: a8b4 95bd 9407 d73b 927b 2a3c 2487 05be
00000120: d399 023c 9059 f63d e07c 0d3e 3959 cebe
00000130: 326d 783e c939 acbe 1430 8e3e 6610 1cbf
00000140: 392e 98bd c8e3 4a3e a59a 483e 99bb 83bd
00000150: 7353 5d3e e77b 373e 0e2a 73be 096c 3d3e
00000160: ba9d d43d b3e2 a83d 1fde 95be 51a8 13be
00000170: 192c 4bbe 7e3b 103e 760a 07be 75be 9e3e
00000180: a511 403d ff1b 7f3e 73c0 943e 681d 25be
00000190: 7b7a 383e 6e4c c63d 72ff e43e c594 78be
000001a0: 62d1 1c3f cf24 133e 7e56 873d 6808 d63c
000001b0: 9433 c33c eafc e63d b0cb 1a3d 4832 1cbd
000001c0: a63e 74be 507d c2bd 90e4 3fbd 58f6 b13e
000001d0: 8cec 4a3e 2c65 1fbe de8a 893e a792 603d
000001e0: 84eb bfbe 9309 17be 0c2b d13e b210 a7bd
000001f0: ecb8 a2bc 26c7 803e a7e3 903e 9af7 39bc
00000200: ff23 103f 64b8 0ebe 153a 8f3d a4a1 96be
00000210: d9ef 883e 86ad 54bd 7b6b 1f3e b1ae 383b
00000220: 5e22 9bbe 1287 0a3f b033 bc3e 19c1 98be
00000230: aed6 94be efd5 4a3e 6d2e 8a3f 56cc a53e
00000240: 9a99 113f 414f 243f fca4 e1bc c9af 31be
00000250: fd19 e13e dac7 c13d 684b 6bbe 4ebe b93e
00000260: 1b42 83be 428f 163f 9ea6 bebe 7d80 e13e
00000270: ff1d e9bc 37ac 013f 481c d9be 8e64 123e
00000280: 1c62 483e b09b debe aed9 003f c3b3 c13e
00000290: 53d6 e03d 1903 9abe ce3b cebd 21dc 19be
000002a0: 1f64 183e 3725 be3e a54d a93e 84d9 6cbd
000002b0: e02c 833c 19a8 b03e 72fd d23e b71d d13e
000002c0: 13a4 e43d f963 a53e 204a 12be e77c 4c3f
000002d0: 0710 70be b55e 8dbd 39ba a4bd 4152 103f
000002e0: f82b d7bd 5e7e 06be 4eae 6c3f ed0d 3fbc
000002f0: 8224 75be 8db7 923f 3cfc 6d3f b6a5 d53e
00000300: 0e2f 333e 8b35 07be 8c21 16bf 9fb5 89bd
00000310: f235 453d b7f7 ccbd aea8 80bd 33c8 f4be
00000320: e0b2 e53d 389f ff3d ff38 453e fa08 05be
00000330: bbb4 f23e cb44 1abe e483 4b3e bee2 9cbe
00000340: d1b9 9e3e 9137 66be 84c3 12be cbad 313f
00000350: 85a2 46be fed6 17bd 600b 2c3f 9a15 3f3f
00000360: 606a 213f b391 ad3e 2967 09be 944b 8fbe
00000370: 3084 36bd d305 e3bd 4d85 433e 4569 943d
00000380: c594 92be 463d 063f c0fd f6bd 0067 c73e
00000390: bc25 923c ca6f e13e 8d1f e43d 972f 34be
000003a0: 67fc 0bbe f41c 64be 5747 13be 1a64 46be
000003b0: 44f5 183f 3c16 2a3e c175 33bd 6e16 f03e
000003c0: 7904 cc3e 4b14 c03e c342 273e 411f 72be
000003d0: a5e6 dc3d 5ac2 bd3d cccd c2bd 1bc4 403e
000003e0: 9c27 983d ab96 843c a687 b0bd 828a f33d
000003f0: 4dec 3d3e e8c3 f3bd 82a9 9ebd 8d8d b43d

linear2.bias f4 [15]
0.1686485 0.23452394 -0.03952323 0.10313917 0.087912634 0.15234071 -0.005916959 0.622926
0.4723772 0.21866268 0.20044711 -0.21628803 0.090910815 -0.0606725 0.25543877
00000000: 31b2 2c3e 0b27 703e 1ce3 21bd a13a d33d
00000010: 8a0b b43d 34ff 1b3e 0de3 c1bb 1478 1f3f
00000020: 6ddb f13e 1ce9 5f3e 0242 4d3e 9c7a 5dbe
00000030: 732f ba3d ba83 78bd dfc8 823e

linear3.weight f4 [5, 15]
-0.046188883 0.28722423 -0.031915512 -0.16723992 0.1837609 0.49011108 0.029130057 0.28437242
0.32160833 0.5261928 -0.18249403 -0.035009757 -0.107593 -0.34034222 0.42330527 -0.25520957
0.16908818 0.21949986 -0.21047392 -0.18448073 -0.39603496 -0.5131861 0.6826879 0.629688
0.38581142 -0.17703755 0.09798217 0.041205354 -0.5930149 -0.3828668 -0.17158313 0.7069152
0.05464382 -0.30830467 0.72192836 -0.5622134 -0.5498966 0.20292544 0.43071455 0.12106719
0.25802085 0.24575034 0.004130126 0.55466014 -0.3022849 -0.0795903 0.36186415 -0.20097765
-0.06744813 -0.050124276 0.10384982 -0.37094435 0.4808363 0.4833402 0.039773006 -0.60240793
0.2284908 0.012631748 -0.41528362 0.25726718 0.34853095 0.23583077 0.099849656 0.3737631
-0.006492216 -0.3667483 0.10209377 0.4365131 0.18299535 0.18859853 0.12976283 0.08484143
-0.0018348339 3.9951512e-05 0.10865012
00000000: 8e30 3dbd 0e0f 933e d7b9 02bd f140 2bbe
00000010: d12b 3c3e d7ef fa3e 28a2 ee3c 4399 913e
00000020: d9a9 a43e 92b4 063f b7df 3abe 6466 0fbd
00000030: b859 dcbd 5641 aebe 78bb d83e d4aa 82be
00000040: 7425 2d3e 92c4 603e 7a86 57be 84e8 3cbe
00000050: 18c5 cabe 2a60 03bf a2c4 2e3f 3c33 213f
00000060: 1389 c53e 5549 35be e0aa c83d f2c6 283d
00000070: d3cf 17bf 1e07 c4be 7db3 2fbe 65f8 343f
00000080: 33d2 5f3d 1cda 9dbe 4cd0 383f 38ed 0fbf
00000090: 06c6 0cbf b0cb 4f3e 9e86 dc3e 13f2 f73d
000000a0: 4f1b 843e faa5 7b3e 0256 873b 35fe 0d3f
000000b0: 16c5 9abe 3d00 a3bd 4246 b93e 16cd 4dbe
000000c0: 3f22 8abd 1d4f 4dbd 37af d43d 6bec bdbe
000000d0: 2d30 f63e 5e78 f73e 05e9 223d 6837 1abf
000000e0: 7ef9 693e 64f5 4e3c 0ea0 d4be 86b8 833e
000000f0: a672 b23e 9f7d 713e fa7d cc3d e15d bf3e
00000100: a8bc d4bb 6fc6 bbbe 8a16 d13d a57e df3e
00000110: 2263 3b3e f91f 413e 8ce0 043e 58c1 ad3d
00000120: cf7e f0ba 9c91 2738 f483 de3d

linear3.bias f4 [5]
0.2738354 0.18150596 -0.19298272 -0.2134335 0.4158011
00000000: 2734 8c3e b3dc 393e 439d 45be 508e 5abe
00000010: e2e3 d43e
