model/a2model-deep.pth (torch, 6487 bytes, 6 tensors)

linear1.weight f4 [25, 25]
00000000: d945 bfbf 8de1 e8be 5222 03bf 5a98 143f
00000010: df9f 9b3f d0e7 5abe 4c07 733d 72c1 d83d
00000020: e7cc c23e 0f76 c43e faf3 8abe a686 a6bd
00000030: 0dfd 363d 1a55 393e eaa8 1fbe 1a85 6e3e
00000040: 5d19 fa3d 7d58 763c 6200 a93a 5757 443e
00000050: 20f9 78bb 9956 8a3e b1e0 563e 1f15 953e
00000060: d45b f73d 84f4 57be cb14 2e3f 2769 5a3f
00000070: 3652 f53e d574 97bf 898f 14be 6879 743d
00000080: e8ac ff3c 0a9d 793e a59d d4be 9c24 783e
00000090: 0616 383e 5e99 543d 1108 943c 6ad0 53bd
000000a0: 3afb 573e 7c6e 6c3d 81a2 ad3d 8fbe b4bc
000000b0: a944 193e ef7c 39be db38 373e c5f8 f43d
000000c0: 32c7 c23d 7858 84bd b2bd 84bf 90cd 51bc
000000d0: b176 97bf 2690 483f 9d6c 2e3f c4c4 b9bd
000000e0: a62c fd3c 188c a2bd 2e99 a73e a312 c33e
000000f0: e2b8 6cbc 2232 7bbc 4969 a93d 04b6 773e
00000100: 7317 1a3d 04bf 303e da23 9e3b 0db9 17bd
00000110: ae00 7e3e 53df 813e 96ed 923d 49ef 0c3e
00000120: daaf d3bc 4bf3 ec3d aee1 d83c 5f1c a43e
00000130: 40f3 d73e c5ad b03f fecb d8bd c04d 53be
00000140: 01aa 00be 6a1c 803e c54a be3e 355d 41be
00000150: 36f8 6fbd 28b4 57be 7319 b1bd 36f6 6bbe
00000160: dfcd b1be 5fb8 bcbc 1c9b 7fbe 825d 873d
00000170: 3e2f a7be 2727 683e 13c6 21be d54f babd
00000180: 9ed2 91bd c3dc 6f3e 8cc6 753d ab71 11bf
00000190: 4995 54bf 5a39 bc3e f29b 7fbf 09c1 4bbd
000001a0: e01a 463d 4f45 7abe a84d d43e 36c3 b0be
000001b0: cb6b 0abe a135 5ebd 6e58 f7bd 7ddc d83e
000001c0: 41aa a2be bf46 b03b ca90 09be abb0 be3d
000001d0: 094d d63d 443f 3f3e 49f8 a63e c532 1d3e
000001e0: 0d4f 043e 29cc 633e 7247 9a3e 9637 b73e
000001f0: 4099 ce3e d7d8 dcbe f8ae c03f e61a 8e3e
00000200: 8f12 1c3f 994a 06bf 1736 6dbe d697 1b3f
00000210: cd21 5dbd 2a71 903e 828d 053d 4685 4e3e
00000220: 4476 bb3e 7052 003e 7786 493e 28c6 1dbe
00000230: b22f 3b3e a0ad ba3e 840e d93c f345 82be
00000240: 640b 98bd b43e 8f3c 526b c5bd bfae 79bc
00000250: 9e83 e9bd ff46 63be a329 0040 b07e 5ebe
00000260: 348e 3bbf c286 613f 9283 d6be a195 e93e
00000270: 1131 5ebe ae7d 73be 69c9 8b3e b61c 99bd
00000280: 8dc1 663e 8309 e23d 5ffa 13bd 43ff 373e
00000290: 96f5 2d3e bbbd 0a3e cb6a a6bc a3a3 dc3d
000002a0: 109b 003e 1d4b 703c bdc4 493e 157b d33d
000002b0: b8cd c73d 7475 173e f0bb 1a3e e645 03bd
000002c0: 397b 7b3f fc7e f53e 0be3 213f fb7e 86bf
000002d0: 3f88 87be 0cbd 193e ebdc 753e 02c6 353e
000002e0: e631 a8be fd8b e93d bd43 4b3e fb2c d03e
000002f0: d034 8fbb a0ec e1ba 8e08 24be d53f 8e3e
00000300: 13fc a1bc d446 0a3e fe3b 0ebd 9dd6 93bb
00000310: e972 2fbd ce99 26bd d93f 0cbe 99ff 11bd
00000320: cf2e b83f 0d23 b53e ca28 b3be 64b6 fdbf
00000330: 77d8 3f3e 2285 8d3e 4b0b 883e 2f81 5abd
00000340: a81a 3abf 9228 103e 60fc 3a3e a393 a73d
00000350: 2708 f8bd 4d9a 82be f965 973e 6a16 183e
00000360: a2bb 003e f924 393e 09c4 293d 72e7 9f3d
00000370: ea75 a13e 1756 c03e 5961 9d3e 1f8b 073d
00000380: ce4f 3c3e 1b0a 9e3f 9aab b33f a614 79be
00000390: 6f9c 7abe c9e5 00be 2d44 dcbc 4f51 103e
000003a0: 2f8e a63c 6f72 50bd 3c86 b23c f507 89bd
000003b0: c086 173e 32c5 09bd 703f 483e d719 edbd
000003c0: 24d4 233e 635a 923e b2ce 0f3e 2a7b 3bbd
000003d0: 4e1e 68be 8a5a 61bd ec3f 6f3d f50f 183b
000003e0: 56b0 953c 1c4e 5dbd cf29 893f 8970 383d
000003f0: 8a90 5cbe e06c 8a3f f217 fcbe 13cc 7a3e
-1.4943191 -0.45484582 -0.51224244 0.5804497 1.2158164 -0.21377492 0.05933313 0.10583772
0.38046953 0.38371322 -0.27139264 -0.08131151 0.04467492 0.1809887 -0.1559178 0.23292962
0.12211869 0.015035746 0.0012893791 0.19173943 -0.0037990287 0.27019194 0.2098415 0.29117677
0.12078062 -0.21089369 0.6800048 0.853167 0.47914284 -1.1832529 -0.1450788 0.059686095
0.031210378 0.24376312 -0.41526523 0.24232715 0.17977151 0.051904075 0.018070253 -0.05171243
0.21091929 0.057722554 0.08478261 -0.022063522 0.14967598 -0.18114065 0.17892782 0.119615115
0.0951065 -0.064621866 -1.037039 -0.012805358 -1.1833097 0.78344953 0.6813448 -0.09070733
0.03090508 -0.07936877 0.32734054 0.38100156 -0.014448376 -0.015331777 0.08272035 0.24190527
0.03762002 0.17260367 0.004826051 -0.037041713 0.24804947 0.25365695 0.07174222 0.13763155
-0.025840688 0.11569842 0.0264748 0.32052895 0.42177773 1.380303 -0.105857834 -0.20635128
-0.12564851 0.25021678 0.3716642 -0.18883212 -0.05858632 -0.21064818 -0.08647432 -0.23043141
-0.3472738 -0.023037134 -0.24961513 0.06609632 -0.3265323 0.22671185 -0.15798216 -0.09097258
-0.0712025 0.23424058 0.060003802 -0.5681407 -0.8304029 0.36762506 -0.9984733 -0.04974464
0.048365474 -0.24440502 0.41465497 -0.34523934 -0.13517682 -0.054250363 -0.120774135 0.4235572
-0.31770518 0.0053795273 -0.13434139 0.093110405 0.10463912 0.18676478 0.32611302 0.15351398
0.1292078 0.2224585 0.30132633 0.35784596 0.40351295 -0.43134186 1.5053396 0.27754897
0.6096582 -0.52457577 -0.23165165 0.6077856 -0.053987313 0.28211337 0.032605655 0.20168027
0.36613667 0.12531447 0.196802 -0.15407622 0.18279913 0.3646059 0.02649618 -0.25443992
-0.074240476 0.017485954 -0.0963961 -0.015239417 -0.11402057 -0.22195052 2.0025413 -0.21728015
-0.7326386 0.8809625 -0.41897255 0.4562197 -0.21698405 -0.23778412 0.273021 -0.07476179
0.22534771 0.110369705 -0.036127444 0.17968468 0.16988215 0.13548939 -0.020314595 0.10773399
0.12559152 0.014666346 0.19703956 0.103262104 0.097560346 0.14790899 0.15110755 -0.032049082
0.982349 0.47948444 0.63237065 -1.0507501 -0.26471135 0.15013522 0.24010055 0.17751315
-0.3285057 0.11403654 0.19850059 0.40659317 -0.0043703094 -0.0017236657 -0.16018888 0.27783075
-0.019773519 0.13503581 -0.03472518 -0.004511668 -0.042834196 -0.040674023 -0.13696231 -0.035644148
1.4389285 0.35378304 -0.34992057 -1.9821286 0.18734919 0.27640635 0.26571116 -0.053345855
-0.72696924 0.14077976 0.18260336 0.08182456 -0.1211093 -0.25508347 0.29569986 0.148523
0.12571576 0.1808051 0.04144672 0.078078166 0.31535274 0.3756568 0.30738333 0.03309166
0.18389818 1.2346834 1.4036744 -0.24324283 -0.24473737 -0.12587656 -0.026887977 0.14093517
0.02033147 -0.050890382 0.021792524 -0.06690971 0.14797497 -0.033635326 0.1955545 -0.11577194
0.15998894 0.28584585 0.14043692 -0.045771755 -0.2266781 -0.055017985 0.05841057 0.002320287
0.01827256 -0.05402957 1.0715884 0.045029197 -0.21539512 1.0814476 -0.4923702 0.2449191

linear1.bias f4 [25]
00000000: 736c 033f a76f 99bb 24e6 b43e 36ac 10be
00000010: 032b a53f 39cc b6bd 2dc1 103e 465a fbbd
00000020: aa28 603f 690f 54be f940 90be 2884 cb3f
00000030: 08ac a63c 380f 98bd 9abc d23f 4675 c63f
00000040: 356e b43f 76a8 8f3d 470b 83bd d495 78be
00000050: d6a1 b9bd 29b2 73be 938b 263c 5b1b a5be
00000060: c9f0 0ebe
0.51337355 -0.0046824994 0.35331833 -0.14128193 1.2903751 -0.08925671 0.1413619 -0.12273078
0.8756205 -0.20709004 -0.2817457 1.5899706 0.020345703 -0.07424778 1.6463807 1.5504539
1.4096133 0.07014553 -0.06398635 -0.24275905 -0.09064071 -0.23798431 0.010165113 -0.32247433
-0.1395904

linear2.weight f4 [15, 25]
00000000: 9f10 01bf 11ba fd3e de1a e5be e4e6 aa3e
00000010: ca41 26be 0bff da3e 872a 973e 21c1 0c3f
00000020: 8a43 55be ff26 1ebd 5302 683e 13ab d83e
00000030: 3fd9 aa3e 04cf 433f 4e3b 133f 8d1e 20be
00000040: f8b9 59bd c2d3 42bf ae1d 0d3e 9c5a 64be
00000050: 7d2d 9a3d cca5 fa3d 5594 d93d 74cf 853e
00000060: 200e 12be bd18 98bd 5ab2 80bd f364 503e
00000070: ec63 29bf d938 993f f3e5 0d3c 9881 4b3e
00000080: 56dc ecbc 2a47 6f3f 31ba af3e 193b 9abe
00000090: b309 373f 3b92 15bf b452 80be d8bc b43e
000000a0: 88f4 193f 89d9 783f 6339 06bd b1b5 743e
000000b0: bf26 e2be ac4c 22bf 48a8 ca3d 445d 113f
000000c0: 1e5d 3ebf 8489 9abe b78f d33e bc16 c63e
000000d0: 8a34 d43e 0c0f 91be 7616 12ba 1cd5 a6bd
000000e0: 3bb3 5ebd d073 7a3d 2871 8bbf b0e1 e4be
000000f0: 7c6f d03e a10a 0a3e 5dd6 d73e 04d9 203c
00000100: 48c5 c03e b8ad 2d3e c900 a8be 3f61 06be
00000110: ff90 8ebe 8b62 5d3e 46e8 3abe 2487 05be
00000120: dc8a dabd 24aa 513e 70a0 3b3f cd7e 5cbf
00000130: fb6a db3e 6a78 21bf 1445 043f 01ff 2fbf
00000140: e5bf c4bc d2d5 dd3e 3e0a b43e 3843 f13d
00000150: 7ac1 a53e e276 ac3e 40ad 57bd a074 ba3e
00000160: afcd 073f f23e fe3e 9439 87be a743 45be
00000170: 79f9 8dbe ec72 723e bb3c 9ebe e9e9 023f
00000180: a511 403d 39b2 8b3e eee3 0e3f cd12 b7be
00000190: 90ac b13e 177d 1f3e 0e3a 173f 73cd 3bbf
000001a0: 40da 603f 73d3 c83e dd0b 6d3c 86c2 313d
000001b0: 21fb 903d e754 6e3e cdef 02bc e176 8dbb
000001c0: ea34 0fbf 199a e9be 1eee 77be 89fb af3e
000001d0: be24 d73e 113b 5bbe 510a 9b3e f3fe 883e
000001e0: 3e97 2ebf 9309 17be 228c 283f 6202 21bf
000001f0: be22 c23d 8351 d03e 908c 9c3e 511a d03d
00000200: ea3b 133f c53a 80bd 98ac 563e 28b0 35bf
00000210: fe10 813e c4bb 48be da35 8d3d 3e7a 70be
00000220: 015d 97be 7ab7 263f 148b a13e df58 13bf
00000230: 3f53 c6be a4a6 ab3e 5765 853f da69 e53d
00000240: a478 283f f1b2 3a3f fca4 e1bc e3ca 54be
00000250: f678 c73e c925 2bbe 2c3d 8ebe 7543 183f
00000260: 7de4 19be 2d94 2b3f 136d c0be 4e7f 2a3f
00000270: 9e8a 47be 7362 1b3f f972 50bf 8e4d 6b3d
00000280: 3ea6 2f3e 5e12 b9be 09f9 3c3f b2bd 113f
00000290: 9867 1d3e 33f5 b0be 24f2 05be 339c ccbe
000002a0: 0f47 35bd 8620 cb3e 0873 a73e 84d9 6cbd
000002b0: 4803 b53d aab3 d73e 900f 863e 9890 2b3e
000002c0: d2fa 9b3e d153 303d 57b0 82be 6841 663f
000002d0: 2351 5abe 25e7 2cbe 4c59 74bd 6c76 073f
000002e0: 2c1a 8fbe 3b49 45be d6e1 b33f 4a19 3d3e
000002f0: a481 57bd 69de ef3f fdbf ab3f ae5c 353f
00000300: d0ca 05be 2060 84be fad6 5dbf 59dc 0abe
00000310: f235 453d 591f b1be ade4 82bd 1821 2ebf
00000320: 79c3 c93d 26e3 223e d8a7 d13c 51ac d2be
00000330: 5a47 413f b613 81be fe8b ffbb ce0c d7be
00000340: 3ba4 c23e bbbc d8be 05fa b1be 3a3b 953f
00000350: a659 7bbe 466b 1bbe c8cf a33f d1d4 a43f
00000360: b7d4 903f 438d d93d be6b 8bbe e08b 08bf
00000370: d636 76be d305 e3bd c08b 9dbd a076 31be
00000380: 6a61 e8be 43c5 5e3f db3a a03d ae66 283f
00000390: a2b0 5bbe 71e0 1b3f 5a17 853e 878c 1bbf
000003a0: f8ed 1abe d530 81bf e136 edbe 4110 9fbe
000003b0: 7453 693f 00a8 e53e deee 94bd f2ea 5c3f
000003c0: f5d3 213f 1196 1d3f 33e5 08be 37e1 15bf
000003d0: 7057 2b3e e8f8 02be cccd c2bd f6a0 833d
000003e0: 9263 30bd 2114 3a3e eb2a 343e 9428 743e
000003f0: 2550 ff3e 2e66 a0be a524 98bc 5e25 3f3e
-0.50415987 0.4955602 -0.4474706 0.3337928 -0.16236034 0.42772707 0.29524633 0.5498219
-0.20826545 -0.03861141 0.22657137 0.4231802 0.3336887 0.76487756 0.57512367 -0.15636654
-0.05315587 -0.76104367 0.13780853 -0.2230019 0.075282075 0.122386545 0.10623995 0.26134837
-0.14263201 -0.074265935 -0.06284018 0.20351009 -0.66168094 1.1970474 0.008660781 0.19873655
-0.028913658 0.9346796 0.3432174 -0.30123213 0.71499175 -0.58426255 -0.25063097 0.35300326
0.6013875 0.9720693 -0.032769572 0.23897435 -0.44170186 -0.6339824 0.09895378 0.5678294
-0.74360836 -0.3018304 0.41320583 0.3868922 0.41446334 -0.28331792 -0.0005572805 -0.08146116
-0.054370146 0.061145604 -1.0893908 -0.44703436 0.40710056 0.13480617 0.42155734 0.009817366
0.37650514 0.169608 -0.328131 -0.13123034 -0.27844998 0.21619622 -0.18252668 -0.13039833
-0.106710166 0.2047506 0.73291683 -0.8613098 0.42855057 -0.6307436 0.51667905 -0.6874848
-0.024017284 0.43327194 0.35164064 0.11780399 0.32374173 0.3368445 -0.05265546 0.36417103
0.53048223 0.49657398 -0.26411116 -0.19264089 -0.27729395 0.23676652 -0.3090571 0.5113817
0.046891827 0.2728441 0.55816543 -0.3575653 0.34701967 0.15575062 0.5907296 -0.73360366
0.87833023 0.39223823 0.01446816 0.043398403 0.07079149 0.23274575 -0.007991743 -0.00431715
-0.55940115 -0.4562538 -0.24211928 0.34371594 0.4202022 -0.21409251 0.30281308 0.2675701
-0.6819953 -0.14749746 0.65838826 -0.6289426 0.09479283 0.40687189 0.3057599 0.101612695
0.57513297 -0.062612094 0.20964277 -0.7097192 0.25208277 -0.19602877 0.06895037 -0.23484132
-0.29563144 0.65123713 0.3155142 -0.5755748 -0.38735387 0.33525574 1.0421551 0.1120183
0.65809083 0.7292929 -0.027544491 -0.2078052 0.38959473 -0.16713633 -0.27781045 0.5947793
-0.15028568 0.67022973 -0.37583217 0.666005 -0.19486472 0.60697097 -0.81425434 0.05744701
0.1715326 -0.36146826 0.738175 0.5693008 0.15371549 -0.34562072 -0.1308065 -0.3996292
-0.04425722 0.3967325 0.3270495 -0.057824627 0.088385165 0.4212926 0.26183748 0.16754377
0.30464798 0.043048684 -0.25525162 0.8994355 -0.21320014 -0.1688505 -0.059655473 0.5291507
-0.27949655 -0.19266216 1.4053295 0.18466678 -0.05261387 1.8739749 1.3417965 0.7084454
-0.13065648 -0.25854588 -0.86656153 -0.13560618 0.04814715 -0.3459423 -0.06391273 -0.6801925
0.098517366 0.15906963 0.02559273 -0.41147092 0.754995 -0.2521035 -0.007798671 -0.42001957
0.38015923 -0.4233149 -0.34761062 1.16587 -0.24545917 -0.1517764 1.2797785 1.2877446
1.1314915 0.10622647 -0.27230638 -0.5333843 -0.24044356 -0.11085095 -0.07692671 -0.17330408
-0.4538682 0.8701975 0.07823726 0.65781677 -0.21454099 0.60889345 0.25994378 -0.607613
-0.1512984 -1.0093027 -0.46330932 -0.31067088 0.91142964 0.44854736 -0.07272123 0.86296
0.63214046 0.6155711 -0.13368683 -0.58546776 0.16732574 -0.12790263 -0.09511909 0.06427185
-0.043063708 0.18171741 0.17594497 0.23843604 0.49865833 -0.31327957 -0.018572161 0.18666598

linear2.bias f4 [15]
00000000: b010 423e aaf6 543f d52e 97bd 572d 093e
00000010: 300f 023e efd8 4bbd abf2 e8be b2d7 c23f
00000020: 3e6d d93f fcf8 003f 2b4c b23c dd29 793e
00000030: 90ba a33e 400e a3be 65de e23d
0.18951678 0.8318888 -0.073819794 0.13396202 0.12701106 -0.04976743 -0.4549764 1.5222075
1.6986463 0.5037992 0.021764835 0.24332376 0.31978273 -0.3184681 0.11077575

linear3.weight f4 [5, 15]
00000000: b722 e73b f122 a73e ffba cf3e 5475 28bf
00000010: 54fe c23e c9ce e93e 7cb9 b53c c8b1 f13e
00000020: 305d 003f 4892 7c3f af44 cbbd a418 3abf
00000030: 47b1 d5be 1238 dabe 5b54 3a3f bcef 55be
00000040: c584 ca3d 64a9 313f 300a afbd 6c44 cabe
00000050: b710 b4be fbc8 0dbf 0e9b 5c3f f42a 443f
00000060: 4a60 013f 7330 5b3b 16a8 993e 4dbe 593f
00000070: 4432 53bf ddc0 b5bf a99f f8be 3cb9 633f
00000080: 9c88 87bd 890a 17bf fda9 753f 4afe 11bf
00000090: 363e 34bf f4a6 7c3e 6d30 023f 1c15 283e
000000a0: 13bf c13e 6d20 0d3e bfca b1bd 5aaa 483f
000000b0: ba6f cdbe 8a8a 80bb 5bd6 203f 423a 77bf
000000c0: 8974 9c3e 4585 15bd 7620 173e 8fd3 f0be
000000d0: d31a 203f b9fb 1c3f 82f4 52be 9fb1 8fbf
000000e0: c55e 503f 7f76 a23d 65f6 eabe 9b51 163f
000000f0: bc50 ab3f c26a c63e 6da5 e23d 7439 453f
00000100: 15f0 b5bc 7c19 12bf 6ee7 443e 5fa2 363f
00000110: 1c29 c33e ce9e 953e 7ab8 773e cc15 4e3d
00000120: 924a 7d3e aac7 343d 2a39 8b3e
0.007053699 0.32643846 0.40572354 -0.6580403 0.38084662 0.45665577 0.022183172 0.4720595
0.5014219 0.9866071 -0.0992521 -0.7269385 -0.41736814 -0.42620903 0.72784966 -0.20892233
0.09888605 0.69399095 -0.08546865 -0.39505327 -0.35169002 -0.55384797 0.86174095 0.7662804
0.5053755 0.0033445626 0.30011052 0.85056 -0.82498574 -1.4199482 -0.4855931 0.8895452
-0.06617853 -0.5900045 0.95962507 -0.5702864 -0.70407426 0.24673063 0.5085514 0.16414303
0.3784109 0.137819 -0.08681249 0.78384936 -0.40124303 -0.003922765 0.6282708 -0.9657327
0.3055766 -0.03650405 0.14758477 -0.47036406 0.6254093 0.613216 -0.20601085 -1.1226081
0.81394607 0.079327576 -0.4589111 0.5871827 1.3384013 0.38753325 0.11066709 0.7704079
-0.022209207 -0.57070136 0.19228908 0.7134151 0.381173 0.2922272 0.24191466 0.050313756
0.24735478 0.044135727 0.2719205

linear3.bias f4 [5]
00000000: c851 ad3e 3685 3d3f 5c97 05bd cae1 2d3e
00000010: 802d 1a3f
0.33851457 0.7403139 -0.03261505 0.16980663 0.6022568
