model/a2model-deep.pth (torch, 7767 bytes, 6 tensors)

linear1.weight f4 [25, 25]
000000 41 ed c9 3e 50 5f cc 3d 76 bc b5 3d de 35 b6 bd
       0.39438823 0.09979117 0.08873837 -0.08896993
000010 3f 89 4b 3e 0d ac b2 3e 77 1e 2b 3e 3d f3 8f 3e
       0.19876574 0.3489689 0.1671084 0.28115264
000020 24 b5 20 3e 2a 7b 05 3e a6 12 71 3e 7a b9 aa 3d
       0.156941 0.13035265 0.2354227 0.08336158
000030 53 1f 21 3e e9 27 77 3e f6 f6 9f 3e ae 1e 94 3d
       0.15734605 0.24136318 0.31243104 0.07232414
000040 01 8e eb bd 44 01 34 3d ae 8b ab bd e7 39 d4 bc
       -0.115016945 0.04394652 -0.08376251 -0.025906516
000050 f1 cc 82 3e b4 d3 c7 bd 50 4d 63 3e a3 ba 54 3e
       0.25546983 -0.09757176 0.22197461 0.20774321
000060 b3 4d 84 3e de c0 83 3e 90 8a 6d 3e 12 ef c8 3e
       0.2584053 0.25733083 0.23197389 0.39244896
000070 05 de b7 3c 89 eb aa 3e 1e 08 39 3e ee 86 8c 3e
       0.022444734 0.33382824 0.18069503 0.27446693
000080 aa a2 63 3e 42 d5 98 3e 47 32 6b 3d 4d 9c ca 3e
       0.2223002 0.29850203 0.057420995 0.39572373
000090 51 39 d5 bd dc 34 3d bd c2 d6 4d 3e 0d e3 02 3e
       -0.10411323 -0.04619299 0.20101455 0.12781925
0000a0 3c 93 c0 3d 1c c1 0a 3e cf aa 8c 3e fc 26 41 3e
       0.09403083 0.13550228 0.27474067 0.18862528
0000b0 8f db 86 3e 15 e6 7d 3e 95 d0 00 bb 1c 66 b0 3d
       0.26339385 0.247948 -0.0019655575 0.08613226
0000c0 24 71 91 3d b3 99 c6 bd 5a 0b da 3d 75 f6 3a 3e
       0.07101658 -0.096972845 0.106466964 0.18258078
0000d0 11 c1 dd 3d 76 0c ad bb ba e5 b4 3e a1 2e 80 3e
       0.1082784 -0.0052810265 0.35331517 0.25035575
0000e0 66 0a 7b 3e c1 d8 86 3e 87 ea 89 bd f5 83 7d 3e
       0.24515685 0.26337245 -0.06734186 0.24757369
0000f0 77 c4 03 3e 0b 22 71 3e 6a 3e cb 3d 3d 12 94 3d
       0.12867914 0.23548143 0.09924014 0.07230041
000100 88 87 8f 3e ba 1f 50 3d 43 e2 aa 3d 3d f4 15 3e
       0.2803309 0.050811507 0.08343937 0.14643951
000110 94 9a 2c 3e 12 f5 a6 3e 1f e1 96 3d d4 79 5f 3e
       0.16855842 0.3260885 0.07367157 0.21823817
000120 28 75 ad 3d f7 9d bf bd 93 bd 45 3e 37 27 88 3e
       0.084696114 -0.09356301 0.19310598 0.2659242
000130 a2 82 65 3d 49 c9 cc 3d ff c4 b5 bd 71 79 98 3c
       0.056032784 0.099993296 -0.08875465 0.018612595
000140 61 a8 81 3d 52 56 1b bd 5d 55 fb bd 46 9f 09 3d
       0.06330944 -0.03792412 -0.12272141 0.03359916
000150 5e b1 9f 3d d7 9e 33 bc bb e1 5e bd b6 52 99 3d
       0.07797502 -0.010963163 -0.054414492 0.07486479
000160 3c cb f3 3d 25 a9 a6 bd d9 5c 33 3e 17 e2 30 be
       0.11903998 -0.081377305 0.17515887 -0.17273746
000170 67 af 03 3e 80 f3 05 bc 8c 2a 83 3c a0 8a e9 3d
       0.1285988 -0.008175731 0.016011499 0.11403394
000180 30 b0 0d be 89 97 dd bd 21 15 f3 bd 66 17 52 3e
       -0.13836741 -0.10819919 -0.118692644 0.20516738
000190 6d 6f 05 bf a0 9d d6 3d 15 05 e8 bd 40 35 22 3e
       -0.5212315 0.10479283 -0.11329094 0.15840626
0001a0 ee cb 30 be e3 e2 72 3d 8c 87 1b be cc 8e fe bd
       -0.17265293 0.059298407 -0.15188426 -0.1242958
0001b0 cd f2 2c 3e 71 0c 61 be e1 dd 95 3d 0f 57 58 3e
       0.16889496 -0.21977402 0.07317711 0.2112696
0001c0 0b 77 d4 bc 2b 09 1b 3d 5f 54 bf 3c 63 67 d3 bd
       -0.02593567 0.03785054 0.023355661 -0.10322454
0001d0 6e d1 4b bd e4 13 be bb 61 9d 49 bc 42 13 f0 3d
       -0.049760275 -0.005800711 -0.012305588 0.11722423
0001e0 07 c1 fc 3d 15 04 2c 3e ac e4 0a bc b5 6e e4 bb
       0.123415045 0.16798432 -0.008477371 -0.006971205
0001f0 fd 47 6d 3e 28 14 69 3d ba c4 aa 3d 2d 35 3c be
       0.23171993 0.056903988 0.08338304 -0.1837966
000200 8a bf 0a be 12 06 cb bd 1c 97 d2 3d 1a 39 f9 3d
       -0.13549629 -0.09913267 0.10282728 0.121690944
000210 21 f9 00 3e 2e a2 06 be cc 77 3c 3d dc 9e 2d 3e
       0.12595035 -0.13147804 0.046012685 0.16955131
000220 40 b4 3b be 8a 76 48 be e2 91 43 bc ff b9 1e be
       -0.18330479 -0.19576469 -0.011936637 -0.1550064
000230 76 5e 96 3c e4 c6 00 be 95 b9 c8 bb ff 17 4a be
       0.01835559 -0.12575871 -0.0061256387 -0.19735716
000240 6e ad 6b 3c 9e 6f f7 bd 1f 93 16 bb b0 d0 04 be
       0.014384611 -0.12081836 -0.0022975875 -0.12970233
000250 96 1f 12 3e 05 6e 42 be fa 4a bf 3d 4e ae eb 3c
       0.14269862 -0.18987282 0.093404725 0.028769638
000260 85 d4 89 3e df 20 27 bd 7e 67 82 3e eb cb 88 3e
       0.26919952 -0.040802833 0.25469583 0.26718077
000270 49 e0 7e 3e 5e 68 16 3e 50 7f d8 39 67 d1 74 3e
       0.24890245 0.1468825 0.00041293586 0.23908006
000280 40 eb c5 3e 99 be 52 bd 68 18 5b 3e 7a d2 33 3e
       0.38656044 -0.0514513 0.21396029 0.17560759
000290 15 1f 8b 3e 4b 62 a2 3e d4 4e b2 bd 4b 2e 54 3e
       0.2717215 0.31715617 -0.087064415 0.20720784
0002a0 9b df 35 3e 02 9c 15 3e ad b1 87 3d ce af 20 3d
       0.1776108 0.14610294 0.06625686 0.03923016
0002b0 a7 61 07 3e 00 fa 7f 3e 00 6c 44 bd d5 c7 9e be
       0.13220845 0.24997711 -0.04795456 -0.31011835
0002c0 53 ac 76 ba 98 fc ec bc 6b f6 bd bd 69 38 54 be
       -0.00094098336 -0.02892904 -0.09275516 -0.20724644
0002d0 52 00 08 be 8a f3 f8 3d ae 7f 46 be ca 21 89 3d
       -0.13281372 0.121558264 -0.19384643 0.06695898
0002e0 aa 6d 0b be d9 7e d2 bd 99 82 c2 bd 34 6e 03 be
       -0.13616052 -0.102781005 -0.09497566 -0.12835008
0002f0 af 69 2d 3d 4f 4d 7b 3d 8d 74 e5 bc 8a fd 6c 3e
       0.042337116 0.061353024 -0.028009677 0.23143592
000300 2a df 1c bd b5 67 a0 3d ca ab af bc 69 1a 76 3e
       -0.038298763 0.078322805 -0.02144422 0.24033512
000310 83 ac 29 3d 5c f1 ab 3e 93 9f 83 3e 76 0e 9f 3e
       0.041424286 0.3358258 0.25707683 0.3106572
000320 71 6b 1a 3e 88 b5 8a bd ab d3 9f 3d 75 bb 05 be
       0.15080048 -0.067729056 0.07804044 -0.1305979
000330 f8 35 29 3e 96 5a f0 bc 41 f1 ec bd 6d 89 ac 3b
       0.16524494 -0.02934007 -0.11569453 0.005265406
000340 e7 93 9b bd 75 2d 90 bd e1 38 24 be 5c cb 0b 3e
       -0.075965695 -0.0703992 -0.16037323 0.13651794
000350 a0 8e 2e be 57 87 0e 3e 24 e8 b6 bd 59 88 32 bd
       -0.17046595 0.13918816 -0.08930996 -0.043587063
000360 41 45 45 3d 08 78 49 be 06 7b dd bc 02 e8 99 bd
       0.04816175 -0.19674695 -0.027036201 -0.07514955
000370 41 ce 71 be 04 e0 25 be 3f d0 a9 bd e7 da ef 3d
       -0.23613836 -0.16198736 -0.08291673 0.11711674
000380 14 37 20 3e 06 3c cd 3e 23 fb 49 bc 50 72 cc 3d
       0.1564601 0.40084857 -0.012327942 0.09982741
000390 8f a4 2b 3e b9 d1 83 3e 1d 13 88 3e e0 60 f0 3d
       0.16761993 0.25745943 0.26577082 0.117372274
0003a0 c5 30 b0 bc 81 6c 87 3e 85 87 d2 3e 66 38 51 3e
       -0.02150763 0.2644997 0.41119018 0.2043167
0003b0 88 e4 22 3e 6f 4f a7 3e f9 1f 8a 3e d6 a5 97 3e
       0.1590749 0.3267779 0.26977518 0.2961871
0003c0 de 1e 2a 3e 30 c7 90 3d 1b fa a4 3e 11 c5 20 bb
       0.16613337 0.07069242 0.32222065 -0.0024531523
0003d0 cf 45 b4 3e ef 72 cc ba 7d 42 16 3e 50 c9 07 3d
       0.3520951 -0.0015598218 0.14673801 0.03315097
0003e0 60 d0 6b 3e a6 99 d6 3d 0e b6 0e be 87 71 c2 bc
       0.23028708 0.10478525 -0.13936636 -0.023735775
0003f0 80 26 ab bd e0 19 1e be 16 43 19 3e 6e f3 63 3c
       -0.08356953 -0.15439558 0.14966998 0.013913019

linear1.bias f4 [25]
000000 a8 b1 99 bd 15 28 d9 bd 45 c9 2a bc 13 3a 11 3d
       -0.07504588 -0.10603348 -0.010423963 0.035455775
000010 44 10 6a 3e d2 9f 5c be 27 44 e9 bc c7 b6 08 3d
       0.22857767 -0.21545342 -0.02847488 0.033377435
000020 86 78 49 bd 9e b1 80 bd 9c d8 2a 3e dd 09 72 3c
       -0.049187206 -0.06283878 0.16684192 0.014772859
000030 a7 2d b2 bd 66 19 24 bd 4e d1 4c 3e 45 19 09 3a
       -0.08700114 -0.040063284 0.20001718 0.00052299007
000040 2e 33 e7 bc ff 2d 37 3e e0 41 bb bd 3a 3a 38 bd
       -0.028222647 0.1788864 -0.09143424 -0.044977404
000050 b7 23 8d 3e ea 8e 4e 3c c2 49 d6 3d d1 13 87 3d
       0.2756631 0.012607316 0.10463287 0.065955766
000060 77 b9 9b 3e
       0.30414936

linear2.weight f4 [25, 25]
000000 c7 a3 7d 3e 3a fa 9a 3d 04 4e 11 3e f8 fa a8 bd
       0.24769507 0.07567258 0.14189917 -0.082509935
000010 70 54 33 be 09 ba 30 be c6 0b d4 bc 1e a5 85 bd
       -0.17512679 -0.17258467 -0.02588452 -0.06525634
000020 f8 57 6a be 7e 33 af 3e b1 aa e3 bd a8 a6 8c 3e
       -0.2288512 0.34218973 -0.11116541 0.274709
000030 06 cf 7e be 89 54 40 be b0 66 c1 bd 3d be 96 be
       -0.2488366 -0.18782248 -0.09443414 -0.29442015
000040 25 4a a5 3d 68 ee 64 be d4 c3 15 3e 2e 60 77 bc
       0.080707826 -0.2235657 0.14625484 -0.015098615
000050 56 e0 11 3d bf e1 60 bb 0c 5f 3e 3d f4 66 15 bd
       0.035614334 -0.0034314243 0.046477363 -0.036475137
000060 d7 93 75 be 9d 5a a8 3e c2 21 20 3e 7b 69 1e 3e
       -0.23982178 0.32881632 0.15637878 0.15469925
000070 8d 31 cc bd 05 9f 2a be 00 3a 34 be 0c 9d b0 3e
       -0.099703886 -0.16662224 -0.1760025 0.34494817
000080 d5 7b 3f bc 71 b1 ca bd c9 f9 95 3d 6a 63 e6 3d
       -0.011687239 -0.098971255 0.07323033 0.112494305
000090 21 3e 47 bd bf 34 91 3d 98 14 ee bd 04 39 e5 3d
       -0.048643235 0.07090139 -0.11625022 0.111925155
0000a0 cd 1b 46 be ed 92 62 bd 6e da b9 bd 0a c3 1b be
       -0.19346543 -0.0553159 -0.09074865 -0.1521112
0000b0 e9 a8 b0 3e bb b5 9d bb 09 8f f1 3c ff c8 1b 3e
       0.34503868 -0.0048129237 0.02948715 0.15213393
0000c0 5d 5e 1b be 45 fd a4 bd 9b cd b4 bb a8 d4 3c be
       -0.15172715 -0.0805612 -0.005517674 -0.18440497
0000d0 a4 84 2f bd b8 06 3f 3c ec 30 3c 3d a8 76 f7 bb
       -0.042851105 0.011659317 0.045945093 -0.0075519867
0000e0 2e ff 80 bc c4 18 93 3e 0d 7b 10 3d 41 79 a9 3d
       -0.01574668 0.28729832 0.0352736 0.082750805
0000f0 71 8c 33 be be 29 37 3e 4c 9e 89 bd ae c8 76 3d
       -0.17534043 0.17887017 -0.06719646 0.060249977
000100 06 93 f4 39 53 8a 3e 3e 92 0f 14 be 48 ab 89 3e
       0.00046648848 0.18607454 -0.14459065 0.2688849
000110 23 92 06 3d 8e 86 53 bd 78 a1 d2 3c 52 64 de bd
       0.03285421 -0.051641993 0.02571176 -0.10858978
000120 a3 56 e5 3d b8 6e 52 bd 9a d5 ac 3e db 06 4d 3e
       0.11198165 -0.05137512 0.33756715 0.20022146
000130 27 f7 7e 3e 8a c5 6f bd 65 7f fc bd df 5b 6a bd
       0.24898969 -0.058537997 -0.12328986 -0.05721652
000140 f6 af c1 3d 29 3e 82 3e 81 97 f8 bd d2 6a 79 3d
       0.0945739 0.2543805 -0.12138272 0.060892887
000150 db 5d 81 3d 01 ff 93 bd ab 5b 37 3d 86 90 7d be
       0.0631673 -0.072263725 0.044765156 -0.24762163
000160 52 85 44 be de 05 13 3e 11 ab 91 bd 8e 31 46 3e
       -0.19191483 0.14357707 -0.071127065 0.19354841
000170 e9 90 88 be 26 39 07 be 51 a6 85 3e 47 48 a0 bd
       -0.26673058 -0.13205394 0.26103452 -0.07826286
000180 25 9b 54 3e 51 7d 7c 3d 46 92 11 3e 28 aa 67 be
       0.20762308 0.06164295 0.14215955 -0.22623503
000190 ac 62 27 3e d0 33 48 bd 8e b8 ff bd d7 92 94 3c
       0.16346234 -0.048877537 -0.12486373 0.018136425
0001a0 c1 33 99 3e 96 73 5b bd 40 36 c6 3d 1b 77 33 3e
       0.29922298 -0.05357703 0.09678316 0.17525904
0001b0 e9 c4 cc bd 42 f1 13 be e3 85 9f bc 1a d0 f8 bd
       -0.09998495 -0.14447501 -0.019473022 -0.12149067
0001c0 bb ed 11 bd 9b ba 2c 3e 1f 89 a1 3d 19 27 21 3e
       -0.035627108 0.1686806 0.07887482 0.15737571
0001d0 29 16 85 3c e4 49 83 3e 83 03 94 3b b1 71 4a bd
       0.016245918 0.25642312 0.00451702 -0.04942483
0001e0 99 2c 8b 3e b6 b6 6b bd d6 1f 36 3c bb f7 52 3e
       0.27182463 -0.057547294 0.011115989 0.20602314
0001f0 82 73 00 3e c2 1f c1 3e eb 44 63 3e 45 c4 81 3e
       0.12544063 0.37719542 0.22194259 0.25345054
000200 f3 f8 35 3e 64 b0 2c be ca 80 b9 3c 41 63 72 3e
       0.17770748 -0.16864163 0.02264442 0.23670675
000210 10 43 94 bd ca 42 ad 3d 39 8d a5 3e 7b 59 49 3c
       -0.07239354 0.08460005 0.32334307 0.0122894
000220 19 4c eb bd 1c 89 db bd a7 3e 04 be 1d 62 ea 3b
       -0.11489124 -0.10719511 -0.12914525 0.0071528093
000230 4e f9 2f be 71 0f b3 bd e3 a8 b9 be 2e 67 25 3e
       -0.17184946 -0.087431796 -0.36261663 0.16152641
000240 eb b5 24 bc 41 08 7f be 01 af 87 3e 44 81 c1 ba
       -0.010053138 -0.24905492 0.26500705 -0.0014763256
000250 ea e9 7c 3e b9 c1 02 be cd 93 47 3e c6 10 12 bd
       0.24698606 -0.12769212 0.19489975 -0.035660528
000260 18 41 36 bd 1a de 39 3e a7 f5 62 3e 31 d3 71 3d
       -0.044495672 0.18151131 0.22164021 0.0590393
000270 89 b8 7e 3c d9 5d 99 3e 13 8c 03 3e e4 e0 d0 bd
       0.015546926 0.29954413 0.12846403 -0.101991445
000280 ce 76 a2 3e c6 98 bb bd 37 1c ff 3d f7 34 19 3e
       0.31731266 -0.091599986 0.124565534 0.1496161
000290 9a f1 b8 bd b5 34 cd 3e 09 91 20 bc ae 67 02 3e
       -0.09030457 0.40079275 -0.009800204 0.12734863
0002a0 a4 78 5d 3e 72 62 1a be ef 42 73 3e 6f 6b 36 3e
       0.21628052 -0.15076616 0.23756002 0.1781442
0002b0 b3 f8 78 3e ae e9 a3 3d 13 87 86 3e 24 1b 38 3e
       0.24313621 0.08003555 0.26274928 0.17979103
0002c0 5e f5 ee 3d 79 a2 96 3e 05 21 96 3d 19 ef ca 3c
       0.11667894 0.29420832 0.07330517 0.024772214
0002d0 6f 6c c9 3c ec ba 45 3c 7a dc b4 be c8 18 a8 3d
       0.024587838 0.012068491 -0.3532446 0.08207852
0002e0 a2 75 3f 3e ad c3 cf bd 40 68 35 3d e6 2a 84 3e
       0.18697217 -0.10144744 0.044288874 0.2581398
0002f0 dd cf 1f be 03 f7 21 3e e1 30 08 be b6 09 16 be
       -0.15606637 0.15816884 -0.13299896 -0.14652142
000300 eb b5 bb be 4f d6 1d be ce 86 9f 3e 4d 0e cb bd
       -0.3666223 -0.15413783 0.31157535 -0.09914837
000310 00 e0 ca ba 25 e6 2d bd 4d f1 22 be 6e 39 7c be
       -0.0015478134 -0.04245581 -0.15912361 -0.24631283
000320 d1 b0 3b be e1 2f 34 bc 38 e1 8d bc 49 ad 16 3e
       -0.18329169 -0.010997743 -0.017319307 0.1471454
000330 d5 73 20 3e da 95 18 3d 55 be bd bc 0a 6a 5f be
       0.15669186 0.037252285 -0.023162046 -0.21817794
000340 2b 6c bb bd a6 62 05 be 84 d2 28 3e a7 74 0b 3e
       -0.09151491 -0.13025913 0.16486555 0.13618718
000350 56 f1 90 bd 2f dc a4 3d 0d 98 51 be bf 79 6b 3d
       -0.07077281 0.08049809 -0.20468159 0.057489153
000360 9b 27 45 be 96 54 3e 3e f1 3a cf bd 26 b8 fb bd
       -0.1925339 0.18586954 -0.10118664 -0.12290983
000370 cf 8a df bd 99 4c 9a bd 9f c5 c3 bd 90 74 af 3d
       -0.109151475 -0.07534141 -0.095591776 0.085671544
000380 e4 5f b9 bc f7 a9 1b 3c 62 b8 83 bd b0 9a da 3d
       -0.022628732 0.009500972 -0.064316526 0.106740355
000390 ad 18 85 bd 9b de 0b bd b9 50 25 bd 38 e0 4b bd
       -0.06498847 -0.03414784 -0.040360186 -0.04977438
0003a0 d8 b7 51 3e bd df 6e 3e 5d e3 85 3d db 0a 10 3e
       0.20480287 0.23327537 0.06537507 0.14066641
0003b0 98 d2 ab bb a0 4c 80 bb b1 a7 a2 3e 74 d2 8d 3d
       -0.0052436106 -0.0039153844 0.31768563 0.069249064
0003c0 12 98 6d 3e b9 e1 94 3e b3 6e 83 3d 83 f2 a3 3d
       0.23202541 0.29078463 0.064175986 0.0800524
0003d0 3b 85 a6 bd 7e a4 9f 3e 0d f2 b0 3d d6 7d fa bd
       -0.081308804 0.31180185 0.086399175 -0.122310326
0003e0 a1 71 47 bd b3 88 87 3e 82 0d 78 3d c4 68 aa 3e
       -0.04869235 0.2647148 0.060559757 0.33283055
0003f0 eb c6 b1 3d c6 72 98 bc 27 9b 23 3e 81 eb 27 3d
       0.08680519 -0.018609416 0.15977155 0.04099608

linear2.bias f4 [25]
000000 5c 54 36 3e 40 54 21 3e 0d 7b 52 3e 4a e1 24 be
       0.17805618 0.15754795 0.20554753 -0.16101566
000010 f5 7b 24 3d cd b0 13 3e 31 4d c4 3d 12 46 28 bd
       0.040157277 0.14422913 0.095850356 -0.04108245
000020 3f 1a cb 3d 2d 94 38 3e f4 4e d4 3c e6 ca db 3d
       0.099171154 0.18025275 0.025916554 0.10732059
000030 ba b7 28 3e e3 c7 58 3d d4 9d 95 bd c3 e8 73 3e
       0.16476336 0.052925 -0.07305494 0.2381926
000040 13 be 1f bd c3 b8 2b be 1b 79 1e 3e 7b aa 87 3e
       -0.03899963 -0.167697 0.15475886 0.26497254
000050 32 24 ed 3d 1d af f8 bd ce e2 22 be d8 d0 17 3d
       0.11579169 -0.12142775 -0.15906832 0.037064403
000060 84 c1 e8 bd
       -0.11365035

linear3.weight f4 [5, 25]
000000 3a 72 21 be 44 76 4f be 8b 40 16 bc 8a ba 25 be
       -0.1576623 -0.20259959 -0.009170662 -0.1618444
000010 2c e7 24 3d 44 96 71 be 14 f8 46 3e b6 00 c9 bd
       0.040259525 -0.23592478 0.19430572 -0.09814589
000020 82 30 00 be aa 73 ac 3e 94 15 25 3d 3a 16 30 3e
       -0.12518504 0.33681995 0.04030378 0.17195979
000030 e5 ba 6d be 51 fc f5 bd 9e 08 32 3e ac 81 7b be
       -0.23215826 -0.12011016 0.173861 -0.24561185
000040 65 30 4c be 1d dc ae bd 64 78 82 3e b5 f1 6e be
       -0.19940336 -0.08538077 0.25482476 -0.23334391
000050 e4 fc ff 3d b0 e6 84 bd 1d 07 db 3c e6 30 07 3e
       0.12499407 -0.06489313 0.02673679 0.13202247
000060 cc 0d 24 3d 47 ea f7 3d 41 99 7a 3c ae d8 c7 bc
       0.04005222 0.12105232 0.015295328 -0.024395313
000070 f2 e0 18 bd 6b e8 07 3e 39 36 c3 3a 5f 82 83 3e
       -0.0373239 0.13272254 0.0014893479 0.25685403
000080 34 90 1f be 52 8e 39 be 4d 41 4a 3d 22 cd 5c bd
       -0.15582353 -0.18120697 0.049378682 -0.053906567
000090 95 cc 43 3d 35 64 3d 3d 19 ec 07 3d 1a 5c 45 3e
       0.047802527 0.046238143 0.033184145 0.19273415
0000a0 e0 1f 36 3e c1 6b 51 3e e5 f7 76 3e fb 54 b4 3e
       0.17785597 0.20451261 0.24118002 0.35221085
0000b0 5f a8 22 3e 3a 48 f3 bc 62 67 49 bc 8c dc 23 be
       0.15884541 -0.029697526 -0.012292715 -0.160021
0000c0 ed 74 e5 3d 1f 0b 80 bd 01 43 0f 3d 4a af 0b be
       0.112039424 -0.06252121 0.03497601 -0.13641086
0000d0 89 df b3 3e 03 2b 6b bd ed 16 4b bd 7e d0 9f 3c
       0.3513148 -0.057414066 -0.04958241 0.019508597
0000e0 a0 96 72 3e 46 0f fc bd f0 00 66 3e 25 40 51 3d
       0.23690271 -0.12307601 0.22461295 0.051086564
0000f0 74 ca 17 be 04 a8 7e 3e f3 5d f4 bd 7b a2 31 be
       -0.14823323 0.2486878 -0.11931982 -0.17347138
000100 b6 9a 28 3e b4 41 7a be 82 45 c3 3c 7d 4a 09 bc
       0.16465268 -0.24439126 0.023836855 -0.008379576
000110 bb f6 89 3d b4 7f 07 3d a4 93 0e be 71 ea 5e 3e
       0.06736513 0.03308077 -0.13923508 0.2176912
000120 1e d5 2b be d3 df be 3d 46 63 24 be 52 b2 2c 3e
       -0.16780517 0.09320035 -0.16053495 0.16864899
000130 fd 9e a7 3e 62 54 28 be 25 47 80 3d 2f f6 6b be
       0.32738486 -0.1643844 0.0626357 -0.2304313
000140 00 4b 85 3e 83 b6 1c be b2 b8 8b 3e 69 7e e6 bd
       0.26033783 -0.15303998 0.2728935 -0.112545796
000150 9a 5c 00 be da c6 b8 3e b4 ef 04 be cc d2 7f 3e
       -0.12535325 0.36089212 -0.12982064 0.24982756
000160 db 65 9a 3e 2b 0a 25 3e b0 97 da 3d f5 01 b6 3e
       0.30155835 0.1611716 0.10673463 0.35548368
000170 42 80 26 3e 0b 71 3e be b5 74 a3 3e 27 87 d1 3e
       0.16259864 -0.1859781 0.31924978 0.40923426
000180 cb a5 09 be 23 f8 2e bd a3 64 3c bd 91 5b 59 3d
       -0.13442151 -0.04271711 -0.045994412 0.05306584
000190 ae d0 72 be 97 33 3c bd 92 9e 61 3e 92 b3 9f be
       -0.23712417 -0.045947637 0.22033146 -0.3119169
0001a0 13 a7 9a 3e fc eb 95 be 2c f8 9c 3d 42 a3 3a bd
       0.30205593 -0.29281604 0.076645225 -0.04556585
0001b0 74 03 f8 ba 28 10 a4 bc e0 99 38 bc 2b 2a ee 3d
       -0.0018921928 -0.020027235 -0.011267155 0.11629137
0001c0 02 e6 d3 bd 6c 29 3a bd 0b c1 e3 bd 0f 41 97 be
       -0.10346605 -0.04544966 -0.111208044 -0.29541823
0001d0 37 3a 1b be 22 37 15 3e 16 f1 3b bd 4d ef 07 be
       -0.15158926 0.14571813 -0.045884214 -0.1327488
0001e0 8a af b1 be a4 85 86 3c 9a 43 48 3c 01 20 4d 3e
       -0.34704238 0.016421147 0.012223149 0.2003174
0001f0 68 ad ae be
       -0.34116673

linear3.bias f4 [5]
000000 62 27 09 bd c2 50 11 3d c4 df 3e bd e8 16 6c 3e
       -0.033484824 0.035477407 -0.04660012 0.23055613
000010 60 e1 2c be
       -0.16882849
