model/a2model.pth (torch, 33183 bytes, 4 tensors)

linear1.weight f4 [256, 25]
000000 68 2c b8 3d 51 44 29 be 13 d3 a7 bc 23 20 28 be
       0.08992845 -0.16529967 -0.02048639 -0.16418509
000010 fc f9 43 be d7 ab 0a be bf 3a 42 bd 73 1a 81 3d
       -0.1913833 -0.13542114 -0.047419306 0.06303873
000020 36 8c b3 3c 7a a6 b0 3d c5 76 27 3c 3a 6d 2d be
       0.021917444 0.08625503 0.010221188 -0.16936198
000030 41 9a 4d be 90 fd fa 3b 83 d8 d7 bc 36 ba a4 be
       -0.20078374 0.0076596215 -0.026348358 -0.32173318
000040 ca 8c bc bc 80 fb 10 be 7f 09 59 be 8d 47 d9 3b
       -0.023016352 -0.1415844 -0.21195029 0.006630844
000050 55 c9 ab bd bf 82 60 bd 6a 8b 28 be 3d 2e 98 be
       -0.083880104 -0.05481219 -0.16459432 -0.29722777
000060 6e f3 56 bd 94 06 00 bd 2c 53 84 bd d6 e1 a5 3c
       -0.052478246 -0.031256273 -0.06461176 0.020249289
000070 fa 4e 03 be ec ad 88 3d 87 e1 29 3d 9b 12 02 3b
       -0.12823096 0.06673798 0.041474845 0.0019847516
000080 14 7f ad bd 6d c1 d6 bd 29 19 36 bd bb 8d ef 3d
       -0.08471504 -0.10486112 -0.04445759 0.11696955
000090 21 2b 5f bd cc 2f e2 bc 4d 86 09 3c f8 7e 07 be
       -0.05448449 -0.027610682 0.008393836 -0.13232028
0000a0 8e 32 d6 bc 17 29 b4 bb fe e5 8b b9 32 a3 92 bd
       -0.026147153 -0.0054980624 -0.00026683504 -0.07160033
0000b0 bf 6e a1 3d 44 63 04 be 52 37 32 be 8d 27 28 be
       0.07882451 -0.12928492 -0.17403916 -0.16421337
0000c0 67 29 7e bc 8c 32 f5 bd fa 8b 35 be 95 72 2b be
       -0.015512801 -0.11972532 -0.17729178 -0.16742928
0000d0 7a 76 19 3e 42 d6 48 bd 4c 85 02 3e fb 3d 96 bd
       0.14986601 -0.049032457 0.12746161 -0.073360406
0000e0 98 9d 1c 3e 1b 16 34 be bc 38 00 be ec 05 40 be
       0.15294492 -0.17586558 -0.12521642 -0.18752259
0000f0 44 52 63 ba d3 05 be bd 94 2e 57 bd 74 0a 53 be
       -0.00086716213 -0.09278455 -0.052534655 -0.20609456
000100 e9 8d 03 be e6 2d f4 bd aa bb 4e be ec f7 e2 3c
       -0.12847103 -0.11922817 -0.20188776 0.027706109
000110 15 bc 07 be 2d dc 73 be b0 1e 35 bc 36 d3 a1 bc
       -0.13255341 -0.23814459 -0.01105468 -0.019754034
000120 ae 0c 71 bd 56 c2 4f be 4c 13 4b bd ee ee eb 3d
       -0.058849983 -0.20288977 -0.04957895 0.115201816
000130 a1 42 a9 bd 69 29 5a be 03 06 25 3d 6c 1a c8 bd
       -0.082646616 -0.21304859 0.040288936 -0.097706646
000140 b5 6c 1d 3b 0f f5 35 bd a9 50 27 be f3 69 27 3d
       0.0024021093 -0.04442316 -0.16339363 0.040872525
000150 58 ff c5 bc dc a4 80 bd 13 0d 50 bc 94 37 69 be
       -0.024169609 -0.062814444 -0.01269843 -0.22775108
000160 5f ae 93 bd 88 dd 72 be ba 97 63 bc 17 f6 cf 3c
       -0.07210993 -0.2371732 -0.013891155 0.0253859
000170 08 8e bb 3c b0 d8 87 bd db d9 6e bc 1c 6a 5c bd
       0.022894874 -0.06633127 -0.014578308 -0.05381213
000180 ec 3a 70 be be 9a 81 be 3c 56 07 3c e5 31 9e 3c
       -0.23459977 -0.2531337 0.008260306 0.019310901
000190 96 24 06 3c 0c 96 3c be 19 72 b6 3d b7 38 31 bd
       0.008187434 -0.18416613 0.08908481 -0.043266978
0001a0 82 1e 5b 3d 16 4d 2e 3e 17 73 02 be 40 43 c4 bd
       0.05349589 0.17021593 -0.12739216 -0.095831394
0001b0 dc 20 b3 3d 27 2d 61 3d fe 74 b3 3d 56 5f 3d bd
       0.08746502 0.0549747 0.08762549 -0.046233498
0001c0 33 02 fe 3c 3c c8 92 bd 6f 8c 70 bd d4 6c 3e be
       0.031006908 -0.07167098 -0.058727678 -0.18596202
0001d0 c6 23 20 be 40 99 cc bd a7 e4 8b be 77 c4 89 bd
       -0.15638646 -0.099901676 -0.27322885 -0.06726926
0001e0 d8 fe 8d be d8 2f 85 bd 9a ef 51 be 6e e5 f8 bd
       -0.27733493 -0.06503266 -0.20501557 -0.12153135
0001f0 e4 89 fc bd e9 0a 0a 3e 3c 16 15 3d 33 1e 13 be
       -0.12330988 0.13480724 0.036398157 -0.14366989
000200 67 d2 1f be 39 13 19 be 5d 57 9f bd 38 ae 14 be
       -0.15607606 -0.14948739 -0.07780335 -0.14519584
000210 5f 37 ba 3b 17 ff e0 3d 1f 10 33 be a7 4e 8b 3d
       0.0056828703 0.109861545 -0.17486618 0.06802111
000220 86 bd 95 bd 85 9d 0b be a7 21 9e bd ff b9 80 3c
       -0.07311539 -0.13634308 -0.077212624 0.01571369
000230 e7 a6 69 be a9 f5 bd bd 43 c2 5b 3d 40 cb 22 be
       -0.22817574 -0.092753716 0.05365206 -0.15897846
000240 f4 0a 83 3d 69 84 30 be 3d 8c 9d be 27 64 4f bb
       0.063985735 -0.1723801 -0.30771056 -0.0031645389
000250 78 e1 4a 3d 9f 68 77 bd b2 3e 06 3e 1d bf 8f bd
       0.04953143 -0.06040251 0.13109854 -0.07018874
000260 c3 cf 2a 3d a9 01 2b be b8 d1 ba bd 90 d4 41 3c
       0.041702043 -0.16699852 -0.09122032 0.011830464
000270 62 51 92 3d eb 3a 9d bb 25 66 ed bd 0a c4 9d bd
       0.07144429 -0.0047982833 -0.11591748 -0.07703407
000280 18 5d c8 bd 6b 1c 55 be 05 e4 65 3d fc 84 6b bd
       -0.09783381 -0.20811622 0.05612566 -0.05749987
000290 b0 6e 3c bc bf 4a 4c bc d8 7c de bd d5 72 6a be
       -0.011500999 -0.012468993 -0.10863656 -0.22895367
0002a0 fc 88 8c 3d 60 10 8b 3c 04 31 23 be 8e 83 22 be
       0.06862065 0.016975582 -0.15936667 -0.15870497
0002b0 7e 27 a7 bd 84 da 47 be 72 f2 65 be 65 9d 5a bd
       -0.081618294 -0.19516951 -0.22455767 -0.05337276
0002c0 79 34 0e be 32 cf 60 bd a8 79 88 3d 9b 7f 7f ba
       -0.13887204 -0.054885097 0.06663829 -0.0009746493
0002d0 3d e9 e9 bd 4b 29 17 bd f2 5b 31 3d c2 f1 5a bd
       -0.1142144 -0.036904614 0.043300577 -0.053453214
0002e0 18 5d 25 be 0f 1a f6 bc 08 f0 86 be 27 44 19 3d
       -0.16148794 -0.030041723 -0.26355004 0.03741851
0002f0 be fd 3a 3d d3 67 99 bc 04 50 42 3d 9d d6 ec bd
       0.045652144 -0.018726265 0.04743959 -0.11564372
000300 34 da a7 bd 0f a6 5d bd 21 bb d4 3c 2e d3 80 be
       -0.08195916 -0.054113444 0.025968136 -0.25161117
000310 09 be 8d 3c ed e5 0e be 38 20 43 be e3 d2 e6 bd
       0.01730253 -0.13954897 -0.19055259 -0.11270692
000320 6a d1 6b be 63 ab e3 ba 54 fd 25 be 83 5b 1c 3e
       -0.23029104 -0.0017369803 -0.16209918 0.15269284
000330 22 54 d0 bd 90 89 6c 3c f3 31 c1 bd 88 91 44 bd
       -0.10172297 0.014437094 -0.09433355 -0.047990352
000340 a8 e6 32 be 66 29 34 be b1 78 0b 3d a2 2b 02 3d
       -0.17470801 -0.17593917 0.034050647 0.031779893
000350 9b e6 8d 3d bf b3 52 3d 64 1d 6b 3d a5 40 e1 bc
       0.0692875 0.05144095 0.057401076 -0.027496645
000360 43 51 6f bd 25 1e 97 bc 5f ee 8e be 4d be 53 bd
       -0.058427107 -0.018446991 -0.27916238 -0.051695157
000370 e7 a9 92 bd 49 a5 a1 be f6 74 f4 bc c9 3a 3f ba
       -0.071613126 -0.31571415 -0.029840928 -0.00072948314
000380 4b c4 f4 3c 5d 60 ce bd 8c 86 49 bd 15 0e 98 3d
       0.029878756 -0.100769736 -0.04920058 0.07424561
000390 37 6d 48 be 9e ae 8b 3d 2f 9f 0b be b2 c6 ff 3d
       -0.19572912 0.06820415 -0.13634942 0.1248907
0003a0 1b dc 30 3d d0 76 79 bc 28 a3 61 3d ad 81 85 3d
       0.04317866 -0.015226081 0.05508724 0.06518874
0003b0 98 14 7b bd cd 84 84 bd 26 24 a0 3c a8 33 15 3e
       -0.061298937 -0.06470642 0.019548487 0.14570487
0003c0 07 9e 1c 3c 7c fd af bd 1b 77 1a be 41 24 3e be
       0.009559161 -0.0859327 -0.15084498 -0.18568517
0003d0 db 45 0e be 49 e8 41 ba 54 1f cd bc 30 37 1d bd
       -0.13893835 -0.0007396979 -0.025039352 -0.03838271
0003e0 a2 2f 5d be 2d 7d 55 be 80 6d 98 3d 42 52 ee 3d
       -0.21600202 -0.20848532 0.074427605 0.11636783
0003f0 b8 04 35 be 51 49 4c 3d 99 48 33 be f1 90 6f be
       -0.17677581 0.049874607 -0.17508163 -0.23395135

linear1.bias f4 [256]
000000 77 89 52 be 2e 1e 30 be cd 48 5b bd 16 0d 43 be
       -0.20560251 -0.17199013 -0.053536225 -0.1904796
000010 eb 62 46 bd 10 54 72 be c9 b5 74 bd be e5 26 be
       -0.04843418 -0.2366488 -0.059743676 -0.16298577
000020 6d e9 a7 be db 57 29 be 93 a3 b6 be 79 8a 61 be
       -0.32795277 -0.1653742 -0.35671672 -0.2202548
000030 2d 15 d3 bd ab a2 e7 bd 16 1e 6d bd 0b 68 60 b9
       -0.10306773 -0.11310323 -0.05789002 -0.00021401064
000040 3b 8b da bb 8b 17 80 be 42 f7 29 be bd b4 86 be
       -0.0066694296 -0.25017962 -0.16598228 -0.26309767
000050 11 5f 6e bd ef f2 9b bd 75 1f 86 be b0 50 83 be
       -0.05819613 -0.07614695 -0.26195875 -0.25647497
000060 45 ff fa bd 34 20 7e be 81 bd ee bc 5a a6 6c be
       -0.1225572 -0.24816972 -0.029143097 -0.23110333
000070 41 91 a0 be a6 47 a4 bd f0 01 3c be a9 26 6a be
       -0.3136082 -0.08021478 -0.18360114 -0.2286631
000080 1d 86 83 be b1 46 a6 be 7e 66 66 be 98 f9 21 be
       -0.25688258 -0.32475808 -0.22500035 -0.15817869
000090 73 12 4e be 39 a0 79 be a2 f4 89 bd 64 b2 f5 bd
       -0.20124225 -0.24377526 -0.06736113 -0.11996916
0000a0 bc 0d e2 bc 91 30 b7 bd 42 ca 8c be c0 ae 03 be
       -0.02759444 -0.0894481 -0.2749806 -0.1285963
0000b0 3a 77 99 be e4 28 02 be 66 d1 f2 bd c7 70 b4 bd
       -0.29973775 -0.12710911 -0.11856346 -0.08810573
0000c0 e8 21 a3 be eb da 32 be 7c f1 0d be f9 75 b8 bd
       -0.31861806 -0.17466323 -0.1386165 -0.090068765
0000d0 7e 55 9f be b5 0b 47 be 5a d9 a3 be 97 56 1f be
       -0.31119913 -0.1943806 -0.32001764 -0.15560375
0000e0 a1 f7 dc bd 06 10 77 bd fd 9c b3 bd 82 27 f6 bd
       -0.10789419 -0.060318016 -0.087701775 -0.12019254
0000f0 66 7f 1c be 29 f4 9b bd 72 b4 8a be 74 dd 60 bd
       -0.15282974 -0.07614929 -0.27090794 -0.054898694
000100 53 ee 15 bd 63 90 20 be 8d 89 45 be 12 b4 66 be
       -0.036604237 -0.15680079 -0.19290753 -0.22529629
000110 3c 3c 12 be 43 b0 b7 be 8b 45 bc bd 33 8d 43 be
       -0.1428079 -0.35876665 -0.09192952 -0.19096832
000120 ec 58 81 bd ee 87 1b be ab 74 87 be 18 ca 95 be
       -0.063157886 -0.15188572 -0.26456198 -0.29255748
000130 ed 77 27 bd 84 8d f4 bd e9 00 26 be a4 ae ca bd
       -0.040885855 -0.119410545 -0.16211285 -0.09896591
000140 d2 f5 8a be 2d cc a9 be df 3a 93 be 11 d2 ac be
       -0.2714067 -0.33163586 -0.28755853 -0.33754018
000150 b3 e4 68 be 4e 62 b0 bd 94 14 83 be b7 82 b3 bd
       -0.22743492 -0.086125 -0.25601637 -0.08765166
000160 96 df 84 be 2e 5c 41 bd fd 23 98 be 77 8d 9f bd
       -0.25951833 -0.04720705 -0.29714957 -0.07790654
000170 a8 a1 c4 bd e9 ac f7 bd 4d f6 63 bd a0 f3 87 bc
       -0.09601146 -0.12093527 -0.055654813 -0.016595662
000180 1e 1e 68 bd 51 f3 0d be 83 59 2d bd 17 08 ff bd
       -0.056669347 -0.13862349 -0.042321693 -0.12452715
000190 aa 2a 91 be 62 5e 24 be a9 cd 5d bd 45 99 21 be
       -0.28352863 -0.16051629 -0.05415121 -0.15781124
0001a0 9f 52 d0 bd 88 b7 e1 bd e6 bb 39 be 87 f1 e0 bd
       -0.10172009 -0.11021334 -0.18138084 -0.10983568
0001b0 9b b7 a3 be 80 83 2f be 5f de f4 bd 99 d3 50 be
       -0.31976017 -0.17140007 -0.119564764 -0.20393218
0001c0 d4 14 3e be 5e fa 3c be a8 31 e1 bd 05 06 14 be
       -0.18562633 -0.18454883 -0.10995799 -0.14455421
0001d0 7e de 68 bd 45 5c a9 be 95 63 33 be 41 24 5b be
       -0.05685281 -0.3307821 -0.17518456 -0.21400549
0001e0 0a ab 84 be 75 e7 03 be 89 a6 75 bd 91 29 86 be
       -0.25911742 -0.12881263 -0.059973273 -0.26203588
0001f0 37 16 48 be 01 f9 5f be 52 90 88 bd 7b 64 b7 bd
       -0.19539724 -0.21872331 -0.06668152 -0.08954712
000200 81 e6 7c be df df 7d be f1 82 0d be 51 f8 ce bd
       -0.24697305 -0.24792431 -0.13819481 -0.10105956
000210 4e f0 5b bd 5f b5 03 be a3 32 44 be 84 74 00 be
       -0.05369597 -0.12862156 -0.19159941 -0.12544447
000220 5f a6 36 be 4b 34 1b be 8c 18 ba bd 71 60 34 be
       -0.17836903 -0.15156667 -0.09086713 -0.17614914
000230 96 6d f7 bd 70 e9 0c bd aa 8e c3 bd 32 b6 34 bd
       -0.12081449 -0.03440231 -0.095486954 -0.044119067
000240 b4 c7 37 be 24 0a 37 be a4 e9 43 be b9 ec f5 bc
       -0.17947274 -0.17874962 -0.19132096 -0.030020105
000250 55 db 81 be 28 9e b4 bd 15 28 69 be 81 c6 bf bd
       -0.2536265 -0.088192284 -0.22769196 -0.093640335
000260 69 02 28 be a4 b2 d6 bd 4d 58 95 be a6 31 ba bd
       -0.1640717 -0.10483292 -0.2916893 -0.09091501
000270 ad 7a 92 be 2b 70 3d be c0 05 94 bd ea 04 6e bd
       -0.2860922 -0.1849982 -0.07227659 -0.058110155
000280 8b 72 16 be 1c 52 12 be 80 97 7d bd 5e d4 35 bd
       -0.14692132 -0.14289135 -0.06191206 -0.044391982
000290 27 23 3b bd 90 04 cf bd 28 4a db bd 37 0b 50 be
       -0.04568782 -0.10108292 -0.107075036 -0.20316778
0002a0 68 e6 41 be a7 f4 97 be 47 2b 24 be b3 e2 86 be
       -0.1893555 -0.29678842 -0.16032134 -0.26344833
0002b0 b3 9e d4 bd fa 8b 77 be 76 81 21 be 25 0b f3 bd
       -0.10381832 -0.2417449 -0.15772042 -0.1186736
0002c0 75 0a 0c be fd 40 b4 bd 4d 19 8a bd 28 c9 f7 bd
       -0.13675864 -0.08801458 -0.06743107 -0.120989144
0002d0 f1 82 1d be 9b 0e 7f be 9e ef 8c be 5c a9 8a be
       -0.15381981 -0.24907915 -0.27526563 -0.27082336
0002e0 e9 7a 37 be 24 7b 78 be a9 d9 26 be be 7b 02 be
       -0.1791798 -0.24265724 -0.16293968 -0.12742516
0002f0 ec 17 0c ba 17 45 3b bd ec b2 7b bd 2e e9 85 be
       -0.0005344141 -0.045720186 -0.06144993 -0.26154464
000300 f6 90 1f be b5 06 18 be cd 50 0d be 31 4f ed bd
       -0.15582642 -0.14846309 -0.13800354 -0.1158737
000310 97 af 68 be 0d 64 13 be df e9 0d be a0 21 0e be
       -0.22723232 -0.14393635 -0.13858746 -0.13880014
000320 24 08 26 be 6b 06 1a be 4a 4a 55 be aa 48 95 bd
       -0.16214043 -0.15041511 -0.2082912 -0.0728925
000330 c0 91 1c be 43 54 63 be d1 5f 55 be b6 95 46 be
       -0.15289974 -0.22200112 -0.20837332 -0.19393048
000340 71 08 9a bd 16 4b a3 be 90 f7 33 bd ac 8c 06 bd
       -0.07521141 -0.31893224 -0.043937266 -0.032849
000350 2c df bc be 75 2b 09 be 8e ef 08 be da 6d 50 bd
       -0.36889017 -0.13395484 -0.13372633 -0.050886013
000360 25 0d 63 be 08 08 2d be aa 19 c1 bd 87 ea 69 be
       -0.22172983 -0.16897595 -0.09428723 -0.22843371
000370 eb 9e 6b be 37 71 a2 be 2d ce 8c bd d5 78 49 be
       -0.23009841 -0.31727 -0.068752624 -0.19675
000380 30 bd 14 be 27 23 7e be 88 6b 84 ba 71 35 b2 bd
       -0.14525294 -0.24818097 -0.0010102848 -0.087015994
000390 58 e0 ae be db 38 c2 bd ef 6c 93 bd e9 45 84 be
       -0.34155536 -0.094835006 -0.07198512 -0.25834587
0003a0 5c 9e 7a be 97 21 92 be 06 66 8b be 41 9f 0b be
       -0.24474472 -0.28541252 -0.27226275 -0.1363497
0003b0 8c eb e5 bd f1 91 30 be 68 92 27 be 4e a9 85 be
       -0.112265676 -0.17243172 -0.16364443 -0.26105732
0003c0 37 a9 b0 be 88 86 ac bd b9 d7 91 be 36 d3 1f be
       -0.345041 -0.08424097 -0.28484896 -0.15607914
0003d0 7c 53 a0 be 4d d6 c3 bd cf a1 8d bd 08 9d cd bd
       -0.31313694 -0.09562359 -0.06915628 -0.10039717
0003e0 2b c1 9f be be 7e 37 be fc 49 24 be 75 7e be bd
       -0.31202063 -0.17919442 -0.16043848 -0.093014635
0003f0 46 cd 9f be 8f c3 16 be 6c 49 81 bd 10 17 b2 bd
       -0.312113 -0.14723037 -0.06312832 -0.08695805

linear2.weight f4 [5, 256]
000000 0c 25 13 3c 96 08 02 3d ae 10 de 3b 42 82 04 be
       0.008981001 0.03174647 0.0067768907 -0.12940314
000010 27 87 b8 3c 55 25 4a bc dc 61 be 3c e5 95 22 3c
       0.022525383 -0.012338002 0.023240022 0.009923433
000020 b6 1b 84 3c 14 42 f1 3b f6 7f b0 bd 11 0c 4b 3c
       0.016126495 0.0073626135 -0.086181566 0.012393014
000030 ef f0 be 3c 03 23 bf bc 75 02 59 bd aa 5a a1 3c
       0.023308245 -0.023332125 -0.05298086 0.019696552
000040 94 70 54 3c e7 5e 47 3c 0a ef b4 bc 2c 60 70 3c
       0.012966294 0.012168623 -0.022086639 0.014671367
000050 fe cf 07 bd 07 84 29 3b 37 1d 32 3c 76 91 b7 3c
       -0.03315734 0.0025866048 0.010871223 0.022408228
000060 6d eb b1 3c c7 ce 39 bd 1a 49 a1 3a bb e4 a1 bc
       0.021718705 -0.045363214 0.0012305111 -0.019762387
000070 b1 e9 da 3c dc 6f 72 3c 1e 7a 97 3d 53 1b bc 3c
       0.02672276 0.014797177 0.07396339 0.022962248
000080 1f b3 90 bb 6e 23 8b bb 52 35 5a bc 1f d1 2d 3d
       -0.004415884 -0.004246167 -0.013318377 0.04243576
000090 71 56 13 bc 7f 74 2e 3b 46 da a8 3c 5e 0c a0 bd
       -0.008992777 0.002661973 0.020611893 -0.07814859
0000a0 9a 74 80 bb 46 4d 1e 3d 93 f0 54 bd 01 47 69 bc
       -0.00392015 0.038647912 -0.051987242 -0.01423812
0000b0 67 dc 50 bc 3f 7d 68 3c b5 ed 64 ba db 3f 78 3c
       -0.0127478605 0.014190017 -0.0008732931 0.015151943
0000c0 a1 e5 12 bd d2 e0 65 bd d4 96 dc 3c 30 69 0f bc
       -0.035863522 -0.05612261 0.02692739 -0.008753106
0000d0 ec 80 c7 3c 4d 40 8e bb a8 bf 30 bb a5 11 b7 bc
       0.024353467 -0.0043411613 -0.0026969705 -0.02234728
0000e0 ab f6 29 bc 91 a2 f1 bb 29 f0 78 bc 24 0e 6a 3c
       -0.010373752 -0.0073741158 -0.015193977 0.014285598
0000f0 da d3 10 3d c2 bc 0e bd 0a 65 f8 39 29 e7 88 3b
       0.035358287 -0.034847982 0.00047377526 0.004177947
000100 34 39 bb bb bd 62 e8 bb 7b 5e c7 3b 70 0f 29 3d
       -0.0057136063 -0.0070918486 0.006084261 0.041274488
000110 0a a4 c2 bc 5c 78 e8 3c 33 62 3a bc d2 d4 26 bd
       -0.02375986 0.028377704 -0.011375952 -0.040730305
000120 f0 a8 fe 3a ad c9 80 ba d4 b5 96 bc 1e 95 de 3c
       0.0019429009 -0.0009825729 -0.01839725 0.027170714
000130 b1 eb 82 bc 16 6c 52 bd 94 cb 61 3c e7 b7 14 bc
       -0.015981527 -0.05137261 0.013781447 -0.009077049
000140 a5 12 97 3b dd d2 24 3c 45 45 6f bc eb 23 87 3a
       0.004610377 0.010060039 -0.0146039175 0.0010310387
000150 68 de 59 bd 3e cb 0a bd a0 df 80 bb 74 bf ec bc
       -0.05319062 -0.033885233 -0.003932908 -0.028899886
000160 4a fd 47 bd 58 63 a4 3c 66 9d e0 3b 4f 14 80 3c
       -0.04882554 0.020066902 0.006854701 0.015634684
000170 8c 72 7a bc 28 be 98 bc 87 21 c6 bc 8e e1 b7 3c
       -0.015286099 -0.018645361 -0.024185909 0.02244642
000180 ba ac 6e bd 92 6e 0e bd c5 27 03 3c 0e d0 1b bd
       -0.058270194 -0.034773417 0.008005087 -0.038040213
000190 fd 35 4b 3d a2 46 51 bd fd 9f 78 bb df 60 7a ba
       0.049612034 -0.05109275 -0.0037937157 -0.0009551178
0001a0 25 58 d6 3c 73 91 8e bd b4 c6 a6 bd 26 5f 2f 3b
       0.026165077 -0.06961336 -0.08143368 0.0026759594
0001b0 fd 54 46 bb 8a 89 a3 bd a1 1b 3f 3c 85 f5 ae bd
       -0.003026306 -0.07985218 0.011664302 -0.08542923
0001c0 0a 4d 4d bc c8 d8 27 3c 5c 05 f4 bc e2 bd 01 bc
       -0.012530575 0.010244556 -0.029787712 -0.007918807
0001d0 01 d5 e8 38 a0 0b 9f 3c 4d 96 09 bb 0b b7 ee ba
       0.00011102297 0.019414723 -0.0020994127 -0.001821251
0001e0 ff a4 86 bc dd 9d 34 ba e6 d9 f5 bc 92 9d 91 3b
       -0.016436098 -0.00068899785 -0.030011129 0.0044438327
0001f0 5a 30 91 3c 53 76 2c 3c b4 ae 8f 3b 55 40 e7 3c
       0.017723251 0.010526258 0.00438484 0.028228918
000200 27 e8 16 bd 8c b0 5c 3c f8 e9 ca 3c bd d6 4d 3a
       -0.03684249 0.013469826 0.024769768 0.0007852128
000210 cf 7c ea 3c c3 d9 d4 bc d8 38 d1 3b 78 7b 05 3a
       0.028623967 -0.025982743 0.00638495 0.00050919456
000220 b8 2d 8d bc e4 bb 75 bc fe 6c b8 bb 6a f2 16 bd
       -0.017233714 -0.01499841 -0.0056282273 -0.036852278
000230 fc d9 10 3d c1 c5 28 3c 4d a2 18 3b ab f1 63 3b
       0.035364136 0.010301054 0.0023290098 0.0034781497
000240 1f e2 06 3c 96 7e b7 bc 94 58 12 bd 42 13 83 bc
       0.008232622 -0.022399228 -0.035729006 -0.016000394
000250 e1 d0 ca b7 5b 13 0a 3c 80 47 1a ba 19 e5 86 bc
       -2.4177543e-05 0.008427466 -0.0005885288 -0.016466664
000260 7c 79 49 3d bd cc b9 bc 6a e7 d9 3c 01 6f bf bb
       0.049188122 -0.022680635 0.026599605 -0.00584209
000270 84 a1 58 3c b9 5a aa 3c 2e 9b 14 bd ec 1e 66 3d
       0.013222102 0.020795213 -0.036280803 0.056181833
000280 ff 68 78 bc fb 7f 34 3d 51 4e 77 bb c2 ae 06 3d
       -0.015161752 0.044067364 -0.003773589 0.032881506
000290 eb da c0 bc 1d d6 1c 3c 2c 85 a4 3b 50 04 82 3d
       -0.023541888 0.009572533 0.005020758 0.06348479
0002a0 16 f9 ff 3a 50 ca c5 bc 2d 30 22 bd fc 86 20 bc
       0.001952919 -0.024144322 -0.039596725 -0.009797808
0002b0 a3 c6 02 bb 77 04 ca bc 1c bd da 3c 26 d3 5d bc
       -0.0019954822 -0.024660332 0.026701503 -0.013539111
0002c0 50 3c 20 bd 8b ad b8 bb 33 c2 f0 39 6b 12 93 3c
       -0.03912002 -0.0056359223 0.00045921057 0.017953118
0002d0 9f 3b ae bc 09 85 47 bd f7 3a 91 bc 6f d6 4e bc
       -0.021268664 -0.048710857 -0.017728312 -0.012624367
0002e0 0a 79 f1 ba da c4 0b 3b d0 4c 50 bd 95 39 af bc
       -0.0018422913 0.002132705 -0.050854504 -0.021389762
0002f0 17 f1 ff b9 94 0d 4b 3c 55 2c 8e bc 80 a0 9b bc
       -0.00048817016 0.012393374 -0.017355124 -0.01899743
000300 29 d7 12 3d 67 65 96 bc b6 03 ff 3c b3 c9 75 bd
       0.035849724 -0.0183589 0.0311297 -0.06000681
000310 c7 6a a4 bc 21 1a 87 3c 2c da 53 bc fd 4a 6d bc
       -0.020070447 0.016491951 -0.012930434 -0.014483211
000320 ed c7 c0 ba cc 15 36 3d 75 ce 83 bb 13 59 1f 3c
       -0.001470802 0.04445438 -0.0040224143 0.009725827
000330 5e 0e 09 3c 03 7f 47 bd 06 d9 f8 bd dd 38 64 3c
       0.008365242 -0.048705112 -0.12150769 0.013929573
000340 b6 d9 a4 b9 54 13 fe bb d7 9a da 3c 20 49 99 3c
       -0.00031442725 -0.007753769 0.026685162 0.018711627
000350 1e c6 96 bb 31 37 81 bc ba cd da 3a fb e3 9a 3b
       -0.004601254 -0.015773388 0.0016693391 0.0047268844
000360 9c 1e 38 bc 78 a3 77 3c 83 70 1d 3b 41 d9 b8 bc
       -0.011237767 0.015114658 0.002402336 -0.022564532
000370 99 e2 1c 3c 9b a0 d4 bc c9 ad a8 3c 87 46 6d bc
       0.0095755095 -0.025955489 0.02059068 -0.014482147
000380 61 bc 9e 3c 7e f2 d8 b9 5f 9d 86 bb 07 90 12 bd
       0.019376935 -0.000413794 -0.0041081156 -0.035781886
000390 72 98 8f bc 17 44 9a 3b 62 72 a8 bd b0 25 e1 bb
       -0.017528746 0.004707824 -0.08224942 -0.006870948
0003a0 54 a5 a5 bb d2 c9 4e bc 42 e9 b4 bc b1 88 d7 ba
       -0.005055109 -0.01262136 -0.022083882 -0.0016443935
0003b0 e2 bd 7c 3c ba f5 45 3c f2 4b 66 3c 28 2c 70 bd
       0.015426131 0.012082512 0.014056193 -0.05863586
0003c0 c4 a0 83 3c b7 87 28 bc 26 1d af bd d4 bd 52 3b
       0.01606787 -0.010286263 -0.085504815 0.0032156603
0003d0 b5 76 71 3d c3 39 d2 bb 4a e8 a3 3c 80 f0 54 3b
       0.0589511 -0.006415577 0.020008225 0.0032491982
0003e0 87 76 db 3c f3 97 01 bd 0f 9f 3c bd 4f 7f 4c bb
       0.026789917 -0.03163905 -0.046050128 -0.0031203812
0003f0 ba cb 3d bc 80 da 33 3d 60 bb a9 bb 52 0b 12 bd
       -0.011584217 0.04390955 -0.0051798075 -0.035655327

linear2.bias f4 [5]
000000 b2 a9 ab bc ae 9f 8f bc d8 8a a8 bc 27 31 8a bc
       -0.02095494 -0.017532196 -0.020574018 -0.01686914
000010 41 93 a0 bc
       -0.019601466
