model/a2model.pth (torch, 33183 bytes, 4 tensors)

linear1.weight f4 [256, 25]
000000 8e 48 14 c0 71 64 49 3f 51 e8 43 3f 61 3f 8a be
       -2.3169284 0.78668886 0.7652636 -0.2700148
000010 c7 12 07 3f 14 0a d9 bd 9a ef e6 3e 44 12 18 3d
       0.52763027 -0.105976254 0.45104676 0.037126794
000020 9e 84 7e be 6d 57 4a 3e 50 af 6e 3d 7c 25 d7 3e
       -0.24855277 0.19759913 0.05827266 0.42020786
000030 6e 0f 23 be 24 93 de 3e 45 1f 52 bd 75 49 40 bf
       -0.15923855 0.43471634 -0.051299352 -0.75112087
000040 2b 2d 6d 3e 72 11 1a be 4f cf 99 be 95 9d 45 bd
       0.23161761 -0.15045717 -0.30040976 -0.048245985
000050 c0 49 b4 3d 40 42 5d b9 14 8c 13 bd 0a 5a d1 be
       0.08803129 -0.00021100882 -0.03602226 -0.40889007
000060 71 d5 b9 be 23 7b 3f 3f f2 c2 e7 bf 37 9e f4 3e
       -0.36295655 0.74797267 -1.8106368 0.47776958
000070 9e 37 68 c0 e4 2f 07 bf 36 0a 97 3f 09 db c0 bd
       -3.6283946 -0.5280745 1.1799991 -0.09416778
000080 96 ac ee 3e 77 3e 6a bf 6d f6 09 bf 9a 86 39 3f
       0.46616048 -0.91501564 -0.5389164 0.7247101
000090 2b 76 37 3e bd 08 54 3e e6 e1 b7 3e 8f 44 62 3d
       0.17916171 0.20706458 0.35914534 0.055241164
0000a0 dc e8 16 3f 23 53 40 3f f4 20 0e bf f4 b0 f1 be
       0.58949065 0.75126857 -0.5551903 -0.47205317
0000b0 d2 44 b4 3d 68 78 26 bd 63 f2 84 3e 73 3a 19 bf
       0.08802189 -0.040642172 0.25966176 -0.5985481
0000c0 ea 6b da be f5 28 92 be e6 ee a0 3f f9 be 0a 3f
       -0.42660457 -0.28546873 1.2572906 0.5419765
0000d0 3c b7 f3 3e 35 bf e6 3e 97 1b e3 bf b5 58 98 3d
       0.47600734 0.45067754 -1.7742795 0.074387945
0000e0 56 3b dd 3e 37 f8 73 3e 27 53 ae 3e 60 0b 99 bf
       0.43209332 0.23825155 0.34047815 -1.1956596
0000f0 dd 27 57 be 4f ff 34 3f 32 38 2b bf be 15 93 3e
       -0.210113 0.7070207 -0.6688262 0.28727525
000100 5d af 65 3f 0a 89 0e bf 08 32 3d bf 75 25 b3 bd
       0.8972071 -0.55677855 -0.73904467 -0.08747379
000110 a8 75 59 3f b6 11 28 be 90 35 9b bf a9 85 60 bd
       0.84945154 -0.16413006 -1.2125721 -0.05481497
000120 45 a5 5e bf 23 82 2b 3d 9c 4a 6e be 98 ed 9b 3d
       -0.8697093 0.041872155 -0.23270649 0.07613677
000130 8f ee ce 3e 8c 72 07 c0 cb cc 95 3e 14 61 0e bf
       0.4041638 -2.1163664 0.29257807 -0.5561688
000140 e6 25 e6 3e 77 d2 c1 3e 20 3f 12 c0 68 08 58 bf
       0.4495079 0.37855884 -2.2851028 -0.84387827
000150 08 a1 61 3e 2f 62 a9 3d 02 1f 0a 3e 7e bc c6 bd
       0.22034085 0.0827068 0.13488391 -0.09703921
000160 45 53 74 bf a8 d1 9f 3e f5 62 f9 bb fa 18 ca 3e
       -0.9543956 0.31214643 -0.0076106736 0.3947218
000170 4b 3f 13 bf dc d5 4d bf 66 f3 0e 3f 16 13 82 3d
       -0.5751845 -0.8040445 0.55840147 0.063512966
000180 e5 b9 36 bc 69 2f 00 3d 8e 63 20 bf e8 61 65 be
       -0.011152719 0.031295214 -0.6265191 -0.2240063
000190 85 3e 3f bd bb e1 58 3f 1e bb 07 3e 97 34 89 3f
       -0.046690483 0.8471944 0.13254973 1.0719174
0001a0 fd a2 dd bf 56 38 f6 3e e5 54 f9 3e 25 43 f9 3e
       -1.7315365 0.48089856 0.48697582 0.4868404
0001b0 6b 3f 1f 3f 8f 1a 96 bf 44 5d 42 3e 36 6c 12 3e
       0.62206143 -1.1726855 0.1898089 0.14299092
0001c0 4a 11 0b bf 4a 78 22 be 74 4c 2b bf 30 aa 27 3f
       -0.54323256 -0.15866199 -0.66913533 0.6549406
0001d0 82 f8 c9 bd c1 59 39 3e 1b da 62 be 98 15 1f bf
       -0.09861852 0.18100645 -0.22153513 -0.62142324
0001e0 06 28 aa 3e ce fa 28 3d 4c b1 da be 16 7e aa bd
       0.3323366 0.04125481 -0.42713392 -0.0832483
0001f0 77 74 02 bf 71 59 50 3f 39 d0 bd 3f 61 17 d1 bd
       -0.5095896 0.81386477 1.482917 -0.10209537
000200 ac e4 15 3e b2 3a 56 bf 17 15 71 3f 23 88 7d bd
       0.14638013 -0.8368331 0.94172806 -0.06189741
000210 e2 29 1f 3f 42 b5 98 3e 83 67 19 3f 2c e1 1f 3f
       0.62173283 0.2982579 0.5992357 0.6245296
000220 00 0a 19 3e c1 e6 24 bf 6a d4 77 3e 62 31 0c bf
       0.14945221 -0.644146 0.24202123 -0.5476285
000230 c3 9c 26 3f ba c7 f3 be d8 91 a9 3d 85 75 0b 3e
       0.6508295 -0.47613317 0.082797706 0.13619049
000240 b2 21 18 bd ff 7e 19 3e 9c 8f f6 3d c1 a7 15 bf
       -0.03714151 0.14989851 0.1203911 -0.584591
000250 a7 3f b4 bd 21 2d bf bd c5 b9 49 c0 c5 94 e7 be
       -0.08801203 -0.093347795 -3.1519635 -0.4523069
000260 69 02 7e 3f fc 41 96 bf d2 aa 47 3f f4 c7 c2 3e
       0.9922243 -1.1738887 0.77995026 0.38043177
000270 1f b9 3f be d0 31 86 3e b0 d0 3b be 0a e2 1f be
       -0.18722962 0.2620988 -0.18341327 -0.15613571
000280 fa 4b a3 bd 94 de 06 3f c9 68 31 be d7 ac 19 bf
       -0.07973476 0.5268338 -0.17325129 -0.6002936
000290 0f e6 bd 3d 40 b9 c2 3c af 75 09 be 9d 30 d7 3d
       0.09272396 0.023769975 -0.13423799 0.10507319
0002a0 b6 4d 48 bf 2e b9 7b 3d c2 f8 0c be 9c 31 c6 bd
       -0.7824358 0.061455898 -0.13766769 -0.09677431
0002b0 81 90 0a bd 0a b6 7e be ed a3 c9 be 4f 69 16 40
       -0.033829216 -0.2487413 -0.39382878 2.3501775
0002c0 c0 95 a1 bf 78 c8 83 3e 8a f4 02 3f 0f 1b 2c bf
       -1.2623825 0.25738883 0.51154387 -0.6722879
0002d0 91 ec 10 bf 40 8d 83 be 50 e1 d2 be c0 73 ab be
       -0.5661097 -0.25693703 -0.41187525 -0.33486748
0002e0 84 3f f0 bd 20 f3 1f 3d db 4a 82 c0 0b 8c 32 ba
       -0.11730865 0.03905022 -4.0716376 -0.0006811029
0002f0 37 45 14 3f ee 99 85 3f 62 ae 7a 3f 08 01 38 bf
       0.57918113 1.0437601 0.9792234 -0.71876574
000300 c8 a5 3e 3f 38 37 09 3f b1 75 9e be e8 d9 54 3e
       0.7447171 0.5359988 -0.30949166 0.2078625
000310 98 8b 7f bf cb 89 db bd d8 c1 92 be b5 14 dd be
       -0.9982238 -0.10719641 -0.28663516 -0.4317986
000320 21 7f b6 bf 8e 76 25 bf 34 bc 46 bf c1 05 c6 3f
       -1.4257547 -0.64634025 -0.77630925 1.5470506
000330 ac 2b d6 3e 46 a5 51 3e 2e 1f 7e 3e 97 78 83 3c
       0.41830194 0.20473203 0.24816582 0.016048713
000340 79 c0 40 3f d7 2b 82 bf bc 0a 8c be c9 fc 94 3e
       0.7529369 -1.0169629 -0.2735194 0.2909911
000350 34 cf 4a bf fd 72 a5 be db e3 33 bf 9d 94 17 bf
       -0.79222417 -0.32314292 -0.70269555 -0.5921114
000360 de aa c5 3c 30 2c 7d 3e 9d e4 a2 3e bc d5 ce 3e
       0.024129327 0.24723887 0.31815043 0.4039744
000370 cd 23 86 3e 6a 25 c6 bf 77 40 41 be 3c 08 91 bd
       0.2619919 -1.5480168 -0.18872248 -0.07081649
000380 86 02 a8 3e fa 90 92 3e 15 f8 72 c0 1f 10 1f 3e
       0.32814425 0.28626233 -3.7963917 0.15533493
000390 74 53 2a 3f d0 0e ab bf eb 22 86 3f 05 4e 1d 3e
       0.6653359 -1.3363895 1.0479406 0.15361793
0003a0 74 a2 5b be ba 23 c0 bf 0f 60 26 bf ce 9e 95 3f
       -0.2144869 -1.5010903 -0.64990324 1.1689088
0003b0 9f 6a 4f be ee f1 4e 3f ae 68 3e bf a6 54 ae be
       -0.20255516 0.80837905 -0.7437848 -0.34048957
0003c0 38 2f de 3e ba 6b 44 be 94 b0 b1 3e 16 2e b3 3e
       0.433954 -0.1918172 0.3470503 0.34996098
0003d0 56 94 4f bf 72 c7 9b be 5a 78 a9 bd 41 af 0c 3f
       -0.8108572 -0.30425602 -0.08274908 0.54954916
0003e0 a0 db 03 3e 50 f5 38 bf c0 97 1d bf 7d bc 38 3f
       0.12876749 -0.7224932 -0.6155968 0.7216261
0003f0 d4 9e 34 bf f8 18 d5 bf 0c 14 0f c0 0f f3 77 3d
       -0.7055485 -1.6648245 -2.2355986 0.060534533

linear1.bias f4 [256]
000000 ef c4 17 be 99 fc 69 3d 1c 51 83 be 8e b9 1c 3f
       -0.14821218 0.05712566 -0.2564782 0.61220634
000010 04 08 15 bf 75 a4 9f bd 3c 1c 8c be ad ab e0 be
       -0.58215356 -0.077950396 -0.2736529 -0.43880978
000020 8b bd 1f 3f 84 90 0b 3f 93 61 62 3e c4 72 45 3f
       0.62398595 0.5451739 0.22107534 0.77128243
000030 95 66 f1 be 2a 18 73 3f a7 6a 30 3f a4 fd 10 be
       -0.47148576 0.94958746 0.6891274 -0.14159256
000040 ae b0 eb ba a7 68 68 be 59 1a 40 3f 3f ea a9 bc
       -0.0017981732 -0.22696172 0.75040203 -0.02074158
000050 38 69 e3 bd 28 50 d9 3e e8 19 4f be 52 b0 88 be
       -0.11104053 0.42443967 -0.20224726 -0.26697022
000060 b1 77 46 be fd 29 8a be a2 ef 49 be 98 e6 e4 3e
       -0.19381596 -0.2698516 -0.19720319 0.4470718
000070 dd 80 49 3d ce 6d 35 be 76 e1 ba be 5d 72 e0 3f
       0.04919516 -0.17717668 -0.36500138 1.7534901
000080 cf db c1 be 51 bc e6 3e 6f 15 a7 3e c3 4d 84 3e
       -0.37863013 0.4506555 0.3263354 0.25840577
000090 f7 6b 75 be 96 c6 8d be c1 65 19 3f d9 a5 f1 bd
       -0.23966967 -0.27690572 0.5992089 -0.11799211
0000a0 99 97 c8 3d b4 f2 34 3f c0 d0 3f 3f 26 14 c1 3d
       0.0979454 0.70682836 0.749279 0.09427671
0000b0 2e f7 b9 bd d0 76 4c 3d 59 dd 0c 3e 25 6e 17 bf
       -0.09080349 0.049917996 0.13756312 -0.5915244
0000c0 bc e8 12 3f ef 43 cd 3f 1a 2d 30 3e 8f 78 de be
       0.57386374 1.6036357 0.17204705 -0.43451354
0000d0 90 f7 d0 be d9 d5 b5 bc 44 b1 a2 3e 72 5f ac bd
       -0.40813875 -0.022196697 0.31775868 -0.08416642
0000e0 0e 58 14 3f 57 3b a6 3e 85 12 7b be db 27 db be
       0.5794686 0.32467148 -0.24518783 -0.42803845
0000f0 44 38 a7 3f 81 9b 17 3f 06 8e 02 3f 7a e8 f0 3e
       1.3064046 0.59221655 0.5099796 0.47052366
000100 56 15 a4 be 76 57 d3 bd 53 5a de bd 27 5d 0c 3f
       -0.32047528 -0.10319416 -0.10857072 0.5482964
000110 94 49 35 3e 36 63 aa 3e 00 49 4f 3f df 8b 73 be
       0.17703849 0.33278817 0.80970764 -0.23783825
000120 e6 6e 98 be 1c ba 91 be f6 31 8f be cb 7c 60 be
       -0.2977211 -0.28462303 -0.27967805 -0.21922605
000130 83 07 38 3f ad 77 de be 0d 90 86 3f d0 09 ee 3b
       0.7188646 -0.4345068 1.0512711 0.0072643533
000140 23 c6 92 be 62 cf 23 be 59 e5 45 3f 1b 7b dc be
       -0.2866679 -0.15997079 0.7730308 -0.43062672
000150 ca a2 24 3f 61 a5 12 be 0e e1 03 bf 25 2d b7 be
       0.64310896 -0.143209 -0.5151528 -0.3577663
000160 c4 de e1 bd fd d8 85 3e 3a 27 a8 3e a0 a5 4a 38
       -0.11028817 0.2614211 0.32842427 4.8314803e-05
000170 2a 7e bd 3e db bb af 3b a2 4b 9e be 94 01 41 bd
       0.37010318 0.0053629703 -0.30917078 -0.047120646
000180 e6 b5 26 bf 34 b7 48 3e f7 cb cf be ba f6 75 3c
       -0.65121305 0.19601136 -0.405853 0.0150124375
000190 99 d8 cf 3e ac 99 f6 3e 30 9e 1a bf 8d b5 97 3e
       0.40594938 0.48164117 -0.60397625 0.296307
0001a0 1a 33 f6 bd c4 7a 01 be af ae 0a bf bb b6 01 bf
       -0.120214656 -0.12644488 -0.54172796 -0.5066945
0001b0 d1 6f a1 3f ca c2 a6 be 87 dc 9a be 6d d6 69 3e
       1.2612249 -0.32570487 -0.30246374 0.22835703
0001c0 d7 f2 09 be 69 bd 44 be bd 25 63 3f d4 4e 47 bf
       -0.13471542 -0.19212879 0.8872946 -0.7785466
0001d0 2e 12 6a bd 45 ed 51 3f 0f 5a f2 3d 3a e4 11 bf
       -0.057146244 0.8200267 0.118335836 -0.5698887
0001e0 d8 7d ce 3e ce ce e3 3d da 93 a2 3e 08 21 a3 bd
       0.40330386 0.11123429 0.31753427 -0.079652846
0001f0 75 73 23 3f 71 65 71 3e dd 88 57 be 82 ea f2 be
       0.6384805 0.23573853 -0.21048303 -0.4744454
000200 65 69 9f 3e 62 91 06 40 36 72 ae 3f 3d 58 ba 3d
       0.31135097 2.1026235 1.3628604 0.09098861
000210 b8 b0 09 bf e2 b4 aa 3e f4 f8 b5 bd 32 10 99 be
       -0.53785276 0.33341128 -0.08885375 -0.2989517
000220 2c 42 17 be 5b 2a 7e 3e 2e 61 f9 be 73 34 25 3e
       -0.14771336 0.24820845 -0.48706955 0.16133289
000230 3b b5 45 be 76 01 7c bc d4 b7 23 3f 8c d9 db be
       -0.19307415 -0.015381208 0.63952374 -0.42939413
000240 9b 82 62 bd b7 cc 2a 3d de 98 09 be c8 0e 0e 3e
       -0.055300336 0.041699138 -0.1343722 0.13872826
000250 b9 f6 b6 3d 12 85 75 be fd b5 f6 bd 0f d7 34 3d
       0.08933777 -0.23976544 -0.1204643 0.04415041
000260 77 83 1e 3e 4e 3b 07 3e 79 90 ad bd 03 5d 34 3f
       0.15479837 0.13206217 -0.084748216 0.70454425
000270 d7 6d 12 3e 13 13 f8 3e 69 42 b1 bd 1e 3d 95 be
       0.14299713 0.48452052 -0.08655245 -0.2914819
000280 28 53 0d bf a6 a7 07 be f5 0a 1c bd 0c 98 b4 3e
       -0.5520501 -0.13247547 -0.038096387 0.35272253
000290 c2 de c5 3f aa 4a 5d 3f a1 44 fc 3e 93 19 df 3f
       1.5458605 0.86442053 0.4927111 1.742968
0002a0 ec 94 47 3f cd 88 e8 3e cc 69 42 be 1c 0a 16 bc
       0.7796161 0.4541687 -0.18985671 -0.009157684
0002b0 d8 92 49 3c d4 6d 82 3e 68 98 1f be 32 89 63 be
       0.012303077 0.25474417 -0.15585482 -0.22220305
0002c0 6f 5d 94 bd 5e 85 81 be 9a e0 51 be f6 45 1a 3f
       -0.072443835 -0.25297064 -0.20495835 0.60263
0002d0 c3 44 d1 3e 5a d7 02 3f 07 18 0f bf a5 b4 d7 bd
       0.40872774 0.5110985 -0.5589604 -0.10532502
0002e0 1f 1a 17 3e 3d 8c 1f be 70 ac 2f 40 df 99 c3 3e
       0.14756058 -0.1558084 2.7448997 0.38203332
0002f0 40 ae d8 be 47 cf 70 3f 47 fb 0f bf 3f f2 a0 3e
       -0.42320442 0.9406628 -0.56242794 0.3143482
000300 3d 62 29 3f bb 72 9e 3e ee b2 b6 bd 0f 74 d8 3e
       0.66165525 0.30946907 -0.08920847 0.42276046
000310 b5 1c c5 3c 0c d4 37 be 6d f1 d0 be 5b d5 93 3e
       0.02406154 -0.17951983 -0.40809193 0.28873715
000320 f1 58 02 3f 5f 54 26 3e cb 6b 24 be 57 00 31 be
       0.50916964 0.16243123 -0.16056745 -0.17285286
000330 85 f1 80 be 46 0a 5b 3e 8c e7 19 bf 1e 85 01 3f
       -0.25184265 0.21390638 -0.6011894 0.50593746
000340 e6 a6 87 3f af 9a 5e 3f ea 7f c1 3e 32 98 c9 3e
       1.0597808 0.8695478 0.37792903 0.39373928
000350 78 75 8e 3e 8f 55 0e 3e e8 b1 f7 3e 2a fb af be
       0.27823997 0.13899826 0.4837792 -0.3437131
000360 31 08 dc 3f c7 e7 28 be 6b a2 78 be 1f d8 d2 be
       1.719 -0.16494666 -0.24280708 -0.41180512
000370 10 44 3a be c4 0d 3b bf c9 0c 87 3e fd c8 1a bf
       -0.18190026 -0.7306788 0.26376942 -0.60462934
000380 0d 4a 39 be 2f e6 87 3e 3c 96 d9 be be 27 fe ba
       -0.18094654 0.26542804 -0.42497432 -0.0019390506
000390 ee 5c 68 be 9e 1c 79 bd 66 fd 1f bf 60 86 28 3e
       -0.226917 -0.060818307 -0.6249603 0.1645751
0003a0 03 cb 2d be 11 2c 0b 3f 8a f3 f6 3f 72 8e 96 be
       -0.16971974 0.54364115 1.9293072 -0.29405552
0003b0 8a e6 ba 3d 3a 08 80 be af ce ef 3c 8b b0 97 be
       0.09126003 -0.25006276 0.02927336 -0.2962688
0003c0 c2 b6 49 be ec ad 8f 3e ad d2 21 3f 76 24 5e be
       -0.19698623 0.2806238 0.6321209 -0.21693596
0003d0 2c da 01 3f 65 bd 63 be 06 2c 63 3f c6 72 09 3f
       0.5072353 -0.22240217 0.8873905 0.53690755
0003e0 bc f4 37 3e 5d 2f 3d 3f 7a ac d5 3e c7 f8 b5 3e
       0.17964453 0.73900396 0.41733152 0.35541365
0003f0 35 55 ae 3e 4d 10 d0 3e c8 6b 8d be b5 02 6e bd
       0.34049383 0.40637437 -0.27621293 -0.05810805

linear2.weight f4 [5, 256]
000000 62 73 83 3f 70 43 c9 bf d9 ae 71 40 2b cb 74 3f
       1.0269587 -1.5723705 3.7762969 0.9562251
000010 07 02 91 3f 06 0e 5e bf 5c cd 28 3e 09 8b 9d 3f
       1.1328744 -0.8674015 0.16484588 1.2308055
000020 4b 3b ea 3f ae 2d c0 3f 7f 5f 76 40 2c 6b 85 3f
       1.8299345 1.501394 3.8495786 1.0423331
000030 61 0f 59 bf 0b f6 55 be 7d c4 27 c0 60 86 50 bd
       -0.8478909 -0.20894639 -2.6213677 -0.0509094
000040 5e 3b 79 bf 76 3e 62 bf d5 cf 28 3f 6a 50 89 3e
       -0.9735621 -0.8837656 0.65942127 0.26819164
000050 e8 a2 06 bf 14 34 5b 3f be 0a 49 bd 4c 3a 3c 40
       -0.52592325 0.8562634 -0.04908251 2.9410582
000060 53 c2 25 3f 91 bb 9d 3f 61 aa cf bf e1 6b 44 3e
       0.6474964 1.2322866 -1.622387 0.19181778
000070 32 52 f3 be fb 1f a8 3e 8f 29 5c 3f 33 96 6f 40
       -0.47523648 0.328369 0.86000913 3.7435424
000080 31 f6 ad 3f b3 ce 56 3f 64 57 c7 bf cc b1 24 bf
       1.3590757 0.8390915 -1.5573545 -0.64333797
000090 03 9e 62 c0 75 32 3d 3f d3 06 cc 3e ab 62 8f 3f
       -3.5408943 0.73905116 0.39848956 1.1201986
0000a0 d7 20 c0 3f 2b 1d 03 3f 9b e7 ec 3f 82 90 3c 3f
       1.5010022 0.5121638 1.850818 0.73658
0000b0 83 b3 eb 3e eb 1e 5b bf b1 bd 03 40 0d 17 10 3f
       0.46035394 -0.8559405 2.0584528 0.5628517
0000c0 07 56 27 40 7c 9c 38 3f b1 97 00 40 a5 d2 80 3e
       2.6146257 0.72113776 2.0092585 0.2516071
0000d0 e1 bf dd 3f d0 44 ed 3e 3f b0 93 3d cd 15 a4 be
       1.7324182 0.46341562 0.07211351 -0.32047883
0000e0 68 ef cd 3f 8a 03 e2 3f 82 52 81 3f 24 44 17 c0
       1.6088686 1.765733 1.0103304 -2.363534
0000f0 71 43 70 3f 48 9f 06 c0 cf 76 7b 3e 17 db 22 40
       0.9385291 -2.1034718 0.2455704 2.5446222
000100 d9 50 f4 bd 13 4a cc 3e b2 f8 63 bc 87 0f 2e 40
       -0.11929483 0.39900264 -0.013914274 2.7196977
000110 e4 39 f8 3f 99 74 d2 3e 01 d4 07 40 45 42 f5 bb
       1.9392667 0.41104582 2.1223147 -0.0074847066
000120 5f 43 3a 40 25 68 b2 3c 30 a4 61 3f 87 c3 d7 3e
       2.910362 0.021778176 0.88141155 0.42141363
000130 34 38 c1 3e fd fa d5 be 25 c4 69 3f 87 4e f8 be
       0.37738192 -0.4179305 0.9131492 -0.48497412
000140 12 c3 c0 3c 96 6d f6 3b af 80 a9 bf 4e 06 49 3e
       0.023530517 0.007520388 -1.3242396 0.19631311
000150 94 a9 30 3f 6b 18 6f 3f a8 27 32 be 6f 3d c4 3f
       0.69008756 0.93396634 -0.1739794 1.5331248
000160 26 ec 3d 40 9f c1 f4 3d fd a7 de bf aa a9 50 3d
       2.9675384 0.11950993 -1.7395016 0.050943054
000170 59 5a bc 3e a0 d8 9c bf 50 40 2e bd a3 b8 a0 3e
       0.3678768 -1.2253609 -0.042541802 0.31390867
000180 5c ee 1c c0 a2 9a ca bd e3 f1 4d c0 fe b1 86 3e
       -2.4520483 -0.09892775 -3.2178886 0.26307672
000190 c6 79 a3 bf 30 de 36 40 b8 9a ac 3f 82 a2 d2 3f
       -1.2771537 2.8573112 1.3484716 1.6455843
0001a0 42 67 c2 3f 08 89 3c 3f 22 4b 99 bf bf 18 a4 3f
       1.5187762 0.73646593 -1.1976054 1.2820052
0001b0 73 d2 0f 3f 4b 37 1f c0 09 52 1a 3f 75 c4 17 3f
       0.56180495 -2.4877498 0.60281426 0.59284145
0001c0 57 5e de be fa 38 ba bd ce 9c 90 3e e1 24 59 3f
       -0.4343135 -0.09092899 0.28244632 0.848219
0001d0 f1 25 ce 3e de d7 6a 40 5a 43 af 3f 88 43 99 be
       0.40263322 3.6694255 1.3692429 -0.29934335
0001e0 69 2e e8 bf ad e6 6b c0 ec fa 3b 3f f5 39 d8 3c
       -1.8139163 -3.6859543 0.7342975 0.026394824
0001f0 ec b4 d6 3e 61 ed 1f c0 5b 3e ab bf ab 88 87 3f
       0.41934907 -2.4988635 -1.3378404 1.0588583
000200 55 2a 2c c0 e3 67 d5 3f 14 77 2f 3e d4 50 06 bf
       -2.6900837 1.6672329 0.17135268 -0.52467084
000210 c7 01 8a 3f 87 5c 5a 3f 3b ce 88 3e f1 27 d6 3f
       1.0781792 0.85297436 0.2671984 1.6730939
000220 df ae b7 3f d2 af 7a bd b4 76 9a bf 33 35 c2 3f
       1.4350241 -0.06120283 -1.2067475 1.5172485
000230 73 42 c2 3f d3 d2 d0 bf 15 d8 75 40 c1 37 24 3c
       1.5176529 -1.6314338 3.8413136 0.010023058
000240 35 c6 50 3f 52 61 4c 3f d0 49 02 3f 5c e0 e9 3e
       0.8155244 0.79836 0.5089388 0.45678985
000250 6a b5 20 3f 1d a6 84 3f be b4 4c 3f b5 03 57 bf
       0.62776816 1.0363194 0.7996329 -0.8399003
000260 bc c4 04 3f 52 38 fc 3f 20 a5 18 40 d8 46 b9 3e
       0.5186269 1.9704688 2.3850784 0.36186862
000270 b6 2b 33 be 99 39 42 bf 6e 14 48 3f 59 94 0c 3e
       -0.17497143 -0.7586914 0.78156173 0.13728465
000280 12 5c bb 3f 32 9b 90 c0 2c b7 a5 bf c3 54 8d bd
       1.4637473 -4.5189447 -1.2946525 -0.06900933
000290 46 c0 28 40 a6 ea 39 bf 66 31 06 3f 82 b9 52 3d
       2.6367354 -0.7262367 0.52419126 0.051446445
0002a0 b3 b4 03 3f b3 6f 78 3e 47 09 e8 3e ce 5f 97 3f
       0.514476 0.2426136 0.45319578 1.1826112
0002b0 a9 48 ad 3f e5 1e 0e c0 2c 9f 9d be 47 c5 fd 3e
       1.3537799 -2.2206357 -0.307855 0.49564573
0002c0 87 4b 94 3f e6 c9 56 3f f4 0b 48 3f 43 36 22 40
       1.1585549 0.8390182 0.7814324 2.5345619
0002d0 f4 b7 5a 3f 45 75 82 40 fd d0 fb 3e 2f 57 3f 40
       0.8543694 4.076815 0.49182883 2.9896963
0002e0 25 87 29 3f 70 0d ab be 68 dd 07 40 1e ed c0 bf
       0.6622184 -0.3340869 2.1228886 -1.5072362
0002f0 27 45 b9 c0 e9 81 9d 3f 28 10 d6 3f e8 d3 b4 bf
       -5.7896914 1.230527 1.672368 -1.4127169
000300 83 2a 5d 3f 33 a8 3d c0 81 73 90 3f f3 ea 16 c0
       0.8639299 -2.963391 1.1285249 -2.3580902
000310 61 69 fd 3e 6d 23 8b 3c d7 4e a6 bf a8 16 3c 3e
       0.4949446 0.016984666 -1.299281 0.18368018
000320 f2 3c 17 c0 b9 c3 95 c0 52 68 e1 3f 14 91 69 3f
       -2.3630948 -4.680142 1.7609961 0.91236997
000330 f2 f7 c8 bc 28 7e e8 bb af 2f 50 3f 20 b8 89 3d
       -0.024532292 -0.007095117 0.8132276 0.06724572
000340 88 34 cf bf e5 0c 07 40 50 e2 ab 3e 7c 86 32 3f
       -1.6187906 2.110162 0.335711 0.69736457
000350 a1 89 a6 3f 6a a0 8b 3e 0f f3 5b 3f 36 1f a1 3e
       1.3010751 0.27270824 0.85917753 0.31469125
000360 2e 78 2b 3f b8 94 e2 3d 25 cb 4a c0 5b 79 cc 3f
       0.66980255 0.11063522 -3.168649 1.5974535
000370 b9 be 75 be 5a 46 05 3f 14 ff a8 bd 1c 85 0f 3f
       -0.23998536 0.5206047 -0.08251777 0.56062484
000380 83 fd 7e 3e 83 76 f8 3e 4f bc 09 c0 50 51 44 bf
       0.24901395 0.48527917 -2.1521184 -0.76686573
000390 4d 0e dd 3d bb fe 70 3e ab b2 76 c0 af c9 8e 3e
       0.10793743 0.23534672 -3.854655 0.27888247
0003a0 59 fc a8 3b a4 ce 0c 40 de bc 8e 3f 2c 9e 13 3f
       0.0051570353 2.2001123 1.1151388 0.57663226
0003b0 89 db 17 3f 9e 04 3c bf 99 db 34 bd 55 cb fa 3d
       0.5931936 -0.73444545 -0.044154737 0.12245814
0003c0 c2 cc dc 3e 49 61 43 3f 5e 1b 50 3f 13 8b 36 be
       0.43124968 0.7632032 0.8129176 -0.1782649
0003d0 3c 5e a5 3f 51 e2 09 c0 de 97 27 40 3f b3 b1 3e
       1.2919383 -2.1544383 2.6186442 0.34707066
0003e0 19 60 37 bf 64 c3 87 3f 28 39 a8 3f 62 43 e9 3d
       -0.7163101 1.0606503 1.3142443 0.113898054
0003f0 c0 b2 64 3f 0d 79 9e 40 cb e2 3d 3f f9 1e b0 3f
       0.8933525 4.9522767 0.74174184 1.3759452

linear2.bias f4 [5]
000000 87 b1 ca 3e ad 2e 89 3e 2c b3 85 3e 54 2a f7 3e
       0.39588568 0.26793423 0.2611326 0.4827448
000010 c9 8a a7 3e
       0.32723072
