model/a2model.pth (torch, 33183 bytes, 4 tensors)

linear1.weight f4 [256, 25]
00000000: 7961 803c 3c22 c93d aec6 d3bd 0a33 133e
00000010: 2dbe 4d3e 1ad8 09be 9965 2fbd 2df0 8dbc
00000020: 3894 04be a6b1 d3bd 6184 14bd 7bbb 7b3d
00000030: 998b 08be 85f0 34be 4b94 603b d3db 3d3e
00000040: ebfc 483d 3501 a23d 43e3 c53d 7ff0 00be
00000050: 22c4 39bd 98c7 333d 9a17 19be f5a4 7a3d
00000060: 3cb5 3f3e ef4c 4dbd 0ac1 2f3c d5ed 093c
00000070: 99e3 073e cfb3 32be a233 01bc aeca 05be
00000080: cf3b ce3d 5a6f 47be a7e2 f9bd 94e1 1a3c
00000090: c250 7c3d 28d4 a83d 5926 82bd ae76 0dbe
000000a0: caee 9d3d 9c5a dabd 4997 363e 60d3 cdbd
000000b0: 33d5 1a3c 0f96 a4bd 619c 453e ac8a 33be
000000c0: 1c3d c6bd ec00 26be 9851 253e c7e9 1b3e
000000d0: 3bbb 2cbe c169 4bbd 8fc2 61bd 257c d33d
000000e0: 8cd7 0ebc 6eb0 c6bd f262 c43d c953 29bd
000000f0: 9b3e 6a3d 845b bcbd 681f f3bd 2635 913d
00000100: 7d8e 003c c9e1 4bbd 5a17 b83c db61 7c3d
00000110: ab05 743c 75a1 993d 8f87 323c ac16 323d
00000120: 7d8c 17be a486 42be ec4c 01be 05ff 83bd
00000130: 437c 29bd 1712 7a3c 17f3 f2bc 8feb 3dbe
00000140: e1c2 823d 96c7 45be 565f 57be 3510 1d3d
00000150: b441 3c3e f3bd 42be d820 cd3c 0c7b 4dbc
00000160: 01cc 09bd 60a9 97bd 59d0 803d e2ea 433d
00000170: f867 233e cb2b ddbd abc6 efba c59c de3d
00000180: da9a 39be 4b9d c9bc 7278 8dbd 0201 723d
00000190: 06f4 263e 248d 483c 227d 33be 0093 573c
000001a0: 7190 d53d 5519 983d 0669 7cbd 635c 26be
000001b0: 2059 67bd 37d4 e33d cdd9 1bbe 5037 d3bc
000001c0: 7252 4cbe 41ac 153e 3e4b dcbd 3374 183e
000001d0: d26e 66bd 24f1 15bd e36a 6fbd b4b8 0cbc
000001e0: ed30 d03d f3b1 64bd 9f40 cabc 6089 f5bd
000001f0: c71b aabd 191a 143e c27b ce3d 4493 9fbd
00000200: 5fa0 ddbd 5b36 2cbe 3009 ecbd 32c5 883d
00000210: 3e43 e5bd 0374 333e 1870 72bd ee60 9f3d
00000220: 75c1 d53d 434e 383d f4a6 283e 21c0 16be
00000230: 2721 43bd b9ad c7bd ecb4 d7bd e989 233e
00000240: 55a5 563d 2104 933c 8a85 98ba ecab 9f3d
00000250: 0e4d 3c3e 6a90 c3bd 56e0 09be f045 05be
00000260: dd26 83bd 00a4 0bbe e89e 38bd 522d 143d
00000270: 9327 283e 1070 d43b a1e8 f6ba fcdb 903b
00000280: bafa 47bd 16ae 543d 73a7 4c3d 7401 023e
00000290: 90ea df3d a074 343e 7f72 d5bd a831 d3ba
000002a0: 58eb 89bd 6c37 debd e0c5 c73d b422 873d
000002b0: e463 e2bb 6bf4 423d 7b7d 313e 41d6 173d
000002c0: a7b8 933d cf77 f53d 9513 863d b282 2e3e
000002d0: dad5 023e 5998 0b3d e383 26bc 8f39 6fbd
000002e0: 2acc e6bd 2a9d 9f3c 056f 51bd ba4a 1cbd
000002f0: de4d 85bd c2e6 4d3e d5f3 323e 1826 303e
00000300: 5f4c 33be 17ad 11bd 1cb9 533d dc96 013e
00000310: 7247 e9bc 49b4 19be 4ee8 323e 36c8 d83c
00000320: 344c 503e 289f 263e 3085 213e 83e8 1dbe
00000330: 1134 143e b277 e13d b81b fd3d b4fb c9bd
00000340: 1527 61bd 81c5 3bbe 8006 51bd cbb0 243e
00000350: 1f83 39bd ee8b 003e ab3a 3dbe 2d83 c03d
00000360: 9767 8abc b614 a73d 1cdb 083e 9811 53be
00000370: 413a 193d 4ff4 8f3d 1b5e 34be 19f2 2ebe
00000380: 3a23 13be 4024 c53c 4bd5 393e ec8a 6cbd
00000390: 828b 48be 0082 0ebd e2ef fe3d c212 49be
000003a0: 7035 0fbe fd31 eebd 60b4 f5bb c07f d23c
000003b0: 5ecd 033c 97d1 1b3e 4849 7fbd 9802 183d
000003c0: 4451 693d 8474 83bd b3d9 28be c7fe 40be
000003d0: c8d8 0ebe 0957 e5bc 5d70 783b 996b 59bd
000003e0: 47f7 43bd 972c 973d 8455 5a3c 1a9c 323e
000003f0: 66b8 fcbd 3a36 223e f1b7 2e3e f481 e5bd
0.015671479 0.09820983 -0.103406295 0.14374939 0.20092078 -0.13461342 -0.0428215 -0.017326439
-0.12947166 -0.10336618 -0.03625906 0.061458092 -0.13334502 -0.17669876 0.0034268077 0.18540888
0.049069326 0.079103865 0.09662487 -0.12591742 -0.045353062 0.04389152 -0.1495041 0.06119247
0.18721479 -0.050122198 0.010727176 0.00841852 0.13270415 -0.17451404 -0.007885845 -0.13065597
0.10070001 -0.19476071 -0.12201434 0.009453196 0.061600454 0.082435906 -0.063549705 -0.13814804
0.07711561 -0.106618136 0.17831148 -0.10050082 0.009450245 -0.08036434 0.19297935 -0.17533368
-0.096796244 -0.16211289 0.16144407 0.15225898 -0.16868298 -0.0496614 -0.055117186 0.10326413
-0.008718383 -0.0970162 0.09589185 -0.04133967 0.05718861 -0.09197143 -0.11871225 0.070902154
0.007846472 -0.049775872 0.022472072 0.06161676 0.0148939295 0.075014986 0.0108965775 0.043478653
-0.14799686 -0.18996674 -0.12627 -0.064451255 -0.04137827 0.015263102 -0.02965693 -0.1854689
0.063848265 -0.19314417 -0.21032462 0.038345534 0.18384439 -0.19017772 0.025040075 -0.012541544
-0.03364182 -0.074053526 0.06289739 0.047831424 0.1595763 -0.107993685 -0.0018293461 0.10869745
-0.18125477 -0.024611136 -0.06907739 0.059082992 0.16304025 0.012240682 -0.17528203 0.013157606
0.10427941 0.07426707 -0.061623596 -0.1624618 -0.05648148 0.11124461 -0.15219803 -0.025783211
-0.19953325 0.14616491 -0.10756539 0.14888076 -0.05625803 -0.036606923 -0.058451544 -0.0085889585
0.10165582 -0.055833768 -0.024689017 -0.11989093 -0.08306079 0.1446308 0.10082199 -0.077917606
-0.10821604 -0.1681761 -0.1152519 0.06678237 -0.11194466 0.17524724 -0.059188932 0.0778216
0.104372896 0.04499651 0.16469938 -0.14721729 -0.04763904 -0.09749932 -0.10532555 0.15970577
0.052403767 0.017946305 -0.0011636477 0.07796463 0.18388769 -0.09549029 -0.13464484 -0.1301496
-0.06403897 -0.1363678 -0.04507342 0.036176033 0.16421346 0.0064830855 -0.0018837639 0.0044207554
-0.048823096 0.051923834 0.04996438 0.12695867 0.10933411 0.17622614 -0.10422229 -0.0016112821
-0.067343414 -0.10850415 0.097545385 0.06598416 -0.0069088805 0.047596376 0.17333023 0.037069563
0.07212954 0.11985742 0.06546704 0.17042044 0.1277689 0.034080837 -0.01016328 -0.0584045
-0.1126941 0.019484121 -0.051131267 -0.038157202 -0.065089926 0.20107558 0.17475827 0.17202032
-0.17509602 -0.035565462 0.051690206 0.12655205 -0.02847645 -0.1501018 0.1747143 0.026462656
0.20341569 0.16271651 0.15773463 -0.15420727 0.14472987 0.11009158 0.123588026 -0.09862462
-0.054968912 -0.1833706 -0.05103159 0.16083066 -0.045291062 0.12553379 -0.18479411 0.0940002
-0.016895099 0.08158247 0.13364834 -0.2061218 0.03740907 0.0702902 -0.17614023 -0.1708454
-0.14368907 0.024065137 0.18147771 -0.057749674 -0.19584468 -0.034791946 0.12448098 -0.19636062
-0.13985229 -0.11630628 -0.007498309 0.025695682 0.008044569 0.15216671 -0.062325746 0.03711185
0.056962267 -0.06418708 -0.16489296 -0.1884719 -0.13949883 -0.027995603 0.003790877 -0.05308113
-0.047843244 0.07381552 0.013326053 0.1744236 -0.12339859 0.15840998 0.17062356 -0.11206427

linear1.bias f4 [256]
00000000: 59de 0abe 9789 cdbc 21cf 093e 56be 30bd
00000010: 8a78 e8bd f145 bf3d 8358 e23c 409d 083e
00000020: 6bf5 ef3d 7602 c9bb 8bb9 1fbe 7e40 febd
00000030: 4d41 36be 5c7f 973d a312 32bd 2bef eebd
00000040: 1e75 a6bd 6ad1 543d 4df7 1abe 1531 b93d
00000050: fddd 3fbe ab0d a2bd 3a6d 0239 dd2b 85bd
00000060: 2cff fabd 563d 8c3d 1345 fe3d 45a5 50be
00000070: 2168 e83d 9d32 643d 38be 073e 11db ee3c
00000080: aa2d edbd bfa5 153e f4a9 5f3b 2221 46be
00000090: dc40 27be bf5c b53d f946 1fbe 555d 05be
000000a0: e6c6 323e 2392 223e bd9d 013e c903 95bd
000000b0: 11c2 1c3e e75a bcbc 0305 3fbe 9bf9 323e
000000c0: b084 38be 1998 1f3e 2dd0 243e ec87 183e
000000d0: 6f9e 263e 320f f0bc c7c0 113e 3b9e 96bc
000000e0: 33de abbd 3578 04bd 9c7b 37be 2f4b 38be
000000f0: ec73 12be bd61 cb3d 121f 9e3d b861 2c3d
00000100: 4684 223e 1dd2 0cbe 8ab6 ebbd 44fb b1bd
00000110: 2a88 d13c d645 463d 50fb 1cbe 0c2b 093e
00000120: 359a f63d c9c6 df3d 96f9 483c 026a 513e
00000130: 7e10 263e 6180 dcbc de82 fc3d 9deb 083d
00000140: be4f fcbd 2b68 eabd 402a 2a3e 2b16 4f3e
00000150: ab20 c2bd 727e 3f3e 31b2 f93d 346e cc3d
00000160: 4bf9 46be 2a65 20bd ce37 f93d 832f 1ebe
00000170: c427 0cbd ca59 6bbd 847f 1abe 3cf2 b3bc
00000180: cfde 1f3d 782a 89bc 8734 b13d a113 6b3d
00000190: 7eb7 6e3d 6255 793c a92f 2c3e b240 4e3d
000001a0: b123 5dbd e170 f3bd c516 f8bd 44ef 453e
000001b0: 48c9 a5bd 0ab3 8ebd 846c 90bd fec3 2e3e
000001c0: d88e 8c3d e1a2 663d 7122 133e 8ed8 0ebe
000001d0: d172 4bbe fc16 15be c1fc acbb 0799 1f3e
000001e0: 7c92 243e 04e8 4cbe 1029 d0bc b1ea f8bd
000001f0: 42e4 c33d a49b 103e d63e c53d 6e28 55be
00000200: 8f7d 1c3e e627 723d 06db 323e 2e51 fabd
00000210: b604 1a3e f03a 013e 518a 893b 12f7 3ebe
00000220: f252 e43d 29ca ba3d 096a 9f3c 0946 3cbe
00000230: 9518 1c3e 0c0f 55bd 8917 bbbd 48b7 883d
00000240: 2dd5 95bd 47a5 6239 0986 e1bb a558 b23d
00000250: 0c9f c2bd 8418 543d 99c6 fc3d 040b b1bd
00000260: 6206 8ebd 2dbd e8bd 3682 6a3c 3089 643c
00000270: fcf7 f33d 33e5 06bd 087f 203e e9e5 c8bd
00000280: ba33 54be ef67 5abd 35c6 09bd bc0c 083e
00000290: 1235 8b3c c17a 26be b86f 12be 482a ddbd
000002a0: d28f 43be 7981 d0bd aef5 c43d 7219 af3d
000002b0: c57a 393e c2bc 373e 7b31 46be cf5e 03be
000002c0: 11be 183e 0434 2a3e 765e 2cbe 8b27 1dbe
000002d0: f7d9 093c 50d2 e73d 7dbe 4e3c 77e1 443d
000002e0: 70ff 3a3e d1a9 d93d 850c e5bd 3aa7 3cbe
000002f0: 7a21 d43d 224e afbd cf4b 8c3d 08d6 493e
00000300: ae6a 41bc d61e 063e 0cf1 033e f1bf 343e
00000310: 39b3 36be 3d0d 3a3e ce06 c0bd f923 22be
00000320: 6940 a9bd 7596 7fbb 723f a23d 3123 4abe
00000330: 6b79 dfbd 1892 033e cabb 44be 2996 973c
00000340: f754 1abe f5e6 beb8 a99c 26be e7b3 d63d
00000350: f4b3 0e3e 198d ecbc 7f38 c43d e11c 303c
00000360: 3bd5 c93d 5a47 24be 6041 2bbe 8db8 983d
00000370: b05a 683d 4261 39be 14f6 fbbd 0fa1 343d
00000380: 709f 19be 6490 2ebe a1c5 613c 9628 d0bb
00000390: a409 a0bd 435e 733d 2547 223e 863d 053e
000003a0: 141e 243e 35a6 42be 2e9d 1cbe 1dec 303e
000003b0: 30a5 ae3d 8e41 853d 612d ce3c 5302 4abd
000003c0: 9c37 093c 3d72 2abd 388c 4fbe ae98 293e
000003d0: 70d9 06be aeb2 943d b298 96bd d666 03be
000003e0: 51ff dbbd 768f 49be d61c 353c 48a0 a83c
000003f0: 099e da3d 2717 793d d0d1 3f3e 07e3 ac3c
-0.13561381 -0.025090022 0.1345792 -0.04315027 -0.11351116 0.09339512 0.027630096 0.13341236
0.11716732 -0.0061343266 -0.15598123 -0.12414645 -0.17798348 0.07397339 -0.043474805 -0.116667114
-0.08127807 0.051957525 -0.151334 0.09042565 -0.18737026 -0.07912763 0.00012438456 -0.06502507
-0.122557014 0.068476364 0.124155186 -0.20375545 0.11347986 0.05571233 0.13256156 0.029157193
-0.11580975 0.14614008 0.00341284 -0.19348577 -0.16333336 0.088555805 -0.15554418 -0.13023885
0.17458686 0.15876059 0.12657829 -0.072761126 0.15308405 -0.022992564 -0.18654256 0.1747803
-0.18019366 0.15585364 0.16095038 0.148956 0.16271375 -0.02930412 0.14233695 -0.018385997
-0.083919905 -0.0323412 -0.17918247 -0.1799743 -0.14302033 0.099307515 0.0772077 0.04208538
0.15870771 -0.13752027 -0.11509426 -0.08690503 0.025577623 0.048406444 -0.15330243 0.13395327
0.120411314 0.10926587 0.012266537 0.20450595 0.16217229 -0.026916685 0.123296484 0.033427823
-0.12319897 -0.1144565 0.1661768 0.202233 -0.09478887 0.18700579 0.121921904 0.09981957
-0.19431035 -0.039158978 0.12168847 -0.15447812 -0.03421761 -0.057458676 -0.15087706 -0.021966092
0.039030846 -0.016743883 0.08652597 0.057391766 0.05828046 0.015218111 0.16815056 0.050354667
-0.053989116 -0.11886764 -0.12113718 0.19329554 -0.08095032 -0.06967743 -0.07051948 0.17066953
0.06863183 0.056307677 0.14368607 -0.13949797 -0.19868018 -0.14559549 -0.005279154 0.15585719
0.16071504 -0.20010382 -0.025410205 -0.12154139 0.09565021 0.14121872 0.09631126 -0.20816204
0.15282272 0.05912008 0.17466363 -0.12222515 0.1504086 0.12620139 0.004197397 -0.18648937
0.11148633 0.0912059 0.019459741 -0.18386091 0.15243752 -0.052016303 -0.09135348 0.06675583
-0.07316051 0.0002161461 -0.0068824333 0.08708314 -0.09502992 0.051781192 0.12342567 -0.08644679
-0.06934811 -0.113642074 0.014313271 0.013948724 0.11912534 -0.032933425 0.15673459 -0.09809477
-0.20722857 -0.053321775 -0.03363629 0.13286108 0.01699308 -0.16257764 -0.1430043 -0.1079908
-0.19097832 -0.10180945 0.09617172 0.08549775 0.18113239 0.17943099 -0.19354813 -0.12829135
0.14916255 0.16621405 -0.16832909 -0.15347116 0.008413783 0.11319411 0.012618658 0.048066583
0.18261504 0.10628093 -0.111840285 -0.18423167 0.10357948 -0.085598245 0.06850397 0.19710553
-0.01180522 0.130977 0.12884921 0.17651345 -0.17841806 0.18169113 -0.09376298 -0.15834035
-0.082642384 -0.0038999591 0.079222575 -0.19739987 -0.109118305 0.12848699 -0.19212261 0.01850422
-0.15071474 -9.102925e-05 -0.16270699 0.104835324 0.13935834 -0.028875874 0.09581088 0.010749073
0.098551236 -0.16042843 -0.16724157 0.07457075 0.05672711 -0.18103507 -0.12302795 0.04409891
-0.15002227 -0.17047268 0.013780029 -0.0063524945 -0.07814339 0.059416067 0.15847452 0.1301175
0.16027099 -0.19008715 -0.15294334 0.1727757 0.08527601 0.06506644 0.025168123 -0.049318623
0.008375075 -0.041612852 -0.20268333 0.16562149 -0.13168883 0.07260643 -0.07353343 -0.12832198
-0.10742057 -0.19683632 0.011054238 0.02058424 0.10674674 0.060813095 0.18732381 0.021104349

linear2.weight f4 [5, 256]
00000000: 857f d2bc d580 ef3c 93d6 803c 2ed8 a43c
00000010: eb7f 6cbb 5835 f53c 0099 2dbd d681 173d
00000020: 4d8e 60bd 50d3 c6bc 4d79 833d 9d68 85bb
00000030: 187c d3bc 0a2b 42ba 01e1 583d 4568 043d
00000040: 6c6b c2bc afba caba 75bd 033b c884 f93c
00000050: 4625 f03c 941a 173d ef69 d13c 538f 74bc
00000060: 3ee1 61bc 2cbc 4a3a 6601 523c f4ad 71bd
00000070: 7a5f 64bc 0254 17bd 1aff 123c d92f 573d
00000080: 94d2 32bd 54fa 4ebd d48f 10bb 1238 2cbd
00000090: fb42 ce3b 42d1 e03c e0bc c0bd c53b 233d
000000a0: 2663 d7bc 304c df3b a761 653c 5fd7 573d
000000b0: 8de6 74bd 3373 5a3d ff48 f73c 4668 c4bc
000000c0: cb8d 3bbd 6c55 f13a 9e98 533d e85a 11bd
000000d0: 819e 173d 0723 853c 2ea3 ff3c cd7b a53c
000000e0: c469 0cbd c02d ff3b c62f 02bd 8648 5a3c
000000f0: b642 58bd 7e2a cbbb d714 beba 8c0e 30bd
00000100: 7a5a 76bd f40c 5f3c 8b04 383c 1cca 513d
00000110: dbfb 963c 2878 21bd 1f05 8f3c c327 2abd
00000120: f72d 4abc 4675 30bd 8fc6 dfbb f005 4f3d
00000130: f5aa 94bd f25e cb3a 4cbf 343d 0184 e93c
00000140: 5489 103d 2d9d 25bd 8f26 d7bb c043 903d
00000150: 7396 cfbb d307 773d 0f3d 413b f6e0 563d
00000160: 2467 e6bc 157b 173d d736 093d 74fa 35ba
00000170: daca 1cbb 1637 273d c40c 3abd 67c0 313d
00000180: d2bb 05bd be51 d63c e90b 6d3d 3da7 753d
00000190: 811f 8abd fa3f 203c ea26 80bd 33be 743d
000001a0: 3b50 4dbd 2c59 d03c b3f6 8ebc 3bc2 c73b
000001b0: 5aa3 f93c e0df 3cbd 3514 babc d187 1a3d
000001c0: 9095 4f3d 9114 a1bc 2e0b d63c eeb0 79bd
000001d0: 23fc 4ebd f6b4 e63c f082 ebbc 23c7 12bc
000001e0: cf7c ccbc 6007 083d dea9 96bc 84d8 e33a
000001f0: ad19 103b a2e7 aa3c 69a3 7fbd 95b3 89bc
00000200: 3d34 5ebd 07b0 94bc 64fb 32bd c3db 90bd
00000210: 4182 2d3c 7d6a 97bc 1ebc 5cbd d6c0 1fbd
00000220: 8ab2 5a3d 9495 983b 467e 6a3b 1f21 2b3c
00000230: 1cfe b83c e95f 03bc 7aee 82bc 5893 ea3b
00000240: 2aca 80bd 48c0 c3bc a334 133c dfb5 a23c
00000250: b7cb 153d 5aee 0e3c 2a57 843d d4ef 153d
00000260: 487e 413c 7c67 cd3b 2548 163d 55e1 183d
00000270: a577 95ba 91c8 d5bc d3d9 a0bc 002e 04bc
00000280: 1b31 193d aee0 3a3c 6117 fcbc 55d7 1abd
00000290: 99ad 0d3d 0dca 3b3d 4478 d2bc a52b 61bd
000002a0: 19f6 6b3d d04f 003d 2f0b 1cbd a603 02bd
000002b0: 8698 22bd 40f8 2ebd d588 ce3a 7626 673d
000002c0: e1cc e43b 8089 7cbb 44dd 5a3c 0476 72bd
000002d0: a364 c43c 8fac 393d 7d5c 87bc f6f3 363d
000002e0: 4d7c 67bc 8aa0 243d 39cb 05bd 3f60 4c3d
000002f0: cbb6 a1bc 26fc 51bb 7351 73bc 46d4 34bd
00000300: 496a b939 3665 8cbc 0378 333c 667f 623d
00000310: 7b8f ec3c ee33 33bd 264f 65bd 0f9a f4bc
00000320: f061 1abd 108f 413d 9ffa 60bd c41e 513d
00000330: 6963 ce3c eaff 1d3c 80ee f03b 1670 5c3d
00000340: 6b9f 7a3d f2fd 0ebd 3453 73bd 1505 9dbc
00000350: 758a 30bd 846e 80bd 6204 c03d e2f8 c2bc
00000360: bfb3 5dbd 33ac b03c 8a8b 4d3c f6bb 763d
00000370: 9eea 803d 3f54 31bd ac5f cf3b 8bc7 7e3d
00000380: ebdc 3dbc 5a6f 66bd d9bf 61bc e24e 1abd
00000390: 0db9 463c bdbd 293d 9190 41bd b1c0 58bd
000003a0: a0fb 333d 4a98 57bd 7110 0c3d 2ee9 493d
000003b0: 2a66 3abc edce a73c b72a 983c 3fde 1abd
000003c0: 7fe0 393d 32af ecbb e623 05bd 5e10 083d
000003d0: 2374 173d b8b5 b03b b9d8 32bd 101a e63b
000003e0: eed7 b3bc 4a40 f73c 3bb2 133d 6ddf 473d
000003f0: 5bf5 c63c e0bc d63c 4d44 eebc eecb f63c
-0.025695572 0.029236237 0.015727317 0.020122614 -0.0036086987 0.029932663 -0.04238224 0.036989056
-0.05482321 -0.024270684 0.06419621 -0.0040713088 -0.025816008 -0.0007406926 0.052948955 0.032326
-0.023732863 -0.0015467013 0.002010194 0.030458823 0.029314648 0.03689058 0.025563208 -0.014926749
-0.013786612 0.0007733728 0.012817716 -0.059003785 -0.013938779 -0.03694535 0.008971954 0.052535865
-0.043657854 -0.0505317 -0.0022058384 -0.04204566 0.006294606 0.027443532 -0.09411025 0.039851923
-0.026292395 0.006814502 0.014000333 0.05269563 -0.059790183 0.05333252 0.030186174 -0.023975503
-0.04578952 0.0018412299 0.05165922 -0.035487086 0.037016395 0.016252054 0.03120574 0.020200634
-0.034280553 0.0077874362 -0.03178384 0.013322955 -0.052797996 -0.006200134 -0.001450206 -0.042982623
-0.06014488 0.013613928 0.011231552 0.051218137 0.01843064 -0.03942123 0.017458497 -0.041541826
-0.01234006 -0.04308059 -0.00682909 0.05054277 -0.0725917 0.0015515967 0.044127747 0.028505327
0.035287216 -0.040433098 -0.006565876 0.07044172 -0.0063350736 0.060310196 0.0029485857 0.052460633
-0.028125353 0.036982615 0.033499565 -0.00069419225 -0.002392462 0.04082402 -0.04542233 0.04339638
-0.032649823 0.026162025 0.057872687 0.059973944 -0.0674429 0.009780878 -0.06257422 0.0597517
-0.05012534 0.025433145 -0.01745162 0.006096152 0.0304734 -0.04611194 -0.022714714 0.03772718
0.050679743 -0.019663127 0.026128378 -0.06095975 -0.050533425 0.02816246 -0.02874896 -0.008958611
-0.024961857 0.03321016 -0.018391546 0.0017383252 0.002198796 0.020862404 -0.0624117 -0.016809264
-0.054249037 -0.018150343 -0.043696776 -0.07073166 0.010590137 -0.018483395 -0.05389034 -0.039002262
0.053392924 0.004656503 0.0035780831 0.010444908 0.022582106 -0.008018472 -0.015982855 0.007158678
-0.0628856 -0.023895398 0.008984718 0.019862114 0.03657123 0.00872382 0.06461938 0.03660567
0.011809893 0.00626844 0.036689896 0.03732427 -0.0011403455 -0.026096614 -0.019635117 -0.008067608
0.037400346 0.011406107 -0.030772867 -0.037803013 0.034589384 0.045846988 -0.025692113 -0.054973263
0.057607744 0.031326115 -0.038096603 -0.03174176 -0.03969624 -0.04271722 0.0015757332 0.056433164
0.0069824313 -0.0038534105 0.013358418 -0.05919458 0.023973769 0.04533058 -0.016523594 0.044666253
-0.014128757 0.040192164 -0.03266451 0.049896475 -0.019740483 -0.0032041161 -0.014850962 -0.044147752
0.00035365138 -0.017138105 0.010953906 0.055297278 0.02887701 -0.043750696 -0.055983685 -0.029858617
-0.037691057 0.047255576 -0.05492651 0.05105473 0.025193887 0.009643534 0.00735265 0.05381783
0.06118719 -0.03491015 -0.05940552 -0.019167462 -0.043100793 -0.06271079 0.09375836 -0.023800317
-0.054126497 0.021566486 0.012545476 0.060237847 0.0629475 -0.043293234 0.0063285436 0.062202018
-0.0115883155 -0.056258537 -0.01377865 -0.037672885 0.0121290805 0.041440714 -0.04725701 -0.05291814
0.04394114 -0.05263547 0.034195367 0.049294643 -0.011376897 0.020484412 0.018575056 -0.037809607
0.04538011 -0.0072230333 -0.03250494 0.033218734 0.03697599 0.0053927563 -0.043663714 0.00702215
-0.02195355 0.030182023 0.036058646 0.04879706 0.024286916 0.02621311 -0.029085303 0.030126538

linear2.bias f4 [5]
00000000: 1d46 463d 3033 783d a55e 22bd 156a a6bb
00000010: 7fdf 593c
0.04840671 0.06059569 -0.03964104 -0.005078564 0.0132979145
